model_tvae_pretrained.pt (torch, 610661 bytes, 7 tensors)

sigma f4 [156]
00000000: 7ea1 003d 0ad7 233c 0ad7 233c 0ad7 233c
00000010: 0ad7 233c 0ad7 233c 0ad7 233c 0ad7 233c
00000020: 0ad7 233c 0ad7 233c 0ad7 233c 0ad7 233c
00000030: 0ad7 233c 0ad7 233c 0ad7 233c 0ad7 233c
00000040: 0ad7 233c 0ad7 233c 0ad7 233c 0ad7 233c
00000050: 27d6 b33c 0ad7 233c 0ad7 233c 0ad7 233c
00000060: 0ad7 233c 0ad7 233c 0ad7 233c 0ad7 233c
00000070: 0ad7 233c 0ad7 233c 0ad7 233c 0ad7 233c
00000080: 0ad7 233c 0ad7 233c 0ad7 233c 0ad7 233c
00000090: 0ad7 233c 0ad7 233c 0ad7 233c 0ad7 233c
000000a0: 0ad7 233c 0ad7 233c 0ad7 233c 0ad7 233c
000000b0: 0ad7 233c b7e0 543c 0ad7 233c 0ad7 233c
000000c0: 0ad7 233c 0ad7 233c 0ad7 233c 0ad7 233c
000000d0: 0ad7 233c 0ad7 233c 0ad7 233c 0ad7 233c
000000e0: 0ad7 233c 0ad7 233c 0ad7 233c 0ad7 233c
000000f0: 0ad7 233c 0ad7 233c 0ad7 233c 0ad7 233c
00000100: 0ad7 233c 0ad7 233c 0ad7 233c 0ad7 233c
00000110: 0ad7 233c 0ad7 233c 0ad7 233c 0ad7 233c
00000120: 0ad7 233c 0ad7 233c 0ad7 233c 0ad7 233c
00000130: 0ad7 233c 0ad7 233c 0ad7 233c 0ad7 233c
00000140: 0ad7 233c 0ad7 233c 0ad7 233c 0ad7 233c
00000150: 0ad7 233c 0ad7 233c 0ad7 233c 0ad7 233c
00000160: 0ad7 233c 0ad7 233c 0ad7 233c 9705 543c
00000170: 0ad7 233c 0ad7 233c 0ad7 233c 0ad7 233c
00000180: 0ad7 233c 81f8 883d 0ad7 233c 0ad7 233c
00000190: 0ad7 233c 5365 353e 0ad7 233c 0ad7 233c
000001a0: 0ad7 233c 0ad7 233c 0ad7 233c 0ad7 233c
000001b0: 0ad7 233c 0ad7 233c 0ad7 233c 0ad7 233c
000001c0: 0ad7 233c 0ad7 233c 0ad7 233c 0ad7 233c
000001d0: 0ad7 233c 0ad7 233c 0ad7 233c 0ad7 233c
000001e0: 0ad7 233c 0ad7 233c 0ad7 233c 0ad7 233c
000001f0: 0ad7 233c 0ad7 233c 0ad7 233c 0ad7 233c
00000200: 0ad7 233c 0ad7 233c 0ad7 233c 0ad7 233c
00000210: 0ad7 233c 0ad7 233c 0ad7 233c 0ad7 233c
00000220: 0ad7 233c 0ad7 233c 0ad7 233c 0ad7 233c
00000230: 0ad7 233c 0ad7 233c 0ad7 233c 0ad7 233c
00000240: 0ad7 233c 0ad7 233c 0ad7 233c 0ad7 233c
00000250: 0ad7 233c 0ad7 233c 0ad7 233c 0ad7 233c
00000260: 0ad7 233c 0ad7 233c 0ad7 233c 0ad7 233c
0.03140401 0.01 0.01 0.01 0.01 0.01 0.01 0.01
0.01 0.01 0.01 0.01 0.01 0.01 0.01 0.01
0.01 0.01 0.01 0.01 0.021952702 0.01 0.01 0.01
0.01 0.01 0.01 0.01 0.01 0.01 0.01 0.01
0.01 0.01 0.01 0.01 0.01 0.01 0.01 0.01
0.01 0.01 0.01 0.01 0.01 0.012993029 0.01 0.01
0.01 0.01 0.01 0.01 0.01 0.01 0.01 0.01
0.01 0.01 0.01 0.01 0.01 0.01 0.01 0.01
0.01 0.01 0.01 0.01 0.01 0.01 0.01 0.01
0.01 0.01 0.01 0.01 0.01 0.01 0.01 0.01
0.01 0.01 0.01 0.01 0.01 0.01 0.01 0.01
0.01 0.01 0.01 0.012940786 0.01 0.01 0.01 0.01
0.01 0.06688023 0.01 0.01 0.01 0.17714433 0.01 0.01
0.01 0.01 0.01 0.01 0.01 0.01 0.01 0.01
0.01 0.01 0.01 0.01 0.01 0.01 0.01 0.01
0.01 0.01 0.01 0.01 0.01 0.01 0.01 0.01
0.01 0.01 0.01 0.01 0.01 0.01 0.01 0.01
0.01 0.01 0.01 0.01 0.01 0.01 0.01 0.01
0.01 0.01 0.01 0.01 0.01 0.01 0.01 0.01
0.01 0.01 0.01 0.01

weight f4 [128, 128]
00000000: 4316 863c 4c67 893c ea67 c63b 30cc 09bc
00000010: a90c edbb 8918 5d3c b865 a33c 939a 8e3c
00000020: 3f03 4b3b 604a aebc 81b2 95bc c288 84bc
00000030: 6aff 143d 4248 adbc 07a3 d7bc 155a 3abd
00000040: 4a9c a13a 17a7 c83b e0b2 c63c 106b de3c
00000050: 0b3b 823b e5fa 183d 5b5a 0c3c f0b5 853b
00000060: a790 963c 22dc cdbc 2a0b 073c feb3 673b
00000070: e41e 52bb 21d6 943e 4eb7 b23c 58bb 1abc
00000080: 2667 6abc c09a 083c 9c96 cf3a 1400 b7bb
00000090: 2a6a 463c d6f2 9f3c 7026 653c 18f5 9b3b
000000a0: 9d0b f8bc 6820 4d3c 439f 18bc b8eb 293c
000000b0: b880 07bd 2817 103c 2b8a 71bc 9390 b3bb
000000c0: 8800 33bc ef1f 4bbb 3781 953c 5436 9f3b
000000d0: 92cc 8ebb f68a cfbb 3fe7 04be 4cb7 393b
000000e0: e829 24bc 0536 103d a1c7 ca3c f3b1 dbbc
000000f0: d86b 803d 9580 0bbc 19fd 0ebd 7b41 32bc
00000100: b4f2 dabc d34b 793d 7aaa d43b 35f1 3dbc
00000110: e590 303c 93eb 33bc b5ab 223d 7615 77bc
00000120: 9225 363c fa2e 8abc d6f3 0dbd c4dd 46bb
00000130: cad0 67bc cd92 36ba 26ef 1bbc 4620 833c
00000140: cbbc a4bc e157 a53c bce7 9fbc 2896 0c3c
00000150: 4d64 8d3b e656 3ebd 2e61 c2bc d707 2cbc
00000160: 262d 0abc 9f44 6cbc 93f0 dfbc b0d3 e33b
00000170: 6dfe 26bd b4eb 653d 3a8c d0bb 13a7 b8bc
00000180: cd44 01bb 9499 263b 3d35 4f3e db90 abbb
00000190: dfdb e13c 93b3 623c 1b57 e2bb 0d41 fc3b
000001a0: 776d 90bc f7e1 f7bc 0054 af3e dbca cf3d
000001b0: 0f17 483c 1436 6c3a 9402 babb 7aaa 7c3a
000001c0: 27a2 223b 6fd3 483b ce15 a0bc 1f1f 183c
000001d0: c6d2 2eba 7037 b3b9 4cb0 9c3b bf4b 953c
000001e0: 9fee c2bc 031e 433c 0a46 cbba fb4f e33c
000001f0: b859 473c f3b2 173c b2e1 1c3b 9e4f 9cbb
00000200: eb9a 433c 2118 eb3c 043b 0939 e73c a6bc
00000210: 845e 47bc ce71 fd3c 9602 4f3a 68fa 42bc
00000220: 089e 8e38 5e09 013d 0bd4 3fbb 1ade d23b
00000230: 080c 2fbc fc75 4dbc 40e4 29bb f5d5 423d
00000240: 0f84 ec3b 2bce a0bb eb03 2c3c 582b a3bb
00000250: 8b4f cfbc 5c8f 41bb 5836 bdba 029a 90ba
00000260: 1831 aa3c 1c36 a8bb 70e0 f63b 3a6e 00bc
00000270: 7bc2 debb c97f b23e 4f22 89bc a384 b3bc
00000280: f6ba bfbb 8123 173d 19e1 ad3b fed2 1abb
00000290: 1139 013c 7fd3 54bc eb90 a33b 9f60 92bb
000002a0: 280e fe3b cdee 83bb 918d d53c 1e1b db3b
000002b0: 1c94 72bc 6905 30bc 9e32 07ba 7553 de3b
000002c0: 67ba 943c 50a5 113c 5466 ddbb a8d5 fbbb
000002d0: 1597 d6bc 97e9 0a3a 3fc0 89be 68fd 983b
000002e0: b28c 4abb 4f34 803c fe9b 763b 126e cfbc
000002f0: 9e69 ab3b 2ef0 80bc 9de7 0ebc 4fd2 b83c
00000300: 2422 6fbc 5e71 0b3a 8795 133c c888 2a3d
00000310: f2f8 9e3b d911 55bc 888a b03c da50 6d3c
00000320: a3c4 e9bb 3289 a8bc ad29 8cbb 1264 9d3b
00000330: 07af bf3c bd06 f8bb 517e cdbc 9749 aabb
00000340: a611 c63b 4ab8 d839 f13c 9d3c 37e9 d13c
00000350: 1b3b 84ba e43d 46bd 209a d53a a1c2 3e3b
00000360: beea fbbb deaa 20bd 2f4c 123c b814 cf3c
00000370: af97 e9bc f874 92be 6a8a 983b 91af af3a
00000380: c4b1 0fbb 5525 ae3c 528b 963e 3659 42bc
00000390: 8f2f 9ebc 936c 0b3d f763 f53e 293a 27bb
000003a0: 2c1f b13c cf88 b2be 0f31 7dbe aaa3 5abd
000003b0: 0d0d b83b 54ca a93c 9827 8438 f292 813a
000003c0: 7e89 8cbb 7891 89bc 78ab e73c 66d4 863c
000003d0: 2bca a9bb 80d2 0c3c b7e0 3fbc 6b9e a23b
000003e0: e576 7bbc 4b6f 99bb 0d0f 043c 0cae c23c
000003f0: a1c8 4f3b 1122 6d3c 45e5 9cbc 491a f5bc
0.016368037 0.016772889 0.006054868 -0.0084104985 -0.007234175 0.013494619 0.019945964 0.017407691
0.0030977277 -0.0212757 -0.018273594 -0.016178492 0.036376394 -0.02115262 -0.026322855 -0.045496065
0.0012329903 0.0061234343 0.024255216 0.02715066 0.0039743236 0.037348647 0.008566464 0.0040805265
0.018379522 -0.025129382 0.008242408 0.0035355086 -0.003206187 0.29069617 0.021815922 -0.00944408
-0.014306819 0.0083376765 0.0015837732 -0.005584726 0.012110272 0.019524973 0.013986215 0.004759442
-0.030278975 0.012519933 -0.009315315 0.010371141 -0.03308174 0.008794583 -0.0147424145 -0.005479881
-0.01092542 -0.0030994376 0.018250091 0.0048587713 -0.004357883 -0.006333704 -0.12978838 0.0028338013
-0.010019757 0.035207767 0.024753394 -0.026818251 0.062705696 -0.008514543 -0.03490934 -0.01087987
-0.026727058 0.060863327 0.006490049 -0.011593153 0.010776733 -0.010981458 0.039714534 -0.0150808
0.011117356 -0.016868103 -0.03465637 -0.0030344585 -0.0141489 -0.0006964624 -0.009517467 0.0160066
-0.020109555 0.020183505 -0.01951968 0.008580722 0.0043149353 -0.04646959 -0.02372798 -0.010499916
-0.008433616 -0.014420657 -0.027336394 0.0069527254 -0.040769983 0.056132987 -0.0063643726 -0.022540605
-0.0019724846 0.002542113 0.20235153 -0.005235774 0.027570663 0.013836759 -0.0069073564 0.0076981843
-0.017630322 -0.030259116 0.34243774 0.101461135 0.012212529 0.0009010744 -0.005676577 0.000963844
0.0024815889 0.0030643602 -0.019541647 0.009284764 -0.0006668981 -0.00034182845 0.0047817584 0.018224595
-0.023795424 0.011909011 -0.0015508544 0.027748099 0.012167387 0.009258973 0.0023938236 -0.0047702333
0.011938791 0.028698029 0.00013087323 -0.020292712 -0.01216853 0.030938055 0.00078968087 -0.011900522
6.800523e-05 0.031503074 -0.0029270675 0.006435168 -0.010684021 -0.012540337 -0.00259234 0.047567327
0.007217891 -0.0049073896 0.010498981 -0.004979532 -0.025306484 -0.0029534912 -0.0014435751 -0.0011032226
0.020775363 -0.0051334035 0.0075340793 -0.00783878 -0.006798086 0.34863117 -0.016739992 -0.021913832
-0.005851145 0.036899094 0.0053063747 -0.0023624296 0.007887141 -0.012989878 0.004991641 -0.0044670845
0.0077531524 -0.00402627 0.02606848 0.006686582 -0.01480582 -0.010743477 -0.0005157384 0.006784851
0.01815529 0.008889511 -0.006756583 -0.007685382 -0.026195088 0.000529909 -0.26904485 0.0046688803
-0.0030906615 0.015649943 0.00376296 -0.02532104 0.0052310964 -0.015739527 -0.008722213 0.02256122
-0.014595542 0.0005319322 0.009007818 0.04163435 0.004851454 -0.0130047435 0.021550432 0.014484609
-0.0071340366 -0.020573232 -0.004277429 0.004803189 0.02339889 -0.0075691626 -0.025084646 -0.005196761
0.0060445843 0.00041336037 0.019194098 0.0256239 -0.0010088416 -0.048398867 0.0016296543 0.0029107707
-0.0076878956 -0.03922545 0.008929296 0.025278434 -0.028514711 -0.28604865 0.004655172 0.0013403763
-0.0021926025 0.021258036 0.29403168 -0.01186209 -0.019309787 0.03403909 0.4792783 -0.0025516844
0.02162131 -0.34870002 -0.24725746 -0.05337874 0.00561679 0.02072636 6.3016254e-05 0.0009885712
-0.0042888513 -0.016792998 0.028280005 0.016458701 -0.005181571 0.008595109 -0.011711291 0.0049627325
-0.015348171 -0.0046824566 0.008060229 0.023764633 0.0031705278 0.014473454 -0.019152293 -0.02991976

bias f4 [128]
00000000: 12e5 c83d bc2b de3d e3ee 463c d083 493d
00000010: 23a7 423d 3c7d 0e3e 00cf 8e3e 7daa a33e
00000020: 65c9 26bd 5f50 b83d 1292 a13d 1abc d1bd
00000030: 15c4 1ebe bd72 873e 84c6 3c3e e58f 2f3e
00000040: 5eb3 c33d 65b4 ca3b cd43 333e 600e 963d
00000050: 21a1 243e 784c 873e e6f8 75be 00d2 bf3e
00000060: dec2 6fbd c6c7 07bd 654e b8bd 25b4 b53d
00000070: 1d45 573c 2ece 97bc dad8 033e 3fd1 f7bd
00000080: 45a5 793e 81e0 073e b09f 9f3e 2c31 213e
00000090: 32e1 dabc d815 40bd 6dc5 293e 645a 793d
000000a0: f0a7 ae3e e402 f43d 29bc a5bc 17f7 b1bd
000000b0: 58d4 643d 768a 3dbe f4ca 32bd 79d3 b2bd
000000c0: 7662 2abd 875f 003f 040e 963e 3bb6 9b3e
000000d0: c00b 8b3e 29ba babc b39b 1a3e 2f54 163e
000000e0: 2c8a 2b3e 87fa a63d 1a38 c73e b7b8 bf3e
000000f0: ddcb 193e 2dde 9cbd e2a6 fe3e 12e6 14be
00000100: 37ad f5bb 52b2 553e 8076 a83e a25a 0d3e
00000110: 05c0 1c3e d9da 913e b20d 9d3e 8663 803e
00000120: 6a4e d63e f0a9 d83d d1a7 6e3e 2499 593b
00000130: c1c7 fbbd 4525 493e b647 d43e f21f 013e
00000140: 0698 283e def7 95bd 5921 aa3e 9e36 b73e
00000150: e63f 313d a1d9 683c 4f1c 5c3e ce24 9d3e
00000160: c38a ab3e 8203 d73e 9c08 743e 87a3 1c3d
00000170: b989 a93e b19a 2a3e dde2 7cbe 4938 583e
00000180: 5c61 0b3e 484c 8c3e e2d9 34be 47d9 6a3e
00000190: bcc7 c73d d918 f73d 747b 893e 93d1 f2bd
000001a0: e98e 10bd 7dc3 663e 1982 883d aba3 853e
000001b0: 89c5 623e 83b7 043f c9f2 cbbc f9f9 2abe
000001c0: 456d 053e 9d4c 843e 5323 923d 1c42 613e
000001d0: 20dd 10be af00 0a3e abd9 ff3d 9f64 1c3d
000001e0: ce05 ed3c a405 b03e 0670 343e 5345 b83e
000001f0: 97a5 c03d 733b c63d cf9a 72bd a546 493e
0.09809317 0.108481854 0.012141916 0.04919797 0.047522675 0.1391496 0.27892303 0.3196601
-0.04071941 0.089997046 0.07889189 -0.10240956 -0.15504487 0.26454726 0.18435103 0.17144735
0.09555696 0.0061860555 0.17506333 0.073269606 0.16077091 0.2642553 -0.24020728 0.37464905
-0.05853545 -0.033149503 -0.089993276 0.088722505 0.0131390365 -0.018530931 0.12875691 -0.121004574
0.24379452 0.13269235 0.3117652 0.15741414 -0.02671871 -0.04689583 0.16579218 0.06087722
0.341125 0.11914614 -0.020231323 -0.08689707 0.05586657 -0.1850985 -0.043650582 -0.087317415
-0.041597806 0.50145763 0.29307568 0.30412468 0.27157402 -0.022793846 0.15098457 0.14680551
0.16751927 0.08153253 0.3890999 0.37445614 0.15019174 -0.07659564 0.49736696 -0.1454089
-0.0074974555 0.20868805 0.32902908 0.13804105 0.15307625 0.2848728 0.3067451 0.2507593
0.418567 0.10579288 0.23306204 0.0033202851 -0.122939594 0.19643123 0.4146096 0.12609842
0.16464242 -0.073226675 0.33228567 0.35783857 0.04327383 0.014212043 0.21495174 0.30692142
0.33504304 0.41994864 0.23831409 0.03824189 0.33112887 0.16660573 -0.24695916 0.21115221
0.13611358 0.27401948 -0.1766124 0.22934447 0.09754893 0.12065286 0.26852 -0.11856379
-0.03529254 0.2253551 0.06665439 0.2610143 0.22145666 0.51842517 -0.024896042 -0.1669692
0.13029964 0.258397 0.07135644 0.21997875 -0.14146852 0.13476823 0.12492689 0.038181897
0.028933432 0.34379303 0.17620859 0.3599039 0.09406584 0.09679308 -0.05922967 0.19655855

weight f4 [128, 128]
00000000: b992 25bd c8f2 b23d a8fd bcbd 3446 99bc
00000010: 3843 283c 4dc9 a13d aad0 c7bd 6414 723d
00000020: b749 9bbd 429f 8f3d e339 993b 220e 92bd
00000030: fd1c 20bc 92bb 113d 5da6 9e3d 074b 743d
00000040: 7eb7 3d3d 342a e73d e01a 773d 8bc7 1e3d
00000050: 7389 87bc 62fa d43d 2732 173d d74b a8bc
00000060: 9824 b83c 1e68 bebc 7fc4 25bd 33aa d7bb
00000070: ca59 c8bc 68b2 bd3c 77f5 113d a46f c0bc
00000080: cf1a 9bbc 08bd 6fbc 7c80 d6b9 9421 b2bc
00000090: 2e3c 0fbd 4137 87bd 79a9 f2bc 914d b53d
000000a0: d818 863c 0d96 003e 9a42 4cbd 2be1 823d
000000b0: 0f40 e0bb d5a1 14bc d21b 883d 5c5b abbd
000000c0: 72aa 3b3d fb47 943d 96cb 85bc d6e0 5d3d
000000d0: 7f74 813d 444e 5c3d ed5a 9c3d 7bba 353d
000000e0: c997 8bbc 1032 84bc 5023 d63d 5237 82bd
000000f0: a025 c73d fbcc f8bc 94fb 683c 8ec2 bcbb
00000100: 1665 ca3c 2bbe 833d 77d8 de3c 7119 503c
00000110: 5f08 a03b 0e72 6b3d 5bdf 793d 8601 37bc
00000120: 9e68 b43d 6153 f53c 261a d6bc 7016 99bd
00000130: ae2f a5bd 9654 973d 8fe2 d6bd 2b76 923d
00000140: 7983 533d 8ec3 8bbc 4514 cf3c 569d 56bc
00000150: 78be 6b3d cb64 17bc 6479 f33d 8712 c53d
00000160: 7a9e 4f3d 734f f1bc a047 e8b5 0c64 4f3d
00000170: c926 023e b26c 893d 19c0 dc3a 2336 193b
00000180: 04fc 8dbb bb8d 093a 0222 8b3c 0b2e 44bd
00000190: cb30 073e 9a04 30bd 2a42 e73d 2009 63bd
000001a0: 7ae1 ee3c eec0 f83a 091e 1a3c d45a e1bd
000001b0: 1c93 8d3d 3e93 863d ae87 6f3d 0e2f c63c
000001c0: f75a a33d 7ee7 b63d fdef 833c 99b0 233d
000001d0: 607a 94bd 4e12 6e3d 45d0 cc3c bc88 9c3d
000001e0: 9f7d 9fbc 144b f1bc 330b 983d 8955 a93c
000001f0: fa30 83bd c870 87bc b98c 8c3c 1046 863d
00000200: d370 0bbd 66aa 72bd f01d 8ebd 4ab8 9f3d
00000210: b912 f03c 5de7 fbbc ee8c 92bd 8cec e0bc
00000220: 72ba 41ba 66bc 713c 9629 96bd 9f0e db3d
00000230: afc9 803e 812e e1bc 1a37 fabd c4c0 163d
00000240: f556 36ba dac5 8a3b 412c b93c 5051 3abe
00000250: a4e5 c0bc 97b1 e2bc 4c16 913d 4753 5abd
00000260: 0761 f6bc 324f 71bd 886f 82bb 693c ffbd
00000270: c5f5 9fbc 24e7 4cbe 1738 123d d5d8 653d
00000280: a3aa 463e c110 4d3d 043b 243d 2d0f 08bd
00000290: c3c3 b93d bc0d 1abd fdc5 b8bd bf15 7d3c
000002a0: 12ce edbd c2be 823c 6dfa eebd 1016 103e
000002b0: 02e3 da3b 1c36 713c 62e1 bcbd 8b27 393e
000002c0: 659f e2bc ad91 b8bd 28f2 593d 7e3f 27bc
000002d0: 433f e43c 4a3c c6be fd3d 51be 22bc afba
000002e0: 6d95 1a3d c7ea 713d 23d3 433c 056d 57bd
000002f0: 6daf 123c ef17 443d e2bf 93bd 8b12 663d
00000300: 904d 83bd 74db 243b 7e9d 84bd c73a c6bd
00000310: 3b7f 453d 30c0 46bc 9574 883d bc59 babd
00000320: fc6a 99bd 5745 4cbd cc13 aabd a020 55bc
00000330: ca94 84bd 1b06 33bc f12d afbc 2208 19be
00000340: 23b8 7abd 5a24 a53d b0af e6b9 ad63 a8bc
00000350: f01b 37be 4c35 2ebc 7c2c 09be 5eef a3bc
00000360: 8cc9 0dbd 5be3 273d 2cc3 38be f647 52ba
00000370: 82bb 7dbc 7a75 f4bc dd45 453e 8770 85bd
00000380: b283 71bd d36b 50bd cae5 4a3e 2f68 c6bd
00000390: 9d1d ef3c e561 afbd 2c7a c7bd 9934 b8bc
000003a0: 9663 fcbd eeb1 a9bd a924 04bd 2a60 4ebc
000003b0: aba9 2a3c f205 ffbc 83e4 193d f225 d63c
000003c0: d8c4 45be af42 bebd 6fc9 483c 4ab2 c43c
000003d0: d25e ecbb 7fe8 803c a251 26be 9a58 ef3d
000003e0: 855f 4ebd 99d0 86bd 8b27 23bd 971f a9bd
000003f0: ce69 05bc 1e9d 463b 30f9 03be d128 84bd
-0.04042313 0.08737713 -0.092280686 -0.018710233 0.010269932 0.07899723 -0.097565964 0.059101477
-0.07582419 0.07012798 0.00467609 -0.07131602 -0.009772536 0.03557927 0.07746575 0.059641864
0.04631757 0.112873465 0.060328364 0.038764518 -0.016545033 0.10399319 0.036913063 -0.020543976
0.022478387 -0.023243006 -0.040470596 -0.0065815686 -0.024456877 0.02315636 0.035634484 -0.023490734
-0.018933682 -0.014632471 -0.0004091299 -0.021744527 -0.0349695 -0.06602336 -0.029621826 0.08852685
0.016369268 0.1255724 -0.049868204 0.06390604 -0.006843574 -0.009071787 0.06645931 -0.08367035
0.045816846 0.07240292 -0.016332429 0.0541695 0.06321048 0.053785577 0.0763453 0.044367295
-0.01704015 -0.016137153 0.10455954 -0.06358208 0.09723973 -0.03037118 0.014220137 -0.0057604974
0.024706405 0.06432756 0.027202828 0.012701378 0.0048838104 0.057481818 0.061004024 -0.011169797
0.08809017 0.029946985 -0.026135515 -0.07474983 -0.08065735 0.0738918 -0.10492431 0.07151445
0.051639054 -0.017061021 0.02527822 -0.013099035 0.057554692 -0.0092403395 0.11888388 0.096226744
0.050688244 -0.02945683 -1.7306193e-06 0.05063252 0.12710108 0.06710185 0.0016841918 0.0023378215
-0.004333021 0.0005247255 0.01698399 -0.047895472 0.13202207 -0.04297314 0.11291917 -0.055428624
0.02916025 0.0018978396 0.009406575 -0.11003652 0.069128245 0.06571053 0.058479004 0.02419236
0.079763345 0.089308724 0.016105646 0.03996334 -0.07249904 0.058122925 0.025001654 0.076432675
-0.01946908 -0.029454745 0.07424011 0.02067067 -0.06405826 -0.01653327 0.017156946 0.06556332
-0.034043144 -0.059244536 -0.06939304 0.07798822 0.029305803 -0.030749971 -0.071557865 -0.027456544
-0.0007390148 0.01475439 -0.07332151 0.10696148 0.25153872 -0.027487995 -0.12217541 0.03680493
-0.00069557066 0.0042350115 0.02260411 -0.18195081 -0.023547001 -0.027672572 0.07084331 -0.053302076
-0.030075563 -0.058913417 -0.0039805807 -0.12462694 -0.019526372 -0.20010048 0.035698023 0.05611499
0.1940103 0.050064806 0.040095344 -0.033217598 0.09070542 -0.037610754 -0.09022138 0.015447079
-0.116115704 0.015960101 -0.11668859 0.14070916 0.0066798935 0.014722373 -0.09222676 0.1808149
-0.027663896 -0.090121605 0.053209454 -0.010208009 0.027862197 -0.38717872 -0.20433803 -0.0013407508
0.03774016 0.05906179 0.011952194 -0.052594204 0.008952958 0.047874387 -0.07214333 0.056170028
-0.06411278 0.0025155218 -0.06475352 -0.0967918 0.04821704 -0.012130782 0.06662861 -0.09099147
-0.07491109 -0.049870815 -0.08304557 -0.013008267 -0.06473692 -0.010926749 -0.021384211 -0.14944509
-0.061210763 0.08063574 -0.00043999916 -0.020555342 -0.17881751 -0.010632824 -0.13395876 -0.0200116
-0.03461604 0.040988307 -0.18043202 -0.0008021587 -0.0154866 -0.029841173 0.19264932 -0.065156035
-0.058963485 -0.05088408 0.1981422 -0.0968784 0.029188925 -0.08563594 -0.09740099 -0.022486018
-0.12323682 -0.082858905 -0.032261524 -0.0125961695 0.010416429 -0.031130765 0.03757144 0.02614114
-0.19313371 -0.09290063 0.012255057 0.024010796 -0.007213452 0.015735863 -0.16242078 0.11686821
-0.050384063 -0.065827556 -0.039832633 -0.082579784 -0.008142902 0.0030306051 -0.12888026 -0.064530976

bias f4 [128]
00000000: 8c9a 05bd 732a b1bd 9b8e 633d 1180 d73c
00000010: d635 473b fede 07be 12a4 813d d113 d7bd
00000020: 00c5 8cbd 148b 563d 14cd 4a3d 2663 86bc
00000030: 0ff6 5ebd 80d3 c7bd 77f7 52bd 7c11 dbbd
00000040: ccd9 323e 5600 033e bfe5 ec3c c7d5 563d
00000050: 7c6d 9f3d ab42 aebd a116 d73c 0b0f ca3c
00000060: cbb3 193e fc41 a4be d057 3e3d 8eca b23d
00000070: 6d30 aa3d f460 b63d 5e4e 8c3d ceb1 9dbd
00000080: cbf9 8fbc 6068 d63d 2e4d ad3d 194f 053d
00000090: 1636 57be 3cb6 87bc 4b05 543d 1897 ac3d
000000a0: 7484 03bd a774 0d3e ca35 273e c60b c3bc
000000b0: 4afa 093e 22ea 543d 8662 5fbc 9bdf d33d
000000c0: 5cd6 e03c 3416 ddbd 9f21 a83d 570d 623d
000000d0: 73c8 ee3c 6d34 9f3e 11eb 293e d0d3 d0bd
000000e0: 72d9 463c 4f9a 48be 72f5 05bd 577d cfbc
000000f0: 5b2c aa3d 368c 04ba ef3b 203e 4ce9 20bd
00000100: 41fe ec3d 3c2b 7c3d 5fbf 11bc 2b96 8c3d
00000110: 357c b23d 916c e33c ca79 aebd a1ba 023d
00000120: 2057 af3d 04e1 aa3d 25be 4cbe cbef 58be
00000130: 75b2 913d c696 98be 7d5c 8e3b 1208 913c
00000140: 4d70 193d 7afb f03d d988 86bd f8ba 703d
00000150: f2a8 c9bd bd5d 1cbd 935e e8bc 3fe9 483d
00000160: 23d1 84bd 0ba8 d13c 68c6 033e dad3 1ebc
00000170: aa54 253d e123 82bc 1a7e d0bb e34d c4bc
00000180: 2b7f 92be 374d e7bc ecdb a03b f0bd b1bd
00000190: c385 1bbd 9fa6 b63d 0af2 183d 8651 99be
000001a0: 09a2 563e 5b64 393c 7163 d93d 68a5 923c
000001b0: 82f2 30bc e356 873d d38f c03c 2850 f83c
000001c0: ae64 f83b cebb 24bd 76d4 57be acbf 44bc
000001d0: 758d 1d3e 50a6 8dbc fb86 403d 05bb 453d
000001e0: 08ce b43d a42d e1bc 9b58 1a3e f95f 4c3c
000001f0: f7dc 52bd dbe9 22bd 8c3f 0ebd 9648 bc3c
-0.03261809 -0.08650675 0.05555592 0.026306184 0.003039708 -0.13268659 0.06330122 -0.105018266
-0.06873512 0.05237873 0.049511984 -0.0164047 -0.05443388 -0.09757137 -0.051505532 -0.10696694
0.17465895 0.12793097 0.028918145 0.052449968 0.07784554 -0.0850881 0.026255907 0.024665376
0.15009992 -0.32081592 0.046470463 0.087300405 0.08310018 0.08905211 0.06850885 -0.07699929
-0.017575165 0.10469127 0.084619865 0.032546137 -0.21016726 -0.016566388 0.05176286 0.08427256
-0.03210874 0.1381403 0.16329113 -0.023809325 0.13474384 0.0519811 -0.01363433 0.10345384
0.027445965 -0.107952505 0.08209538 0.055188503 0.029148316 0.31094685 0.16593577 -0.1019665
0.012136804 -0.19590114 -0.032704778 -0.025328321 0.083092414 -0.00050562934 0.15647863 -0.03928499
0.115719326 0.06156467 -0.008895724 0.0686458 0.08715097 0.02776173 -0.08519323 0.031916264
0.0856154 0.083436996 -0.1999441 -0.21185224 0.07114116 -0.2980253 0.0043445216 0.017704044
0.037460614 0.11766715 -0.0656907 0.058772057 -0.09846677 -0.038175333 -0.028365409 0.049050566
-0.06485202 0.025592824 0.12868655 -0.009694064 0.040363945 -0.015886249 -0.0063626887 -0.02396292
-0.28612646 -0.028235061 0.004909029 -0.08678806 -0.037969362 0.08918499 0.0373402 -0.2994501
0.20960249 0.0113154305 0.1061467 0.017901137 -0.010800006 0.06608369 0.02350608 0.030311659
0.0075803613 -0.040218167 -0.21077141 -0.012008589 0.15385993 -0.017291218 0.047003727 0.04827406
0.0882836 -0.027487583 0.15072863 0.012474054 -0.05148026 -0.039773803 -0.03472857 0.02298383

weight f4 [156, 128]
00000000: ba3c 66b9 8d87 e93a 4297 d9ba 786b 20bd
00000010: 679d 22bd fe05 70bc e681 2fbd 1515 073c
00000020: 3553 c3bc b175 673c 5ef2 273d dc34 0ebd
00000030: 2122 5abd dc0b 28bc e86d 04bd 19d5 143c
00000040: 65dc 073d 4bab 97bb 4dea af3c f69f 90ba
00000050: ee38 583b a60f 853c 4513 f03d ae0e d13c
00000060: 3b34 5fbc fd9b 00bc 55f1 a53d e1c2 c63c
00000070: afb0 8bbb 516b 47bc bfbf 3ebd 64a6 1f3d
00000080: 70f9 2cbd 957a 8b3d 42dd 1f3c 85e5 853c
00000090: 4774 a03b 98a6 aa3a 3115 803b dfdb 6a3d
000000a0: ec7d 333d 501a 8bbb f401 0c3a 33a9 e5bc
000000b0: bc9b fc3c a1e5 a2bc c1ac 643b 6554 663d
000000c0: c515 e93c 4fec 19bd 05ea 1fbd 6feb 133b
000000d0: 26ec 213c e6d0 a73b 5254 093d 40e1 47bd
000000e0: 7b10 8abc a92e 23bb 2e33 44bc 3fff 023c
000000f0: 2fb2 753d b0cd fc3b e176 08bd c2c4 67bc
00000100: 73ad 43bc a946 37bd 8ddb 9f3d 3c0c 68bd
00000110: c900 99bd 3629 5ebd 5624 723c a30c 563d
00000120: 0d1b 1b3c 1090 503d 3072 5bbd 9846 25bc
00000130: 3b21 5c3d 9d5f 32bb 889c c9b9 6028 303d
00000140: 360a 843d 3afe 5a3d 09cd fcbb c9ce f03c
00000150: 8517 94bd 51bf 4fbd 930e 24bd b73c 89bd
00000160: 5c80 ce3c bbe4 92bd 2262 b1bd 87b3 52b9
00000170: dceb 76bd a073 4dbd 11de d53c fc1b 6e3c
00000180: 1f64 82bc fbfd 913c e59b 90bd e731 99bc
00000190: 266a 09bd 6e8a 2ebc 3437 ae3c 06d5 e1bc
000001a0: dbb4 03bc d218 75bb 16a6 8e3b 4f89 fdba
000001b0: 8211 8b3b d1ca 903d a95d a6bb b14c 9dbd
000001c0: 0113 60bd 2b25 0cbc f2c2 b339 77e0 4dbd
000001d0: 5c24 363c 077d b5bc 196b 3ebd 3193 53bc
000001e0: d91d 073d f7b8 edbc 1a5a 9e3c 60ab 78bd
000001f0: 90b3 083c 74a4 dbbc 9b6e 79bd c491 e7bc
00000200: c079 0e3d 2f3a e6bd fd51 eebc 4e47 973d
00000210: 617c 9bbd a3c1 a33d 2b29 023d 066a a33b
00000220: 9acf 5b3d ea3e 0b3d 06c1 e0bc 9f6b fb3c
00000230: 3e1f 3f3c 86de 8e3d bc73 13be 2402 ccbd
00000240: 54aa ff3d 3821 923d 909b 8c3d a1a7 70bd
00000250: 2da2 713d 378c bb3c 0d9c e93b 4f4f 38bd
00000260: c5de 01be 725b 7ebf 9857 ca3d b826 b73d
00000270: fd16 3f3e d754 febd f122 5a3e c9eb 193d
00000280: ca9f db3c ecd2 ec3b 119a f8bc 7c38 953d
00000290: d619 8abc aed6 f93d 8946 1ebc 587f babd
000002a0: 3977 2c3e 723a c0bd 068f b43d c6ae 4dbc
000002b0: 6822 8dbd 2452 493d a6af 5fbd 3059 2c3e
000002c0: 634c 74bd 9e43 583d b330 2dbe 30f0 333d
000002d0: b791 8a3c d074 0f3e 3231 203e 9a61 97ba
000002e0: c892 4e3d 9fcc 1bbe 29d0 c03c e697 e23d
000002f0: 3da5 acbc fc81 3abc de48 28bd 33e0 ad3d
00000300: 1133 3b3d eaf3 8bbc 6e4f 3cbc f9b9 7dbc
00000310: 0d63 38bd 37fa a23d e30f 113e e1f3 48bd
00000320: 7744 a43d a4a8 b6bd 5602 51be cf6d 5ebe
00000330: 0bd3 1fbd 7de9 173f fc24 55bd f34f 853d
00000340: f254 ccbd 3bad 193e 157e 00bd 66b8 d9bd
00000350: 7531 30bd 1e01 1cbd b589 6fbc 20c9 fd3c
00000360: 24e6 433d bef1 7abd 8701 12be 9264 eabd
00000370: 568a bdbc f5d0 fdbd 71cd 8e3d f05f 9abb
00000380: 18be b8bd e1e9 c73c b827 e13c 52d1 6d3d
00000390: a302 28bb ffee e43c d011 673d 8000 453e
000003a0: 8ad1 d0bd a7d6 dbbd 82db 82bd 8575 7e3d
000003b0: e4c5 623d 620b 1f3e 5391 c9bd f6ba f23c
000003c0: cc36 803c 3c9c ddbc 20d8 04bf 6001 83bc
000003d0: d012 0abd 3903 a03d f181 123e a7cf 123e
000003e0: 472c 3d3e 2aa2 833d 4590 0fbc 9bd9 903d
000003f0: 32b1 0e3c a278 7c3b 04e1 893b 19fe 413c
-0.00021957132 0.0017816887 -0.0016600864 -0.03916499 -0.03970089 -0.014649866 -0.04284849 0.008244772
-0.023843387 0.014127181 0.041002624 -0.03471838 -0.053255204 -0.010256734 -0.032331377 0.00908401
0.03316917 -0.004628574 0.021474028 -0.0011034 0.0032992917 0.016242813 0.11722425 0.025519695
-0.013623293 -0.0078496905 0.08102671 0.024262847 -0.0042630057 -0.012171582 -0.046569582 0.03897704
-0.04223007 0.0681049 0.009757342 0.016344795 0.004896674 0.001301962 0.003908776 0.05733859
0.04382126 -0.00424508 0.0005340867 -0.028034782 0.030835979 -0.019884886 0.0034893008 0.05623283
0.028452763 -0.037578877 -0.039041538 0.002257075 0.009882962 0.005121338 0.03352768 -0.0487988
-0.016853562 -0.0024899638 -0.011975093 0.007995426 0.059984382 0.0077149495 -0.033316497 -0.014146032
-0.011943209 -0.04474512 0.07805548 -0.056652293 -0.07470853 -0.05423852 0.014779171 0.052258145
0.009466899 0.05091864 -0.053575695 -0.010087632 0.05374263 -0.0027217634 -0.00038454332 0.043007255
0.0644726 0.053465106 -0.007714872 0.029395478 -0.072310485 -0.050719563 -0.04005296 -0.067010336
0.02520769 -0.07172533 -0.086612955 -0.0002009404 -0.060283527 -0.050159097 0.026106866 0.014533039
-0.015916882 0.017821303 -0.070609845 -0.018700553 -0.033548497 -0.010653121 0.021266557 -0.027567398
-0.008038725 -0.0037398827 0.004353295 -0.0019343289 0.0042440305 0.07069934 -0.005077083 -0.07680643
-0.054705624 -0.008553783 0.00034286786 -0.050262894 0.011117067 -0.022154344 -0.046488855 -0.012913511
0.03298745 -0.029018862 0.019330073 -0.06071031 0.008343592 -0.026811816 -0.060896497 -0.028267749
0.03478408 -0.112415664 -0.02909183 0.07386647 -0.07592083 0.07995918 0.031777542 0.004987004
0.05366478 0.033995546 -0.02743579 0.030690966 0.011665164 0.06976037 -0.14399618 -0.09961346
0.124836594 0.07135242 0.06865609 -0.058753613 0.058992554 0.022894008 0.0071291984 -0.04499751
-0.12682636 -0.99358284 0.098799884 0.08942932 0.18661113 -0.12418526 0.21302392 0.037578378
0.026809592 0.0072272923 -0.030346902 0.07286164 -0.016858023 0.1219915 -0.009660372 -0.0910632
0.16842355 -0.093861476 0.08816342 -0.012553876 -0.06891328 0.0491506 -0.05461087 0.16830897
-0.05964316 0.05279886 -0.16913109 0.043930233 0.016915185 0.14009404 0.15643767 -0.0011549473
0.05043295 -0.15214776 0.023536758 0.110641286 -0.021074886 -0.01138353 -0.041085117 0.08490028
0.045702998 -0.01708408 -0.011493547 -0.015486234 -0.045016337 0.07957881 0.14166217 -0.049060706
0.08020871 -0.089188844 -0.20411047 -0.21721576 -0.039019626 0.5934065 -0.052037224 0.0650939
-0.099771395 0.15007488 -0.03137024 -0.10630874 -0.043015916 -0.038087003 -0.014620234 0.030979693
0.0478269 -0.0612657 -0.14258395 -0.114449635 -0.023137253 -0.12393371 0.069727786 -0.0047111437
-0.090206325 0.024403514 0.02748476 0.05806095 -0.0025636337 0.027945993 0.05641347 0.19238472
-0.101962164 -0.10734301 -0.06389524 0.062123794 0.055364504 0.15531686 -0.098421715 0.029630166
0.01565113 -0.027052037 -0.5189228 -0.015991867 -0.033709347 0.07813115 0.14307381 0.14337026
0.18473922 0.06427415 -0.008762424 0.07072755 0.008709239 0.0038524051 0.004207732 0.011840367

bias f4 [156]
00000000: d705 18bd bfac a9bd 4606 0b3e 9410 0f3e
00000010: 79bd a83b 22cb c2be 2020 d63d d788 f13d
00000020: 8dd1 50bd ccfe 183d ec2b 0cbc c80e c2bd
00000030: 7036 263e 2cf1 af3d 5aba 54be de29 dabb
00000040: c7a3 45be 1ad6 a9bd 49fa 05bd b6d8 8bbc
00000050: 528e 52bc a6da 513d c5d1 103d 8434 37be
00000060: 6c16 5abc 8539 b6bd c6ad ddbd 1f84 503c
00000070: 9518 eaba bc49 32bd d838 7bbe 970f 75bd
00000080: 8176 a83e abb6 2c3e 7b1a 803e 9a59 7ebe
00000090: ab29 883e ceaa 633d 1d84 323e 84e0 8d3d
000000a0: 546c 00be 651c 86bd 3619 f5bd 4c67 02be
000000b0: 08ef 953d c009 563d 300f b5be 1566 57be
000000c0: abdd 543e c472 883e a43e 8f3e 1b49 0a3e
000000d0: cc66 5abe 386e 2bbd 76ff 2cbd 8b03 013f
000000e0: 79f8 01be 419a 4ebd 536b e23d 2b9e 783d
000000f0: 17a2 1f3d 3339 1f3c 3556 59bc cdc4 6ebe
00000100: de17 fc3d db45 37be 0e67 823e 7c6e 8c3e
00000110: 263f 02be e435 12be 27c6 50bd 2714 c3bc
00000120: 79a0 55be 275c adbd 7d6e ff3c 263a 5c3e
00000130: 50d2 67bd 4557 a4bd a52f 903e a906 0bbe
00000140: d15f b4bd 5730 f5be be76 0f3e 6806 d83d
00000150: 19c7 3ebe 01ce 6f3d 3d2d b33e 4a40 d33b
00000160: dda5 6d3d 5e36 9f3d 7de9 95bc 464d 873c
00000170: c590 573e ae64 7dbe 9c40 80be 7e18 353d
00000180: c007 cdbd e5f8 253d f11b b83d eb17 ecbd
00000190: 5a7d b7bd a7cb cebc ce4d c83e 546d 2dbe
000001a0: eec4 6fbd d2b7 31be e1c4 00be 356f 95bd
000001b0: 4798 64be 5fb4 a7be af4c 2c3c ba7d 633d
000001c0: 3276 f6bc 125f 99bc 4180 2f3d bd68 743d
000001d0: ebec c03d e4e4 a33b 4549 dd3d 5677 82bc
000001e0: 978f 7bbd 11c7 64bd 3d09 ecbd ae6f 32be
000001f0: 5bdc d3bd 11f3 163e 471b b1bd 00cb f3bd
00000200: 838e 25be 76df 9e3c a2c0 15bd bc4c a8bd
00000210: c9ba b6bd 5ad4 093e 597e b93c 8372 c8bd
00000220: ccd2 f2bd 36f7 d3bd 4326 dabd 419e 26be
00000230: 52d3 1b3e 05d6 ca3d 54fe abbd 15a8 fcbc
00000240: c08f e3bd 7603 b9bd df7d 01be 6847 5ebd
00000250: 2e04 0fbd d39e 743a c235 fabd e0db 20be
00000260: 4c77 3bbe ea87 093c 5cbf 813e bb02 96be
-0.037114944 -0.08284902 0.13576612 0.13971168 0.00514954 -0.38045603 0.10455346 0.11793678
-0.050981093 0.03735237 -0.008555394 -0.094754755 0.16231704 0.08590922 -0.20774212 -0.006657823
-0.19300757 -0.0829279 -0.032709394 -0.01707111 -0.012851315 0.05123391 0.0353563 -0.17891127
-0.01331101 -0.0889769 -0.1082416 0.012726813 -0.0017860109 -0.04352735 -0.24533403 -0.05982932
0.3290291 0.16866557 0.25020203 -0.24838868 0.2659429 0.055582814 0.1743321 0.069275886
-0.12541324 -0.065483846 -0.11967699 -0.12734717 0.07320982 0.052255392 -0.3536315 -0.21035035
0.20787685 0.2665006 0.27977479 0.1350445 -0.21328276 -0.04185316 -0.042235814 0.5039603
-0.12692441 -0.050440077 0.11055627 0.060697716 0.03897294 0.009718227 -0.013265182 -0.23317261
0.1230924 -0.17897741 0.2546925 0.27428043 -0.12719402 -0.1427837 -0.050970223 -0.02381332
-0.20861997 -0.08464842 0.031180615 0.21506557 -0.056597054 -0.08024458 0.2816135 -0.1357676
-0.08807338 -0.47888443 0.1401014 0.10548097 -0.18630637 0.05854607 0.34995452 0.006446873
0.058019508 0.077740416 -0.018299812 0.016516339 0.21051319 -0.24745438 -0.25049293 0.04421281
-0.10011244 0.040520567 0.089897044 -0.115279995 -0.08959456 -0.025243593 0.3912186 -0.16936237
-0.058537416 -0.17355278 -0.12575103 -0.07296602 -0.22323714 -0.327548 0.01051633 0.055539824
-0.030085657 -0.01872209 0.04284692 0.0596702 0.094201885 0.005001651 0.10804991 -0.015926044
-0.061416235 -0.055853907 -0.115251996 -0.17425415 -0.10344764 0.1474116 -0.08647781 -0.119039536
-0.16167645 0.019393664 -0.036560662 -0.08217761 -0.08922345 0.13459912 0.022643255 -0.097874664
-0.118566126 -0.10349886 -0.10651829 -0.16271307 0.15217331 0.09904102 -0.083981186 -0.030841867
-0.111114025 -0.09033863 -0.12645672 -0.054267317 -0.034916095 0.0009331528 -0.12217285 -0.15708876
-0.18307227 0.008394221 0.25341308 -0.29298958
