CraftingTable/models/ckpt/decoder.pt (torch, 23161 bytes, 31 tensors)

VAE_Decoder.layers.0.attention.W_q.weight f4 [4, 4]
000000 bf 9a e2 3e c8 33 23 3f b4 7a b2 bd 5e bd 9c 3e
       0.44258687 0.63750887 -0.0871481 0.30613226
000010 b2 20 9f 3e 9d 9d c8 be 6b 0d d1 be fe 0c 4f bf
       0.31079632 -0.3918275 -0.4083055 -0.808792
000020 46 fe 42 bf ea cc 50 3e 94 b8 bd 3d 5a e9 ca 3d
       -0.7616924 0.20390669 0.09263721 0.099077895
000030 00 be 52 3e d7 2d 32 be 81 ae c6 3d 65 0c 2a 3f
       0.20580292 -0.17400299 0.09701253 0.6642516

VAE_Decoder.layers.0.attention.W_q.bias f4 [4]
000000 12 a5 53 3d 48 ae 03 3e e7 c8 f2 bd 3d d3 85 3c
       0.051671095 0.12859452 -0.11854725 0.016336078

VAE_Decoder.layers.0.attention.W_k.weight f4 [4, 4]
000000 34 ef 77 be 9f 9d e3 bc c1 58 c1 3d 51 05 4b bd
       -0.24212343 -0.02778512 0.094407566 -0.049565617
000010 e1 7f d9 3e dc 60 2b bf 60 25 6f be ec 99 15 bf
       0.42480376 -0.6694467 -0.23354101 -0.5843799
000020 25 4e ef 3e a8 5a 87 3e 96 70 76 be d0 d7 65 be
       0.46739307 0.26436353 -0.24066386 -0.22445607
000030 31 e8 36 bf ee fa cb 3d ef a2 90 3e 91 06 76 3e
       -0.71448046 0.099599704 0.28249308 0.24025942

VAE_Decoder.layers.0.attention.W_k.bias f4 [4]
000000 13 a8 f5 37 b9 0c b2 b6 44 cb 78 36 14 fd a0 37
       2.9284542e-05 -5.3062945e-06 3.7073196e-06 1.9191335e-05

VAE_Decoder.layers.0.attention.W_v.weight f4 [4, 4]
000000 04 62 95 3f 10 23 44 3f 79 a8 1e bf df 9f 15 bd
       1.1670537 0.76616 -0.6197582 -0.036529418
000010 90 1d ac bc b4 75 41 bd 47 99 5d 3d 4c b4 15 bd
       -0.02101019 -0.04723139 0.054101255 -0.036548898
000020 2d 44 28 3a 60 6f 52 bd a5 f2 35 bc 6c a2 1e bc
       0.00064188504 -0.051375747 -0.011105214 -0.009682279
000030 b9 95 73 3f 14 ce 49 bf 7b 37 d8 be 87 29 53 bf
       0.95150334 -0.78830075 -0.42229828 -0.8248524

VAE_Decoder.layers.0.attention.W_v.bias f4 [4]
000000 93 e7 89 3d 8a 90 bd 3e 38 38 87 bd 6b 80 6f be
       0.067336224 0.37024337 -0.0660252 -0.23388831

VAE_Decoder.layers.0.linear0.weight f4 [128, 4]
000000 ff 4d 67 3d 49 57 3a 3e 57 29 35 3e 2a 56 8d bd
       0.056470867 0.18197359 0.17691551 -0.069012
000010 b5 4a bc be d1 85 a8 3e 04 c9 26 3e 39 6a 9d 3e
       -0.36775747 0.32914594 0.16287619 0.30745104
000020 2d d5 98 be 8f b0 cb 3e bb 77 29 3e 72 57 bb be
       -0.2985014 0.3978314 0.1654958 -0.36590153
000030 f6 43 87 3e 1f 68 ff be 34 33 6c 3e 17 fe b2 bd
       0.26419038 -0.49884126 0.23066407 -0.0873987
000040 48 6e 0d 3e c9 70 90 3e 9f a0 6a be a7 d6 0b 3f
       0.138116 0.28211048 -0.22912835 0.5462441
000050 68 2e e9 be f2 68 9d 3d 83 75 ab 3e 3f 1a 3a be
       -0.45543218 0.07686032 0.33488092 -0.18174075
000060 e4 6b b6 bd 84 85 5b 3e 8a ca 2d 3e 0e a4 86 3e
       -0.08907297 0.21437651 0.16971794 0.2629704
000070 5c 48 b4 be 81 d3 af be c9 57 8a 3e 5c 5f 04 bf
       -0.35211456 -0.34341052 0.270201 -0.51708007
000080 57 88 03 bf 78 07 7c 3e 51 05 a1 3e ad 57 de 3e
       -0.51379913 0.24612224 0.3144937 0.43426266
000090 42 5a f1 3e b1 f9 b2 bd 67 a9 f4 be ce 4f b3 be
       0.47139174 -0.08739031 -0.47785494 -0.35021824
0000a0 3a e7 4c 3e f9 58 90 3e ed cc a8 3d bb a3 dd 3e
       0.20010081 0.2819288 0.082422115 0.4328898
0000b0 cb 5d ff 3e 40 36 ac be 3b a7 f7 bd 1e c1 a3 3e
       0.49876246 -0.3363514 -0.120924436 0.31983274
0000c0 63 21 d6 3e 05 f3 92 bc e4 06 e2 3e 96 48 a7 3e
       0.41822347 -0.017938146 0.44145882 0.32672566
0000d0 c5 e7 fd be de 08 96 3d c6 41 2c 3e 47 f2 89 be
       -0.4959089 0.0732591 0.16821966 -0.26942655
0000e0 0f d7 ca 3e ec 1d f2 be 81 39 02 bf d1 f3 02 3f
       0.39617202 -0.47288454 -0.50868994 0.51153284
0000f0 63 f5 33 3e 30 ca 81 3e bd 52 87 3e d9 51 ee be
       0.17574076 0.2534957 0.26430312 -0.4654682
000100 d5 9c d9 be a3 ba 04 3f 5a ce 9c be d3 61 17 3e
       -0.42502466 0.51847285 -0.30626184 0.1478341
000110 42 bf 12 bf f5 a6 96 3e 43 22 fe 3e c6 06 b1 bc
       -0.57323086 0.29424253 0.49635515 -0.021609675
000120 58 9d 42 3e cd 05 30 3d cb 99 95 be bf 9e 57 be
       0.19005334 0.042974282 -0.29218897 -0.2105665
000130 5d 3e 1f bd 0b fa 8f be 0d 8f 9b 3e 33 fe 92 3e
       -0.038877834 -0.28120455 0.30382577 0.28709564
000140 77 73 8e 3e 3c 3f c6 be e1 13 30 3e e1 c2 21 3f
       0.27822468 -0.3872012 0.17195083 0.63187987
000150 8a a9 54 3d dd 96 8f 3e d6 0f 99 be c5 9b c4 be
       0.051919498 0.28044787 -0.29894894 -0.38400093
000160 c0 fa a7 be e6 c6 9e 3e f8 9c cf 3e 3a 11 e5 be
       -0.32808495 0.31011122 0.40549445 -0.44739705
000170 75 26 82 bd 59 66 03 be d2 97 e7 3e 35 5e c4 be
       -0.06354991 -0.12832011 0.45233017 -0.38353124
000180 b5 a3 8f 3e 7d 67 bd 3e ed 37 d4 3e 3c 84 de 3e
       0.28054586 0.36993018 0.41448918 0.43460262
000190 a1 2c a8 be 8a 04 0c bf 28 82 32 3e d4 f2 91 be
       -0.3284655 -0.54694426 0.17432463 -0.28505576
0001a0 dc d1 a1 bd 87 d9 82 be 8a a9 a0 3e 9f 36 be 3d
       -0.079013556 -0.25556585 0.31379348 0.09287762
0001b0 81 a3 dd be 35 52 e7 3d 10 d6 9f be bd 0b 1a be
       -0.43288806 0.112949766 -0.31218004 -0.1504354
0001c0 63 73 a6 3e 80 c0 ab be c3 f1 0d bf d5 3f ff 3e
       0.32509908 -0.33545303 -0.55447024 0.49853387
0001d0 b0 29 99 3e 3d 9f 81 be d5 bb ae be 36 69 ef be
       0.29914618 -0.25316802 -0.3412768 -0.46759957
0001e0 39 8c 52 3d cb 0c 1f be 5d 9b 1c 3e 37 cb 6e 3e
       0.051403258 -0.15532224 0.15293641 0.23319708
0001f0 0a 1b 34 be 07 1a 11 3f a6 5c 90 3d eb d9 71 be
       -0.1758844 0.5668034 0.07048921 -0.23618285
000200 7b 46 ad be c5 d8 0a 3e 22 de 91 3e b9 8d a6 be
       -0.33842835 0.13559254 0.28489786 -0.3253
000210 47 04 9f 3e cc 82 9f be 1e f4 86 3e ea 51 18 3f
       0.3105795 -0.31154478 0.26358122 0.5949999
000220 6c 4e d6 bd 9b 87 12 3e 7c 66 e0 be 3e ce 7d 3e
       -0.104641765 0.14309542 -0.4382819 0.24785706
000230 03 47 14 be df 3a 86 be 30 22 10 bf 81 96 e7 3e
       -0.14480214 -0.2621679 -0.56302166 0.45232013
000240 2d 4a ee be a0 e4 28 be a7 7e dc 3e 74 62 94 be
       -0.46540967 -0.16493464 0.43065378 -0.28981364
000250 97 02 d9 be 51 77 a5 be 75 15 d7 be 14 91 03 bf
       -0.42384788 -0.32317594 -0.42008558 -0.51393247
000260 b4 b8 ae be 88 25 a0 bb 8c 88 bf 3c 7e 63 51 3d
       -0.34125292 -0.0048872866 0.02338054 0.051120274
000270 99 6c c2 3e 86 26 a0 be 03 20 d6 be 2c 31 aa 3e
       0.37973478 -0.3127939 -0.41821298 0.3324064
000280 79 ef 5c bd 58 7a f4 3d df b3 d9 bd b0 5b a4 bc
       -0.053939316 0.11937398 -0.10630011 -0.020063251
000290 a6 49 0c 3f ca bf bb 3d 4e b7 17 3e f6 7a 8e 3e
       0.5479988 0.0916744 0.14816019 0.27828187
0002a0 eb ed 1f be f6 77 b2 be 1e 5e 9e 3e b4 0f 90 3e
       -0.15618102 -0.34857148 0.3093118 0.2813698
0002b0 73 2a 9f 3e ef e1 db 3d f1 4a 09 bf 04 e4 05 3f
       0.31087074 0.10736453 -0.53629977 0.5230105
0002c0 24 c9 8d bd cd 19 f6 bd b0 a8 e9 3e 2a 0b 8f be
       -0.0692313 -0.1201664 0.4563651 -0.27938205
0002d0 52 0d 01 3f be e8 5a 3d 0c 56 b1 be 96 08 af 3d
       0.5041095 0.053444616 -0.3463596 0.085465595
0002e0 2a ea 9d 3e 03 ea 10 3f e0 9f bc bb 7a ef fb be
       0.30842716 0.56607074 -0.0057563633 -0.49206144
0002f0 9d ba f0 be 12 3f c1 be 2c 2c e3 3e a8 bb ae 3d
       -0.47017375 -0.3774343 0.44369638 0.08531886
000300 0a f1 fd 3e 86 ad 90 bd f4 d6 dd bd 79 d5 c7 be
       0.4959796 -0.07064347 -0.10832015 -0.39030054
000310 bc 40 24 be fb 2e 7a 3e fe b5 0a 3f cc f8 d7 be
       -0.16040319 0.24431984 0.5418395 -0.42182004
000320 a0 b6 4e be bb 33 d1 3e 31 75 61 bc 94 ca a9 3e
       -0.20186853 0.4085978 -0.013760851 0.33162367
000330 f4 93 0a bf 48 56 3e be 38 41 12 3e e3 f2 46 be
       -0.5413201 -0.18587601 0.14282691 -0.19428591
000340 3f 2b 12 3f a0 4f 3a 3e 5e 8d 4a bd 8c df ee be
       0.5709724 0.18194437 -0.049451225 -0.46654928
000350 ca e6 c9 3e 69 dc 13 bf 71 da 33 be 92 25 09 3f
       0.3943389 -0.57758194 -0.17563798 0.5357295
000360 ae 75 f3 3c d9 53 42 be 2b b2 86 3c a4 a2 9d bd
       0.0297192 -0.18977298 0.016442379 -0.07697037
000370 20 44 74 ba 75 21 13 bf b8 63 a2 3e e6 51 5b be
       -0.0009318013 -0.57472926 0.31716704 -0.2141796
000380 7b 0f 23 be 8c 35 0f 3d 12 95 aa 3e 8f 3c 1c 3f
       -0.15923874 0.034963176 0.33316857 0.61029905
000390 74 19 fd 3e d0 22 90 3d 7d 91 7f 3e 98 a4 f3 be
       0.49433482 0.0703789 0.24957843 -0.47586513
0003a0 b1 74 84 be 9e 2e ca 3e a9 a0 8e bc f1 52 f6 3d
       -0.25870278 0.3948869 -0.017410593 0.120275386
0003b0 7b c1 a4 be 11 af bf bd 8d 08 ad 3e 3c cd 9a bc
       -0.32178864 -0.09359563 0.33795586 -0.018896692
0003c0 5f d3 96 be 44 10 cf bd 29 0b 1a 3f 58 0a cd be
       -0.29458138 -0.10110524 0.6017328 -0.40046954
0003d0 a7 27 02 3f 67 fe 09 3e 8f 00 c9 be a4 f0 b4 be
       0.50841755 0.13475953 -0.3925824 -0.35339844
0003e0 a2 85 0d bf a7 36 9b 3e cd bc 85 3d b2 16 18 3e
       -0.5528203 0.30315134 0.065301515 0.14852408
0003f0 63 ea 80 bc f8 d2 79 3e ae 93 95 be 92 fe dc 3e
       -0.015736764 0.24396884 -0.29214233 0.43162972

VAE_Decoder.layers.0.linear0.bias f4 [128]
000000 d4 65 d9 3e b1 2b bc be 49 7f 8a 3c 6b 06 ac 3d
       0.424605 -0.36752084 0.016906397 0.08399662
000010 4d 76 93 3e 20 d1 59 3e 7e 3d 60 3e 6b 7f 82 be
       0.28801194 0.21271181 0.21898457 -0.25487837
000020 0a 6e ae 3e 27 38 35 3e 90 c8 d5 3e 82 7f 82 3e
       0.34068328 0.17697202 0.4175458 0.25487906
000030 66 52 3e 3e 72 44 08 bf 77 85 3e 3e 68 84 b5 3e
       0.1858612 -0.5322944 0.186056 0.3545258
000040 03 73 1d bf 61 f9 48 3d f2 cb e1 be 21 06 dc 3e
       -0.6150362 0.04906595 -0.4410091 0.42973426
000050 a2 da 20 bf f8 15 e2 3e 87 c9 db be 72 66 51 3e
       -0.6283361 0.44157386 -0.4292719 0.20449236
000060 eb fc 7c 3e b0 cd 11 ba ff 17 41 3e 7c 6d 55 be
       0.24705856 -0.0005561961 0.1885681 -0.20842546
000070 51 e9 dc 3e 40 e0 ac 3e c2 49 fd 3e eb a2 1a be
       0.43146756 0.3376484 0.49470335 -0.15101211
000080 c7 22 d6 3e 85 e1 99 be 34 2e 98 bd f6 b1 dd 3e
       0.41823408 -0.3005487 -0.074306875 0.43299836
000090 26 91 e6 bd f4 56 a6 3e fc 13 c3 3e ca 78 96 be
       -0.112581536 0.32488215 0.38101184 -0.2938903
0000a0 5e 23 31 3e 70 87 f4 be a5 ec dd 3e b1 06 06 3f
       0.17298648 -0.4775958 0.43344608 0.5235396
0000b0 85 e9 13 3f 15 9e 10 3e 02 de a9 3e 11 d2 f6 bd
       0.577782 0.14122804 0.3317719 -0.12051786
0000c0 85 79 c4 bd b5 6b 5b bd 2b 7b 4a 3e 9a 2f a2 3e
       -0.095934905 -0.053569514 0.19773547 0.31676942
0000d0 e1 ea 8a be cb ee 30 bf cc 2e 37 3e ea f8 2b 3e
       -0.27132323 -0.6911437 0.17888945 0.16794172
0000e0 b6 e0 f4 3e bd e0 41 be 3d c8 25 be 5e 52 ef bd
       0.4782769 -0.18933387 -0.16189666 -0.11685632
0000f0 7d 00 e3 be 16 d4 0a 3d 0e af ce 3e 60 36 b2 be
       -0.4433631 0.033893667 0.4036793 -0.3480711
000100 0a e4 f5 be cb 13 0e bf 81 b5 d1 3e 08 6c 9d 3e
       -0.48025542 -0.5549895 0.4095879 0.30746484
000110 7d 33 cb 3d c2 98 86 3d 60 0a 86 3e 27 3a 51 be
       0.0992193 0.06572105 0.2617979 -0.2043234
000120 4f ab f4 3e 8d ac 52 3e 70 ce d8 3e 3f 1b c5 3e
       0.47786948 0.20573635 0.42345 0.3849735
000130 01 a3 51 be 11 44 b0 3e b8 28 78 3e a2 fa 23 3e
       -0.20472337 0.3442693 0.24234283 0.16013578
000140 54 4c f0 bd 89 71 c9 be d5 e2 f3 3c 0f 17 04 be
       -0.117333084 -0.39344433 0.029771248 -0.12899421
000150 a3 79 d9 3e 7f a4 f5 bd 03 8d 82 3e e4 fc 7c be
       0.42475614 -0.11994266 0.25498208 -0.24705845
000160 0e d6 d0 be 0e 95 8c be 65 23 81 be 4d 78 7b bd
       -0.4078831 -0.2745747 -0.25222316 -0.061394025
000170 c5 9e 30 be 60 2e f8 3e 90 8c d2 3e 72 18 f3 be
       -0.17248066 0.4847288 0.41122866 -0.47479588
000180 0a a4 d7 bb 6c 9b c8 3e e2 77 f3 be b2 75 45 3e
       -0.0065808343 0.39181077 -0.475524 0.19283178
000190 50 d2 da 3e 56 77 77 3e 17 6b ec 3e e0 8a 84 be
       0.4273858 0.24166617 0.46175453 -0.25887203
0001a0 01 6a e4 be d1 39 d3 be 60 79 89 bd b8 c6 2a be
       -0.44612125 -0.41255048 -0.067126036 -0.16677368
0001b0 93 cc 61 bc 8b 2a 5e 3e dd 41 f5 3d 5b a8 8c 3d
       -0.013781684 0.21695916 0.11975453 0.06868049
0001c0 60 6d 2b bf ee 95 35 3e ed 44 ee 3d 16 b9 9c 3e
       -0.6696377 0.17732975 0.1163424 0.3060996
0001d0 3a ae 51 bf 50 cc 91 be 53 34 dc bd a6 db 2e bf
       -0.81906474 -0.2847619 -0.107521676 -0.68303907
0001e0 79 f6 fe 3d e8 92 f6 bd 8b f2 fe 3e a0 94 0c bf
       0.12449355 -0.12039739 0.4979442 -0.54914284
0001f0 b5 44 15 3f ed 05 5b be e0 9c bd 3d 9a b0 de 3e
       0.58307964 -0.2138898 0.09258437 0.4349411

VAE_Decoder.layers.0.linear1.weight f4 [4, 128]
000000 b4 db ea 3d 80 02 7e be c6 e3 e5 bc c9 43 a6 3c
       0.11467686 -0.24805641 -0.028062712 0.020295994
000010 13 fa a4 bd 8f f6 28 3b c9 6b 37 3c b1 64 ed 3d
       -0.0805551 0.0025781726 0.011195132 0.11591471
000020 63 21 f2 3c 20 ab ce bd 6d 66 b0 bd 9f 68 cf bd
       0.029556936 -0.10091233 -0.08613286 -0.10127377
000030 c7 ba c9 3c b4 84 70 3e 28 b2 21 be b0 a8 b5 3d
       0.024625195 0.23488122 -0.15790617 0.08870065
000040 a9 eb 37 3d 28 77 d8 3c 91 17 36 3f 7a ba 95 ba
       0.044902477 0.026424006 0.7112971 -0.0011423372
000050 f4 57 eb bd 4e e4 eb bc 74 21 d4 bc ca bf d7 3c
       -0.11491385 -0.028795388 -0.025894858 0.02633657
000060 58 38 cc 3c dc a8 45 bc 52 3d 83 bd 24 b0 3c 3e
       0.02492921 -0.012064185 -0.0640818 0.18426567
000070 b3 a2 e4 bd 9f c5 96 bc 22 28 99 bd 71 6b 3d 3e
       -0.11163845 -0.01840478 -0.07478358 0.18498017
000080 ee 00 92 3d 72 0d fd 3c fe 41 c7 bd ff 96 b4 bd
       0.071290836 0.0308902 -0.09729384 -0.08817863
000090 d6 60 9b 3c df 62 02 bd 09 63 4c 3d 79 75 3a be
       0.018967073 -0.031832572 0.049899135 -0.18208875
0000a0 a6 6c 9e bd dc da 8b bd 8c 5c cd 3d 80 96 56 be
       -0.07735567 -0.068288535 0.100274175 -0.20955849
0000b0 54 6a 0a bd 12 32 0d be ad b6 66 39 b3 ea 65 bd
       -0.03379281 -0.13788632 0.00022002561 -0.05613203
0000c0 16 71 03 be 1b 9c df 3d a0 f1 06 3e a4 78 a7 3d
       -0.12836108 0.10918447 0.1317811 0.08177307
0000d0 a4 34 dd bd cc e2 9c be f1 ea 63 bd a0 58 92 bd
       -0.10801056 -0.30641782 -0.05564398 -0.0714581
0000e0 7e 30 b3 3d 30 f7 ac 3b 92 48 67 3d 7b ff dd 3c
       0.087494835 0.0052784905 0.056465693 0.027099362
0000f0 18 60 b1 3d 60 dc 33 be 6d 14 9e 3d 1d fd 2b 3b
       0.086609066 -0.17564535 0.0771874 0.0026243397
000100 de df 8d bd 6e 5a 53 3e 86 56 9e bd 46 40 6e bd
       -0.06927465 0.20639965 -0.07731347 -0.058166765
000110 63 38 80 3c 10 d4 cc 3c f7 a3 82 bd 6f c1 f6 3d
       0.015651887 0.025003463 -0.0637893 0.12048613
000120 84 46 d3 3c 48 14 86 bc 7a 77 b2 bc 93 df 1f bd
       0.02579046 -0.016367093 -0.021785486 -0.039031576
000130 ce a8 c9 3d 4d 71 82 3c c8 f9 2b 3d 29 dc 10 bd
       0.0984665 0.015923167 0.041986257 -0.03536621
000140 1e 97 25 3e a6 f5 f4 3d ed 91 f6 3d 17 02 7e bd
       0.16170928 0.11960916 0.12039552 -0.06201371
000150 40 c0 97 bd a2 96 79 3d d1 42 2c 3e 22 c1 ed bd
       -0.07409716 0.06093467 0.16822363 -0.11609103
000160 29 1b 99 bd 42 30 3e be 8d e8 0f 3d 26 bc 24 3e
       -0.074758835 -0.18573096 0.035133887 0.16087398
000170 23 a1 28 bc 14 23 ba bd 61 14 12 3d b1 73 77 3d
       -0.010292324 -0.09088722 0.035663966 0.060413066
000180 ca 93 ea 3d 8b ea 0f 3b ba 63 c5 3e 9f 01 ad bc
       0.1145397 0.0021959867 0.38552648 -0.021118937
000190 18 f3 f5 3d 83 03 98 3d cf 38 05 3e 62 03 cb bd
       0.12009257 0.07422545 0.13009952 -0.099127546
0001a0 95 f0 b7 bd 2d 27 f1 3e ba bd 1e bd 9c 95 77 3d
       -0.08981434 0.471002 -0.038755156 0.060445413
0001b0 73 a3 9e bd dc f2 52 3d 9a b2 a1 bb a9 b7 a8 3d
       -0.07746019 0.05150114 -0.004934621 0.082381554
0001c0 c1 25 19 3d b2 5f bf bd 37 d1 d7 bd 29 ab a1 bd
       0.03738952 -0.09344424 -0.105379514 -0.07893974
0001d0 cd f3 22 bf 1c 29 e4 3d a9 52 d7 bd 4c 0a b1 be
       -0.6365326 0.111406535 -0.10513813 -0.34578168
0001e0 12 37 d3 bc 70 ba 07 bd 80 41 17 bc a6 47 91 3e
       -0.025783096 -0.033136785 -0.009231925 0.28374976
0001f0 36 67 a2 bc 5b 17 06 3e bd ff 8d bd e4 8e 0b bd
       -0.019824605 0.13094847 -0.06933544 -0.034071818
000200 cb dc fe bc 4b ef a9 3e da dd 8e 3c 14 05 16 3e
       -0.031111142 0.3319038 0.017439771 0.14650375
000210 8e 35 a2 bb 59 44 ac bc 3a 90 98 3d dd 97 1f bd
       -0.004950232 -0.021028684 0.07449384 -0.038963187
000220 ba 5a d3 3c 21 66 e9 bb ba 49 cf bd a8 03 1a bd
       0.025800098 -0.0071227704 -0.10121484 -0.037601143
000230 e1 f9 8e 3d de d8 b2 be ba 36 43 bc e3 11 b8 3c
       0.06981254 -0.34931082 -0.011914903 0.022469467
000240 17 95 9f bb ee 60 fe bb 93 13 31 bd aa 8e d1 3d
       -0.004870068 -0.0077630198 -0.043231558 0.10232289
000250 05 87 27 bd b0 89 d0 bd f5 c5 18 bd f7 03 81 3d
       -0.04090025 -0.10182512 -0.03729816 0.06299584
000260 1f 96 bc bc 5c 73 53 3c a4 b2 eb 3d 20 17 f3 3c
       -0.023020802 0.012905922 0.11508682 0.029674113
000270 09 21 1c ba d7 29 b7 bd 6c 53 98 3d 2e 79 a3 3d
       -0.00059558504 -0.08943527 0.074377865 0.079820976
000280 1b c2 72 3d cf 41 c2 bd e2 2b 06 be 60 94 87 3c
       0.059267145 -0.09485208 -0.13102677 0.016550243
000290 ce 3f 95 bd 08 24 bd bc c6 62 5c 3d e6 aa 80 bd
       -0.072875604 -0.02308847 0.053805135 -0.06282596
0002a0 6a 68 8e bd 62 36 58 3e e3 7b 6e bc 1b 98 2a bd
       -0.06953509 0.21114495 -0.014555904 -0.041648965
0002b0 36 5e a9 3c b3 ae 27 be 20 6f 78 bd c4 f1 58 3e
       0.020674806 -0.16375236 -0.060652852 0.21185976
0002c0 8a 50 e7 bc e3 2b 25 3d 15 e2 e8 bc 1a 7b 6f 3d
       -0.028236646 0.040325057 -0.028428117 0.05846701
0002d0 eb 39 0b bd c2 be 02 bd 98 ba a1 3d 18 24 73 3d
       -0.03399078 -0.031920202 0.07896918 0.059360594
0002e0 7c 6d b4 3c 62 c0 0d 3d a9 f4 a7 3d 5e ff 4d 3b
       0.022024862 0.0346073 0.08200962 0.0031432728
0002f0 bc 6a 1b bc 2d 86 7d 3d c4 b4 82 3d cf e5 d5 3b
       -0.009485897 0.061895538 0.063821346 0.0065276395
000300 0a a3 01 3d 1f 5a f6 bd 62 9a c8 bd 8a 2d 01 3d
       0.031649627 -0.12028908 -0.09795071 0.03153757
000310 d1 8c 24 be 35 87 d6 bd 70 21 88 bd 16 29 ab 3e
       -0.16069342 -0.104750074 -0.06647003 0.33429784
000320 b6 ef 5c 3c 88 0a 50 3d 1e 89 42 bd b4 fa c4 3d
       0.013484886 0.050791293 -0.047494046 0.0961813
000330 b4 54 a5 bd 88 10 28 bd c4 b9 24 bd 7c 92 ec bd
       -0.080727965 -0.04103139 -0.040216222 -0.11551377
000340 6a 32 78 bd 3a d7 53 be f4 18 13 3d b1 11 69 bd
       -0.060594954 -0.20687571 0.03591247 -0.056901637
000350 8b ac 88 bc f4 4f 09 3c ec 92 3a bd f3 62 3c bd
       -0.016683837 0.008380879 -0.045550272 -0.045992803
000360 b6 42 82 3c ba 0d 25 be 8e 94 b0 bd 28 c4 38 bb
       0.01590095 -0.16118518 -0.086220846 -0.002819309
000370 d9 9f cd bc 74 b0 8f 3c 32 d4 e6 3c 8c f7 a1 bc
       -0.025100635 0.017540194 0.028177354 -0.01977136
000380 96 0c c0 bd 73 56 c6 3b 42 84 09 3e 82 56 36 3c
       -0.093774006 0.006052786 0.13429359 0.0111290235
000390 f2 9a 61 bc 51 d1 69 bd 98 62 51 bd e1 5a b3 3d
       -0.013769852 -0.057084385 -0.051119417 0.08757568
0003a0 ef b3 6a bd ba d3 a0 3e a8 7a 87 3d 68 4d 08 3e
       -0.057300504 0.31411535 0.06615192 0.13310778
0003b0 23 d0 15 3d bf 3d 51 3b 41 d1 4b 3d be 43 6d bd
       0.036575448 0.0031927673 0.049760107 -0.057925932
0003c0 05 9f 9b 3d ca 3a 4a bd 67 05 a8 b9 24 6a 0c 3b
       0.0759869 -0.049372472 -0.00032047482 0.002142557
0003d0 48 9a f4 3f 1f 2c 40 3e cc 66 6f 3d 91 db 36 be
       1.9109583 0.18766831 0.058447644 -0.17857195
0003e0 0a 48 7e 3b f4 32 22 3e e7 d6 56 bd 3b 2e cf 3c
       0.0038800263 0.1583975 -0.05245104 0.0252906
0003f0 fe d4 39 3c 39 ba ec bd dc c1 ae 3c 73 89 99 bd
       0.011342285 -0.11558957 0.021332674 -0.074969195

VAE_Decoder.layers.0.linear1.bias f4 [4]
000000 c2 c1 3d bd 13 47 af bb 87 5e 29 bd cf db 32 3d
       -0.04632736 -0.005349049 -0.041349914 0.043666657

VAE_Decoder.layers.0.norm1.weight f4 [4]
000000 64 62 a2 3f 2c 46 95 3f 18 28 92 3f 6a c9 9a 3f
       1.2686276 1.166204 1.1418486 1.2092717

VAE_Decoder.layers.0.norm1.bias f4 [4]
000000 dc 63 09 3d b3 1f 33 bd 9f 2a bb bd 99 fa 65 bd
       0.0335425 -0.043731403 -0.09138989 -0.05614719

VAE_Decoder.layers.1.attention.W_q.weight f4 [4, 4]
000000 02 11 0a bf cb db 38 bf 2c e3 57 3d ec 35 1b 3f
       -0.539322 -0.7221038 0.052706882 0.60629153
000010 be 81 37 3f dc 41 12 be 1e 81 9d 3c 90 a2 47 bf
       0.71682346 -0.14282936 0.019226607 -0.77982426
000020 7c af 74 3f 07 de ec 3d 0d 07 aa 3d aa 25 31 bf
       0.9558027 0.11565786 0.08302126 -0.69198096
000030 ad 76 4e 3e 99 76 41 bf 6b 4a f8 be 46 c2 04 bc
       0.20162459 -0.7557159 -0.48494276 -0.008102959

VAE_Decoder.layers.1.attention.W_q.bias f4 [4]
000000 62 b8 cd be f1 82 5b 3e 89 95 62 3f cb 5a 98 bd
       -0.40179735 0.21436669 0.8850942 -0.074391924

VAE_Decoder.layers.1.attention.W_k.weight f4 [4, 4]
000000 ec f9 d3 3e 86 a5 1f bf fe 54 60 be 05 2f ce be
       0.41401613 -0.62361944 -0.21907422 -0.40270248
000010 a5 32 75 bf 45 ab 15 3f 67 9d 87 3e 9f 0c 15 bf
       -0.957804 0.5846446 0.26487276 -0.58222383
000020 e0 5c 9f bf 6d f8 b3 3d 1f 93 c5 3c f6 3b 39 3e
       -1.2450218 0.08787618 0.024118004 0.1808928
000030 a6 b0 d3 bd be a6 0f bf 91 3e 78 3e 5a 71 6b be
       -0.103364274 -0.56113803 0.24242617 -0.22992459

VAE_Decoder.layers.1.attention.W_k.bias f4 [4]
000000 27 54 fc b7 d8 e1 5a 37 c8 52 f3 36 e4 cc d9 35
       -3.0079927e-05 1.3046396e-05 7.2516013e-06 1.6227391e-06

VAE_Decoder.layers.1.attention.W_v.weight f4 [4, 4]
000000 7b ab c1 3e 72 08 0a bf 02 b4 2d be 9c bd 0c 3f
       0.37826142 -0.53919137 -0.16963199 0.5497682
000010 ce 1a 02 be 2a ea 8e 3e 8e af a0 3e 68 ad a5 bd
       -0.12705538 0.27913028 0.31383938 -0.08089715
000020 39 e7 b3 bd b9 8b fb 3d 7c 1c 46 3d 76 59 74 3e
       -0.087843366 0.12282509 0.04836701 0.23862252
000030 11 ab d8 3e 7e f4 c3 be ca 5b 9c 3e 9d 48 77 3e
       0.42318013 -0.3827247 0.3053878 0.24148794

VAE_Decoder.layers.1.attention.W_v.bias f4 [4]
000000 94 31 b1 3d 01 62 01 3d eb b6 85 bd c5 90 9b 3c
       0.086520344 0.031587604 -0.065290295 0.01898993

VAE_Decoder.layers.1.linear0.weight f4 [128, 4]
000000 66 71 b1 3d f8 2c 57 3e f6 54 0d 3f d0 fe 32 3e
       0.08664207 0.21013248 0.55207765 0.17480016
000010 0b 84 9d be db 93 a7 3e 77 3d e3 be dc c1 0f bf
       -0.30764803 0.32729992 -0.4438283 -0.5615518
000020 4d a9 31 be fb cf 1a bd 7a 5d a7 be ba 90 0e 3f
       -0.1734974 -0.037796002 -0.32688504 0.55689585
000030 bf 5e 53 be ec 92 05 3f 37 e3 87 3e 40 3f ae be
       -0.20641612 0.5217731 0.2654054 -0.3403263
000040 e6 de 9e bd 59 a3 85 be bd 57 9c 3f a5 c9 84 be
       -0.07757358 -0.26101187 1.2214276 -0.25935093
000050 d9 36 80 3e 8a 6e 6a 3e a7 ac 5f 3e ad d4 0c 3e
       0.25041845 0.2289373 0.21843205 0.13753004
000060 fa fc 91 3e 26 94 91 be ff b8 8d be c4 18 28 3f
       0.28513318 -0.2843334 -0.27680203 0.6566279
000070 86 8e ca 3d 8d 4e 38 bd 4e d3 78 be 98 9d 04 bf
       0.098904654 -0.044996787 -0.24299356 -0.5180297
000080 93 bc 72 3c cd 47 6b 3e 0e 7f 52 3e 8a 7b 31 3e
       0.014815467 0.22976609 0.2055628 0.17332283
000090 b9 94 bd be 50 de 96 3e 9f 07 59 3e 4b 8d e1 3d
       -0.3702753 0.29466486 0.21194313 0.110132776
0000a0 cd 5a 1f 3e ea 0f ee be 49 66 c1 3e bd 0f e3 bd
       0.15561981 -0.46496516 0.3777335 -0.11086986
0000b0 11 08 b6 3e f9 5a 38 3e 71 5d 16 bf 76 dd 0a 3f
       0.3555303 0.18003453 -0.5873633 0.5424417
0000c0 5b 02 00 be ef a8 5a 3e c4 60 8c 3d f2 e0 58 bd
       -0.12500899 0.21353506 0.06854394 -0.0529489
0000d0 91 59 b2 3e b0 49 16 be 56 e6 d2 3e fa 77 91 be
       0.3483396 -0.14676547 0.41191357 -0.28411847
0000e0 1f c8 9c 3c c7 62 7e 3d 5b bf 9a 3e 33 40 db 3e
       0.019138394 0.06210592 0.30224118 0.42822418
0000f0 f0 24 75 be 67 67 34 bf 41 95 ed be 2f f0 2d 3e
       -0.23939872 -0.7047028 -0.46402934 0.16986154
000100 04 8b 8c be 61 b3 d7 3e 42 16 6a bf fd f0 0a 3e
       -0.2744981 0.42129043 -0.9144021 0.13568492
000110 ee c4 93 3e 39 b0 3f be 6c 4d 0d be 81 d2 cd 3c
       0.28861183 -0.18719567 -0.13799065 0.02512479
000120 49 36 e2 3c a1 2b 5c bf a5 33 6c bf 69 99 36 3e
       0.027613776 -0.8600407 -0.92266303 0.17831959
000130 c2 b8 cb 3e 47 81 d3 3e 27 af 4d bf 4e 2d fe 3e
       0.39789397 0.41309568 -0.80345386 0.4964394
000140 ff 96 7e 3e 10 b8 11 3f ea f3 9d be e5 85 cd be
       0.24862288 0.5692148 -0.30850154 -0.40141216
000150 96 41 ab 3e 8e 0e c6 3e ac 54 5e 3f 08 34 85 3d
       0.33448476 0.3868298 0.8684795 0.06504065
000160 0e 13 b8 3e c6 5e 2d 3e 0a 31 aa be 85 a3 7f be
       0.35952038 0.16930684 -0.3324054 -0.24964722
000170 7a 7e ca bd 58 e8 89 be 0e 49 2e 3f 4e ee 15 be
       -0.09887405 -0.26935077 0.6808022 -0.14641687
000180 87 71 8e bf 2e 7c 7d bd 20 55 3f 3e 94 0b e3 bd
       -1.1128396 -0.061886005 0.18684816 -0.11086193
000190 bd 4d 6b bf 7a 84 07 3f 29 66 a9 be 09 3c 72 3d
       -0.91915494 0.5293652 -0.33085755 0.059139285
0001a0 06 ab ce be 88 1c dd 3e d3 10 1a bf 6a 5c bd be
       -0.40364856 0.4318583 -0.6018192 -0.3698457
0001b0 bc af 69 3e 4a 06 13 3e 35 4d fd be 6a 62 c3 be
       0.22820944 0.14357868 -0.49472967 -0.3816102
0001c0 60 4f 52 bd 76 5c 7c be bf 65 07 bf 88 d7 0a 3f
       -0.05134523 -0.24644646 -0.5288963 0.54235125
0001d0 95 77 80 3e 92 12 3c 3e e9 c7 93 3d 38 29 e0 3e
       0.25091234 0.18366459 0.07215864 0.43781447
0001e0 2c 58 03 bf 57 5d 72 be 9c 9c a6 3e 20 c8 b5 3e
       -0.51306415 -0.23668419 0.32541358 0.35504246
0001f0 7a a8 5e be 1a 20 22 3f 21 7d 11 bf 51 80 2f be
       -0.21743956 0.63330233 -0.56831557 -0.17138793
000200 68 93 1b 3e 98 69 0c 3f a2 58 bc be 66 0f e3 be
       0.1519295 0.54848623 -0.3678637 -0.44347686
000210 03 68 e3 bd e5 f9 ce 3e fc 20 8d be c0 06 4d be
       -0.11103823 0.4042503 -0.27564228 -0.20022106
000220 47 25 d8 3e 79 f6 bc 3e 73 d9 ae ba fb 31 a0 bd
       0.4221594 0.36906794 -0.0013339951 -0.07822033
000230 0a c0 00 bf 59 50 3b 3d 58 c7 83 3e 46 d4 d4 3e
       -0.5029303 0.045730922 0.25738025 0.41568202
000240 b6 58 0a bf 13 21 ff 3e cb e1 b9 be 3e 56 f7 3e
       -0.5404161 0.4982992 -0.3630508 0.48307985
000250 90 7c 90 be c5 91 4d 3e e4 9f 90 be 9c 0e bc 3e
       -0.28220034 0.20075138 -0.28246987 0.36729896
000260 ec 67 7f 3e 65 0c 0f 3d 70 4e 42 be 59 e4 be bb
       0.24941987 0.03492393 -0.18975234 -0.005825561
000270 29 53 d2 3e 79 55 9a be aa be 0e 3f d8 ac de 3e
       0.4107907 -0.30143335 0.5575968 0.43491244
000280 a3 a6 75 3d e8 8f 15 bf 7e 01 9d be d6 9e c4 3e
       0.05997337 -0.5842271 -0.306652 0.38402432
000290 47 41 c7 3d de 43 0e 3e 92 18 95 3e 0d d9 02 bf
       0.097292475 0.13893077 0.29120308 -0.51112443
0002a0 5e a6 f4 bd 9d 89 3e bf 19 d3 eb 3e c8 0e af 3e
       -0.119457945 -0.7442873 0.46059492 0.34190965
0002b0 fa bd 12 be 65 c7 43 be d0 63 8e 3e 43 99 62 3e
       -0.14330283 -0.19119032 0.27810526 0.22128777
0002c0 d4 21 c1 be 3b ab d5 3e 19 9d 38 3e ce ad e7 bc
       -0.3772112 0.417322 0.18028678 -0.028281119
0002d0 2d e1 b9 be d4 ed f7 3e ff 3c 3a bf fb b0 95 be
       -0.36304608 0.48423636 -0.7274932 -0.29236588
0002e0 99 cf ce be f6 9d b4 3e d3 c3 62 be c0 3e 4a bd
       -0.4039276 0.35276765 -0.22145014 -0.04937625
0002f0 00 fd 59 3f de db 6c 3f 46 3b cc be 67 b4 de bd
       0.8515167 0.9252299 -0.39888972 -0.10874253
000300 12 86 14 be 37 1b d0 3e 23 0d c1 be 15 64 a4 be
       -0.14504269 0.40645763 -0.37705335 -0.32107607
000310 7c be 45 be 18 0c 39 3f 23 d4 0a bf 9f c3 0e be
       -0.19310945 0.7228408 -0.54229945 -0.13941811
000320 88 49 dd be 33 1a 2e be b4 4e a7 3e 6c c7 b4 be
       -0.43220162 -0.17002182 0.32677233 -0.35308397
000330 0b 18 ec 3e 7c 57 3b bf 77 7c 89 3e af 36 5b be
       0.46112093 -0.73180366 0.26852772 -0.21407579
000340 94 f1 d7 be ea c8 70 3e 34 e2 8b bd ab 0d dc 3e
       -0.42176497 0.23514143 -0.06830254 0.42979178
000350 75 7c 01 3f 40 4a 86 be 1b 1b a6 bc 62 85 db 3e
       0.5058053 -0.26228523 -0.020276597 0.428752
000360 9b 22 9b be 65 70 b3 be fb 22 c6 3d 85 a7 0d bf
       -0.3029984 -0.35046688 0.09674641 -0.5533374
000370 41 6c 06 be 87 f9 0f bf da 04 b4 be c1 0a 16 3f
       -0.13127233 -0.56240124 -0.3515995 0.5861016
000380 f9 eb b7 be db cb 97 be bd 7b 0a 3f 8a 0f d3 be
       -0.3592222 -0.29647717 0.5409506 -0.41222793
000390 c1 f0 92 be 94 61 f7 be d5 ee 28 3f 67 7d f5 be
       -0.28699306 -0.48316634 0.6598943 -0.47947237
0003a0 48 40 a5 3e 73 b3 0d 3f 19 9a 26 3e 7b 64 4d 3e
       0.32275605 0.5535194 0.16269721 0.20057862
0003b0 35 f4 d2 be 42 96 b4 3e 1a eb b9 3e 8b 31 43 bb
       -0.4120194 0.35270888 0.3631218 -0.0029784169
0003c0 58 66 80 3e 7e 6e 53 3f 23 0c 12 be e9 fe c0 3c
       0.25078082 0.8259047 -0.14262442 0.02355905
0003d0 e7 0e a7 3e 39 59 05 bf 15 13 83 be 79 a5 03 3f
       0.32628557 -0.5208927 -0.25600496 0.51424366
0003e0 52 44 ad 3e 39 3f 44 3d d8 bf 3f 3e d5 1c da 3d
       0.33841187 0.047911856 0.18725526 0.106500305
0003f0 17 8e 9a be 95 5d b4 3e 26 73 e4 be b5 4b 55 3e
       -0.3018653 0.35227647 -0.446191 0.20829661

VAE_Decoder.layers.1.linear0.bias f4 [128]
000000 71 81 ff 3e eb 68 f7 3e e3 bd 76 3e 71 d7 3c be
       0.49903443 0.48322234 0.24095874 -0.1844156
000010 61 ee f1 be 7e 9b f1 3e 62 0d dc be 91 15 08 3e
       -0.4725218 0.47188944 -0.4297896 0.13289477
000020 05 fa 3b 3e 6d 80 f0 3e fa 84 00 3e f5 f8 b1 be
       0.18357094 0.4697298 0.12550727 -0.34760252
000030 11 eb e0 3e 36 c9 d6 3d 96 ac 10 bf 4f d9 69 3e
       0.4392934 0.10487597 -0.56513345 0.22836803
000040 40 14 19 bd 7f 8b a2 3e 7a 92 17 bf f6 f6 65 3e
       -0.037372828 0.31747052 -0.5920788 0.2245749
000050 fc 3e 8b 3e da be f3 3e f9 23 c9 be 67 d6 f2 be
       0.2719649 0.47606546 -0.39285257 -0.474292
000060 c2 d4 b4 bc 4e 15 76 bd f5 1d 0b be 31 b4 f9 3e
       -0.022074107 -0.06007891 -0.13585646 0.48770288
000070 df 6b 2d 3e 4c a7 0c 3e 36 a1 78 be 60 70 c6 bd
       0.16935681 0.13735694 -0.24280247 -0.096894026
000080 96 e8 f6 3d 5b 9e 60 3e 64 19 fe 3e ab a0 35 3d
       0.12056081 0.21935408 0.49628747 0.044342678
000090 9e 8d 00 bf ee 38 dc bb 8f e7 b8 be c1 ea 22 bd
       -0.5021609 -0.0067206537 -0.36114165 -0.03977466
0000a0 00 1f 08 be 86 58 fa bd 22 e0 e5 be b1 6b 10 3e
       -0.13293076 -0.12223916 -0.44897562 0.14103581
0000b0 31 0a 72 3e a7 b1 54 be ec d8 23 3e 5c 2b 63 be
       0.236367 -0.20770894 0.16000718 -0.22184509
0000c0 7d 5a f1 3d 03 ac e7 be 91 6e 9e bc 06 1d 32 3c
       0.117848374 -0.45248422 -0.019339832 0.010871178
0000d0 eb d8 f2 3e e4 50 82 3e 4a d0 21 3e 16 a6 57 3e
       0.4743112 0.2545234 0.15802112 0.2105945
0000e0 02 6d 61 bd 68 19 d7 be 6a ba 50 3e b5 0c 12 3f
       -0.0550356 -0.4201157 0.20383611 0.5705064
0000f0 37 88 fe 3c c1 37 9a 3d 67 b0 d1 3e 2e 28 98 3e
       0.031070812 0.075301655 0.40954897 0.29718155
000100 49 6b 55 be 39 6b cd 3e e9 5c 09 3d e7 90 83 3e
       -0.20841707 0.40120867 0.03353587 0.2569649
000110 e5 02 8f 3e 33 49 0b 3d f9 16 a3 3e df 0e 20 bd
       0.27931896 0.034005355 0.31853464 -0.039076682
000120 9b 51 4f bc 25 67 47 3e 4b cc 17 3f 99 e7 3b 3e
       -0.012653734 0.1947294 0.592961 0.18350066
000130 59 8e 9f be e4 c3 45 be 3d 27 0d bd 8f 33 37 bb
       -0.3116329 -0.19313008 -0.03446125 -0.0027954315
000140 bb 44 00 3f c2 4e ad be 71 50 76 be ef bc a0 3d
       0.50104874 -0.3384915 -0.24054123 0.07848536
000150 b8 e9 7e be 02 11 b8 be 6d 64 88 be 7f d8 ba be
       -0.24893844 -0.35950476 -0.2663912 -0.36493298
000160 e2 6e 61 be 32 96 8f bb 27 a3 d5 3e 61 77 d2 3e
       -0.22014955 -0.0043819183 0.41726038 0.41106704
000170 c4 80 90 be 99 a9 e7 be 87 c9 06 3d 87 7e d9 3e
       -0.2822324 -0.4524658 0.032907035 0.42479345
000180 a7 76 06 bf e3 4e 66 3d cc ab 14 3e dc a0 9c be
       -0.525248 0.056227576 0.1451866 -0.30591476
000190 6f db d3 3e 91 ed bc 3e 5e c2 ca 3e f1 d1 8a 3d
       0.41378352 0.369 0.39601415 0.067783244
0001a0 27 ed 8d bd d2 ed 13 3f 63 81 cf be 0c 6e e3 be
       -0.06929999 0.5778476 -0.40528402 -0.44419897
0001b0 8d 84 5e be 3b 9c a9 be 47 02 01 bd 43 6a 78 3e
       -0.21730252 -0.33127007 -0.031496312 0.24259286
0001c0 66 66 c2 be 6f bd 49 3e dc c4 be be cc 08 89 bc
       -0.3796875 0.1970117 -0.37259567 -0.016727827
0001d0 cf d4 82 bd 59 dd ce 3e f4 5f 66 bc 19 71 72 bd
       -0.06388246 0.4040325 -0.014060963 -0.05918989
0001e0 c8 49 94 3d 71 b7 00 3e 49 04 86 3e 4a 9a a7 be
       0.07240635 0.12569977 0.26175144 -0.327349
0001f0 7b cc d2 3e 61 c6 50 3e 3f a0 0a 3f 90 e7 6e be
       0.4117163 0.20388176 0.54150766 -0.23330522

VAE_Decoder.layers.1.linear1.weight f4 [4, 128]
000000 16 28 05 bd 08 d9 fe 3d 9c bf f0 3d 5d 5d 51 be
       -0.032508932 0.12443739 0.117552966 -0.20445772
000010 51 c7 06 bf 47 e6 8d bc 04 f7 63 3c fc c9 22 bd
       -0.5264788 -0.017321719 0.013913874 -0.03974341
000020 38 da fa 3d 4a 97 d3 3d 1e d7 c1 bd 12 fd 9e be
       0.12248653 0.103315905 -0.094648585 -0.31052452
000030 26 54 15 3e a6 b7 99 bc 08 3c 0b 3f fa c8 47 be
       0.14582881 -0.018764328 0.54388475 -0.1951026
000040 86 4f 37 3d 24 e0 06 3d 94 0d 8a 3e f8 c7 f1 bd
       0.044753574 0.0329286 0.26963484 -0.11805719
000050 b9 bb dd 3d 30 70 f4 bd 45 a3 46 bd 73 0d 57 be
       0.10826821 -0.119354606 -0.04849555 -0.21001224
000060 66 fa 4b 3f b0 04 87 3d 4c 64 9d 3e 34 f7 e1 3c
       0.7967895 0.06592691 0.30740583 0.027583696
000070 be 0f 05 3f 6f 8e 4a 3d 9c 9b 58 3e 4d 31 38 3d
       0.51977146 0.04945224 0.2115311 0.044968892
000080 82 89 0e 3e d8 cc 13 3d be eb a0 bd 7b 8d 29 3e
       0.13919643 0.036084026 -0.07857464 0.16557877
000090 a5 ec 01 3e a1 65 05 3d 05 c0 66 3d 27 11 e8 bc
       0.12687929 0.032567624 0.056335468 -0.028328491
0000a0 01 56 56 be 79 ed ba 3c e1 c7 13 3d 1f fa 06 3e
       -0.20931245 0.022818314 0.03607929 0.13181351
0000b0 4f 89 ab 3c ad ea fd 3d b2 f0 16 3e 94 54 60 3f
       0.020939497 0.123982765 0.14740255 0.87629056
0000c0 37 e3 84 3e ea 6c ce 3e 8f 45 f6 bc e4 9c 6f bc
       0.259546 0.4031747 -0.030062465 -0.014624808
0000d0 4d 12 62 3d 02 43 37 be df 4d 1a be 56 fc 12 be
       0.055193234 -0.17896655 -0.15068768 -0.14354071
0000e0 27 a2 25 be 77 a8 1b be b2 8f 19 3d 76 95 87 38
       -0.16175137 -0.15200983 0.037490554 6.465141e-05
0000f0 7b 37 72 3e 90 5d 36 be 2d c1 48 3d 49 03 1c 3e
       0.23653977 -0.17809129 0.04901235 0.15235628
000100 d2 dc 24 3e af ef 26 be c0 57 1f be 6d fc 3b be
       0.16099861 -0.1630237 -0.15560818 -0.18358012
000110 9f ec 63 3d c2 bd c7 bd 9d 36 f5 bd 30 3d 82 3e
       0.05564558 -0.0975299 -0.11973307 0.25437307
000120 09 1a 5e be 31 ca e4 3d 28 c2 ad 3c 8a 7a 07 be
       -0.21689619 0.111713775 0.021210745 -0.13230339
000130 ec 2f 54 3e 8f 24 f1 3b 58 f1 a3 3c 68 7c 36 be
       0.20721406 0.0073590945 0.020012543 -0.17820895
000140 fa 1d 9c bc 24 2c ba 3c 80 87 d7 3e 0b 4b 83 bc
       -0.019057263 0.022726126 0.42095566 -0.016026994
000150 34 eb b4 3d 93 41 5d 3e b5 35 dd bd f1 cc e9 3d
       0.08833924 0.21607046 -0.108012594 0.114160426
000160 54 01 b1 bb 5c 9e 19 be 5d f4 cd bc 1b 1b 6e 3d
       -0.0054017697 -0.15001816 -0.025140936 0.05813132
000170 69 d4 bc bd fe e8 6f be bb 7f ca 3c d2 b0 e1 bd
       -0.092202015 -0.23428723 0.02471911 -0.11020054
000180 c5 de a5 be a6 66 0a 3e a3 c2 11 be 10 92 65 3e
       -0.32396522 0.1351572 -0.14234404 0.22419
000190 ee b4 b9 bd bb f9 80 bd 6a b2 b3 3d 6b c0 36 3d
       -0.09067713 -0.06297632 0.08774264 0.044617098
0001a0 7c 73 42 3e f2 ef a7 bd c3 f2 2d bd 17 1b b7 3d
       0.18989366 -0.08200063 -0.042467844 0.08940714
0001b0 44 bc c5 3d c9 b4 45 be 70 a8 db bd f3 2d 0e be
       0.096550494 -0.19307245 -0.10725486 -0.13884716
0001c0 14 f5 f3 bd 26 f1 80 3c d4 b3 81 3d 24 1a 72 be
       -0.11911979 0.015739989 0.063331276 -0.23642784
0001d0 06 47 f5 bd f0 9d ce bd 19 1a 8f 3d 28 66 ad bd
       -0.11976437 -0.10088718 0.069873996 -0.084667504
0001e0 eb 15 42 3d cf 66 3c bd 13 44 d2 bd b1 f2 93 bd
       0.047384184 -0.045996483 -0.102668904 -0.07224024
0001f0 ec 85 cb 3d f7 36 fe 3d aa 55 ec bd 6b 67 d4 bd
       0.09937653 0.124128275 -0.115397766 -0.10371288
000200 89 98 2c bd ac 99 c5 3a 64 b7 1a bd 0a de 32 bd
       -0.042137656 0.0015075705 -0.03777255 -0.043668784
000210 89 ee f1 3d ec 25 98 bc fc e0 00 be 9d 1a 04 3e
       0.11813075 -0.01857277 -0.12585825 0.12900777
000220 c5 ab 52 bd 6b 36 53 3c 7b 73 35 bc 41 ba ce 3d
       -0.051433343 0.012891392 -0.011074896 0.10094119
000230 73 95 da 3c 3b fb e0 bd ed cb e7 3d a6 78 f4 bb
       0.026682591 -0.109854184 0.11318193 -0.0074606715
000240 8c 7b a8 be 45 11 3f 3d 9c 69 38 bf 93 a7 a7 bd
       -0.3290676 0.04664733 -0.7203615 -0.08186259
000250 ed ba c7 3d 89 7a d9 3c 4b 7e 17 3d 5e 0f 09 3b
       0.0975245 0.026547687 0.036985677 0.00209137
000260 5d a4 2f 3e 0e e3 0a 3e 94 b9 bb 3e 08 23 19 bc
       0.17152543 0.13563177 0.36665022 -0.009346731
000270 5f c7 39 3e ed c0 67 bd 56 ac d3 3d 8b 42 6b 3e
       0.1814246 -0.056580473 0.10335605 0.22974603
000280 a2 ff c1 3d 58 97 88 3d bb 06 ba 3d 69 a7 6b 3d
       0.09472586 0.066694915 0.09083315 0.0575327
000290 18 f9 2b be 13 b6 a0 bc 6b a7 e4 3d 31 e4 35 3e
       -0.1679424 -0.01961807 0.11164745 0.1776283
0002a0 80 06 ab bd 4a 14 eb 3d b5 b7 bf 3e df 13 98 3d
       -0.08350849 0.11478479 0.37444845 0.07425665
0002b0 60 55 0e 3a 74 2d ca 3d 93 c1 00 3d 18 73 c2 3e
       0.0005429592 0.09871951 0.031434607 0.37978435
0002c0 87 3e 6c 3e a8 19 5c 3e e5 df 0a bd 6b a5 90 3d
       0.23070727 0.21494162 -0.03390493 0.07062801
0002d0 13 ea 4a 3d 52 fe 8a bd e1 e2 5b bd 12 46 eb 3d
       0.049539637 -0.06786789 -0.053683165 0.11487974
0002e0 bc 08 bd 3d 70 0e 4b 3d b8 1c 1d 3e ef 4b de bd
       0.092301816 0.049574316 0.15342987 -0.10854327
0002f0 ed 18 9c 3e b4 25 44 bd 37 55 1b 3b b7 88 c7 bd
       0.30487767 -0.04788752 0.0023701915 -0.09742873
000300 c6 74 08 3e f3 53 b0 3c 65 45 8d 3d 87 a0 85 3d
       0.13325796 0.021524405 0.068980016 0.06524759
000310 cc 87 50 bd 36 3f 70 bb e8 98 aa bc 05 93 13 3e
       -0.050910756 -0.003665877 -0.020824865 0.14411552
000320 e4 2f 86 3d af dd 8e bc 18 41 9b bd cf f9 13 3d
       0.06552103 -0.017439691 -0.07580775 0.036126908
000330 d3 e0 93 3e b6 8e 2f bd dd cc 04 3e 01 45 8b bd
       0.28882465 -0.04286071 0.12968774 -0.06800271
000340 88 12 c5 3d bb a3 96 bd be 19 57 bd f8 52 cd 3d
       0.09622675 -0.07355448 -0.052514784 0.10025591
000350 ef c8 a5 3d 32 98 ca bd 2c 80 f3 3a 37 eb 51 3d
       0.08094966 -0.0989231 0.0018577627 0.05124971
000360 b9 8f 9f bd 84 30 ab 3a 8d 8b 88 3d 63 51 81 bd
       -0.07791085 0.0013060723 0.06667242 -0.063143514
000370 54 8b 8c be a6 20 d2 3d 28 66 40 3b 35 7b 2e bd
       -0.2745005 0.102601334 0.0029357765 -0.042597968
000380 5b 84 bc 3d 49 2d 96 3e a6 b8 ce 3d f5 df 2e 3e
       0.09204932 0.29331425 0.10093813 0.1707762
000390 42 2e 99 bd cf 3e 2a 3d 2b 63 06 3e 22 2b e2 3d
       -0.07479526 0.041563805 0.13123767 0.11043383
0003a0 f0 3d e1 bd 73 17 00 3e bc 7c 27 be 12 0c 20 3c
       -0.10998142 0.12508945 -0.16356176 0.009768503
0003b0 3e 67 3e be b0 26 ef 3b 2b 5c c1 3d c3 9f f9 3d
       -0.18594071 0.007298313 0.09441408 0.12188675
0003c0 23 f7 e3 3d 15 dd 9b 3d 25 de 8a 3e a5 6c 8d bc
       0.11131122 0.076105274 0.27122608 -0.01726372
0003d0 0b a8 eb bd 80 0b 24 3d 76 3a 01 3e 3a 0c 42 3c
       -0.11506661 0.04005003 0.12619957 0.011843735
0003e0 42 16 46 bd d4 43 87 bd 5f 67 14 3e e6 a9 c5 3d
       -0.04836107 -0.06604734 0.14492558 0.09651546
0003f0 74 65 d0 3c 14 8e 90 bd 2d 2c 0d 3e 61 8c 3f be
       0.025439002 -0.07058349 0.13786383 -0.18705894

VAE_Decoder.layers.1.linear1.bias f4 [4]
000000 1a 92 3f bc 59 27 78 3b a9 75 06 3d b1 f6 ab bc
       -0.011692548 0.003786525 0.032827053 -0.020991655

VAE_Decoder.layers.1.norm1.weight f4 [4]
000000 58 84 9e 3f 29 f2 cd 3f de d1 bc 3f 8a da ba 3f
       1.2384138 1.6089526 1.4751546 1.4597943

VAE_Decoder.layers.1.norm1.bias f4 [4]
000000 58 62 a5 bd 7f ec a6 3d 84 5a 8b bd 6f 10 59 3d
       -0.08075398 0.08150577 -0.06804374 0.052994188

VAE_Decoder.layers.1.norm0.weight f4 [4]
000000 bf f1 c3 3f f3 39 9e 3f 46 26 86 3f 23 ec 8c 3f
       1.530815 1.2361435 1.048043 1.1009563

VAE_Decoder.layers.1.norm0.bias f4 [4]
000000 a0 10 8d 3e c2 18 a5 3b 1a 9c a3 3c 1d 65 e5 bd
       0.27551746 0.0050383518 0.019971896 -0.112009265

VAE_Decoder.last_normalization.weight f4 [4]
000000 00 00 80 3f 00 00 80 3f 00 00 80 3f 00 00 80 3f
       1.0 1.0 1.0 1.0

VAE_Decoder.last_normalization.bias f4 [4]
000000 00 00 00 00 00 00 00 00 00 00 00 00 00 00 00 00
       0.0 0.0 0.0 0.0

VAE_Decoder.head.weight f4 [4, 4]
000000 68 4d ef 3e d8 a0 cc 3d 70 16 29 bd a0 19 cf bd
       0.46738744 0.09991616 -0.041281164 -0.101123095
000010 24 3e ac 3e e0 d4 b3 be 10 c6 1d 3d 90 62 15 be
       0.3364116 -0.35123348 0.038518965 -0.1458838
000020 80 2f a0 be 80 bb fd 3c a4 16 9d 3e 98 95 f1 be
       -0.3128624 0.030973196 0.30681336 -0.47184443
000030 a0 7e 7c be e8 51 dd 3e 46 e4 d2 be be ce e9 3e
       -0.24657679 0.43226552 -0.41189784 0.45665544

VAE_Decoder.head.bias f4 [4]
000000 34 df ae 3e 10 e5 ce 3e 80 49 c9 3c 68 48 8b 3e
       0.34154665 0.40409136 0.02457118 0.2720368

Detokenizer.weight f4 [156, 4]
000000 16 4b 7e 3d e7 4c bf bb e8 0e 0c 3e f7 5d bf bc
       0.062083326 -0.005838025 0.13677561 -0.023360236
000010 11 01 9a bd 88 14 9d 3b 62 bc 14 3d 4b 37 19 3d
       -0.07519735 0.0047937073 0.03631247 0.037406247
000020 ad 97 b0 3b 2a d7 59 3d a8 20 a6 bd 65 2c c7 3c
       0.005389175 0.053183712 -0.081116974 0.024313161
000030 fe 91 b2 3b 9c ac 59 3d ca 9a a6 bd bb ad c8 3c
       0.0054495325 0.05314313 -0.081349924 0.024496904
000040 6b 2f 94 3b a5 5d 63 3d 18 22 a9 bd 35 6c c1 3c
       0.004522254 0.05550923 -0.08258456 0.023611167
000050 13 bd c3 3b 1b 9d 52 3d 49 72 a4 bd 56 c8 cb 3c
       0.005973467 0.05141936 -0.08029611 0.024875801
000060 61 f7 95 bd d0 ac 9a b9 d7 d7 1d 3d 36 b0 1e 3d
       -0.073225744 -0.00029501924 0.03853592 0.038742267
000070 0c 71 b4 3b 86 ae 57 3d db 4f a6 bd c0 73 c9 3c
       0.0055066403 0.052656673 -0.081207 0.024591327
000080 d8 70 86 3b 66 0d 5f 3d 89 7f a5 bd a6 2d bc 3c
       0.0041028075 0.054456137 -0.08080966 0.022970986
000090 d3 b5 99 bd c6 c2 a0 3b d7 21 13 3d 8f 4a 19 3d
       -0.07505383 0.0049060313 0.035920944 0.03742462
0000a0 3e 34 99 bd 70 1d 72 3b 93 be 19 3d c8 1a 19 3d
       -0.074806675 0.0036943816 0.03753526 0.037379056
0000b0 df 36 96 bd 8d 9d 0d 3a 0b 03 1d 3d 02 c9 1c 3d
       -0.073346846 0.00054022 0.03833298 0.038277633
0000c0 9d 38 96 bd f1 89 52 3a a3 b1 1b 3d 1c 56 1c 3d
       -0.07335017 0.0008031419 0.038011204 0.038168058
0000d0 e9 4e ac bd d4 2c ca 3c 51 49 f8 3c bc e6 fb 3c
       -0.084134884 0.024679579 0.030308397 0.030749671
0000e0 47 a9 84 3b ca 64 51 3d 20 19 9b bd 2f 64 b1 3c
       0.0040484997 0.05112151 -0.075731516 0.021654217
0000f0 74 54 98 bd d1 53 8a 3b bc 53 11 3d 2f 46 1b 3d
       -0.07437983 0.0042214175 0.035480246 0.03790873
000100 34 b1 96 bd 5a b0 d7 3a 3d 38 1a 3d 82 eb 1b 3d
       -0.073580176 0.0016455755 0.03765129 0.038066395
000110 1e b3 38 be d6 c6 c7 3c fd 54 61 bd 94 22 f1 3d
       -0.18037078 0.024386805 -0.05501269 0.117741734
000120 55 ba a1 b9 15 50 c6 38 7c bd 98 b9 6d 68 e3 39
       -0.0003084714 9.456292e-05 -0.00029132876 0.00043374617
000130 01 ba dc 3b 84 a6 7e 3c 58 ed 16 bd 78 5c 86 3c
       0.0067360406 0.01554263 -0.036847442 0.016401514
000140 4b c4 74 3d f9 72 a0 bb ec 5f 0e 3e 27 2a be bc
       0.059757512 -0.0048965183 0.13903779 -0.02321346
000150 47 ef 0e 3c f8 37 38 3d a9 8a 9e bd c8 fc dc 3c
       0.00872404 0.04497525 -0.07741291 0.026976004
000160 10 f2 95 bd 46 94 2c ba b0 99 1e 3d 6d 14 1f 3d
       -0.073215604 -0.0006583374 0.038720787 0.03883784
000170 94 54 a7 3b 7c 04 5b 3d 77 93 a6 bd 04 d9 c4 3c
       0.005106518 0.053471074 -0.081335954 0.024029262
000180 d0 56 f2 3b aa b4 43 3d c4 7f a1 bd 1d 89 d4 3c
       0.0073956028 0.047779717 -0.078856975 0.025944287
000190 db 5d af 3b bf fc 58 3d ea eb a5 bd 7c a8 c6 3c
       0.0053517646 0.052975412 -0.08101638 0.024250261
0001a0 bb 41 cd 3b 0f 01 4f 3d 2b f0 a3 bd 7f 10 ce 3c
       0.006263939 0.05053812 -0.08004793 0.02515435
0001b0 b5 91 e6 3b a4 32 4c 3d 63 be a2 bd 2d 39 cf 3c
       0.0070364126 0.049852982 -0.0794647 0.025295818
0001c0 2e de 62 be b7 aa 6d 3c 0f 8f 53 bd 34 4d 03 3e
       -0.22155067 0.014506034 -0.051650103 0.1282242
0001d0 bd 04 9d bd 0b cf fd 3b 0d a9 10 3d 5d a5 14 3d
       -0.076669194 0.0077456287 0.03531747 0.036290515
0001e0 f4 fe 07 3c 2f a7 3a 3d 36 6e a0 bd a4 40 dc 3c
       0.008300532 0.045569595 -0.07833521 0.026886292
0001f0 8d c4 97 bd ac 16 0d 3b ce 86 1a 3d 26 0e 1b 3d
       -0.07410536 0.0021528406 0.037726216 0.03785529
000200 23 98 a5 3b 4c 6e 5f 3d b4 0f a8 bd ae fd c4 3c
       0.0050535365 0.054548547 -0.0820612 0.024046745
000210 f7 f2 8a 3b 7c be 67 3d 8d e1 a9 bd 36 1f c0 3c
       0.0042403894 0.056578144 -0.082949735 0.023452383
000220 ec 30 d9 3b fa a1 4c 3d 9c ed a2 bd 3e 6b d0 3c
       0.0066281464 0.04995916 -0.07955477 0.025441762
000230 5f 9e 9d 3b 60 7b 60 3d df 31 a8 bd 53 46 c3 3c
       0.004810139 0.05480516 -0.08212637 0.023837244
000240 cf f3 94 3b 6a 7f 65 3d ec 80 a9 bd 9a 6e c0 3c
       0.004545666 0.056029715 -0.08276543 0.023490239
000250 66 b0 8b 3b 73 d7 64 3d 4a 65 a9 bd a7 55 c1 3c
       0.0042629717 0.05586953 -0.082712725 0.023600413
000260 3c f7 91 3b 9c 2b 64 3d 40 96 a7 bd f2 99 bd 3c
       0.0044545215 0.05570565 -0.08182955 0.023144696
000270 81 2f 97 3b e0 75 62 3d 48 81 a8 bd cd 14 c2 3c
       0.004613817 0.055288196 -0.082277834 0.02369156
000280 3f 41 95 bd c0 51 ab 3a e0 08 1c 3d 9d 3e 1a 3d
       -0.07287835 0.0013070628 0.0380944 0.03765737
000290 cb be 8f 3b b5 f8 62 3d d0 bc a8 bd ad 3f c2 3c
       0.004386758 0.055412967 -0.08239138 0.023712004
0002a0 48 b8 87 3b 37 02 66 3d 2a 44 a9 bd a9 1a c0 3c
       0.004141841 0.056154456 -0.082649544 0.023450213
0002b0 12 93 7a 3b 0f c8 5a 3d 14 88 a0 bd a2 ec b2 3c
       0.0038234633 0.053413447 -0.07838455 0.021841351
0002c0 e5 e0 92 3b ff 71 64 3d 4d fa a8 bd ea ae c0 3c
       0.004482376 0.055772778 -0.08250866 0.023520906
0002d0 74 6c 37 bd 4b 7d df 3c 66 c9 cc bd 63 20 0c 3c
       -0.044781163 0.027281424 -0.09999351 0.0085526435
0002e0 90 8d e5 3b d9 6e 4b 3d 9c ee a2 bd 06 31 d0 3c
       0.007005401 0.04966626 -0.079556674 0.025414001
0002f0 99 25 77 be 51 77 1a 3c 20 ec 8e bd f4 c9 d2 3d
       -0.24135436 0.009427861 -0.06978631 0.10292426
000300 bf d7 a4 3b 3d 6a 5f 3d a4 1a a8 bd 7f cb c5 3c
       0.0050306018 0.054544676 -0.08208206 0.024144886
000310 74 73 a6 3b 8d ed 5d 3d 2c 3e a7 bd 09 7e c4 3c
       0.005079681 0.054181624 -0.08166155 0.02398588
000320 87 8e 9f bd 23 91 f9 3b cc 7a 1b 3d 2d 77 0e 3d
       -0.07790857 0.0076161786 0.037958905 0.034781624
000330 9a 37 95 bd ae 0e 2e ba aa 65 1e 3d 02 5d 1e 3d
       -0.07285996 -0.00066397607 0.038671173 0.038662918
000340 4d d4 96 bd 3b 0f ef 39 f6 48 1d 3d c4 04 1e 3d
       -0.07364712 0.0004559698 0.03839966 0.038578764
000350 70 19 a0 3b ae 3e 5e 3d bd f8 a7 bd fe 03 c6 3c
       0.004885845 0.054258995 -0.0820174 0.024171825
000360 44 7c 95 bd d8 fd 80 ba 53 48 1f 3d 53 22 1f 3d
       -0.072990924 -0.0009841276 0.038887333 0.038851094
000370 29 2c 98 bd 05 d6 10 3b 07 d7 1a 3d f7 53 1b 3d
       -0.07430298 0.0022100222 0.037802722 0.037921872
000380 fe f9 a1 bd ed 24 74 3c 63 77 fc 3c a4 03 11 3d
       -0.0790901 0.014901382 0.030818647 0.035403863
000390 b3 3e 03 3c 91 7a 38 3d 65 b3 9e bd 59 18 e0 3c
       0.008010554 0.045038763 -0.077490605 0.02735536
0003a0 f7 ae b7 bd 38 2b 54 3d 62 9b 8e bd e4 03 9e 3d
       -0.08968919 0.05179903 -0.06963231 0.07715586
0003b0 a8 4c 90 3b f7 17 65 3d dd 38 a9 bd ff 60 c1 3c
       0.0044036694 0.055931058 -0.08262799 0.023605822
0003c0 af ca 90 3b 99 ed 62 3d 58 21 a9 bd 04 f7 c1 3c
       0.004418693 0.055402372 -0.08258313 0.023677357
0003d0 25 49 58 3b ff 3c 3f 3d 82 63 8b bd 46 e8 9b 3c
       0.0033002582 0.04668903 -0.06806089 0.019031655
0003e0 ad d7 0f 3c cf 34 1d 3d a2 2e 8d bd be 90 cd 3c
       0.008779448 0.03838044 -0.0689366 0.025093433
0003f0 35 ac 9a bd 0d ac c0 3b b9 27 14 3d d2 97 16 3d
       -0.07552377 0.005879885 0.036170695 0.03676588
