CraftingTable/models/ckpt/encoder.pt (torch, 26800 bytes, 32 tensors)

Tokenizer.weight f4 [157, 4]
00000000: 41c0 5c3e 1196 263e 2a49 93be 5a00 3a3d
00000010: d7d0 523f 81ec 953e 02ac 013f 7bd7 a0be
00000020: dc64 6e3e 3514 e43e 2283 8d3e acd5 66be
00000030: 7bca 7b3e a753 b4be 7cdc e03d e2f9 073e
00000040: 18db 5dbe bbb5 243e 87cb 91be 0ae2 1b3d
00000050: d2cf cbbd 5e32 033f afa8 123c d95e 37ba
00000060: ad79 9ebe b2d8 473f 9b01 023d 5ef7 b53e
00000070: b0ef c5bd 5a80 6dbe 6643 b63d 799f f1be
00000080: a4de e0be 4582 353e 6a45 68be 0149 bebe
00000090: 0c34 21bf e436 c63e ef50 6bbe 043c 17be
000000a0: ba74 26be 837b 293e 340c 1d3e 255d aebe
000000b0: ec61 a43d 8c39 0bbe 5fd4 303e 5397 fdbc
000000c0: 47f2 efbc bb2d 6ebe 4d78 963e 0508 26bf
000000d0: 91eb ff3e d561 abbc 47d1 043f 507e 473d
000000e0: 3989 603e d8e1 c4bc 14bc c0be 9598 713d
000000f0: 1cd6 40be 261b 2c3f fe71 aebe a928 f53d
00000100: c301 0e3f 1f60 02bf 27fe ad3e 047b 89be
00000110: 1161 0d3f 70e8 213d 2419 c63e 28fa c0be
00000120: 62b2 14bf 781b dfbe a90a 333e 9d23 3b3f
00000130: b15f 313e 1b0f 88bd cd74 723e f37f 1a3f
00000140: 70d1 73be 9aed ecbc 82ca 503e 2f0e 973d
00000150: fea0 143f 2440 0f3a 6996 4f3e a7e7 15bf
00000160: 7d44 c7be 570e ff3d 56cd 663e bdd9 dd3e
00000170: 8ab3 903e d9e3 94be 7e51 1b3e 9930 9bbd
00000180: 4b6c 33bd 8f32 c23e 203d 883e 1141 04bf
00000190: 2e80 bbbe 8302 f53c 91cb 70be bb17 863e
000001a0: 38c0 d1bd 454d d73e 3f20 22bc 1b62 ef3c
000001b0: 4071 0c3e c0e2 373e d5ae e13d 3253 a5be
000001c0: 5f58 14be 7432 87be 639c 5d3e 179f d73e
000001d0: 265f 233d bc70 8cbf ad00 68bf 5240 663f
000001e0: 57e7 d23e b9d2 503e 810e 383e b9b2 21be
000001f0: 9af9 45be b865 fc3e fae0 8dbe b796 a4be
00000200: f642 8d3e ebab 29bf 363b e23e 25b2 11bf
00000210: d78f 4dbc 61cc 41be 0392 3d3e c5e7 e4bd
00000220: 5e57 b8be b1e2 88be 5526 82be 32b4 093f
00000230: 79f3 cfbd 37d8 a7be 32e7 a03d 0d54 b03e
00000240: ca97 80be c2a8 3dbe cd40 603e 12cb c43e
00000250: 979d ac3d 23d2 79be 3ebe 7fbd 62bb c93e
00000260: 2db1 9cbe 68d8 b53e 8277 91bd 6e71 0abd
00000270: dcd2 643e 34e2 b23e 2acc 9bbe 2e55 043d
00000280: 0a3b 53be 2d52 803d 0476 823e 698a f3be
00000290: 5a4b b5bd 91fd 8fbe 719f dabd e47b abbe
000002a0: d34c 593e b417 803e 9cb5 8bbe 5318 1abf
000002b0: e5f6 8e3d a439 d4be eba0 24be 8d44 69be
000002c0: dc00 4dbf 68ea b43e cec4 c83c 5e3b 9ebe
000002d0: 511e b03e a967 27be 2d93 c53e 81df 98bd
000002e0: 855e 61bf dc89 8cbd b77a 76be 7958 543f
000002f0: 2c1c 99be 7c8e 833d b968 8b3e b6cc 01bf
00000300: 2393 93be bb21 073d 3a87 bbbe f380 00bf
00000310: a9b9 bbbe 72ef 823e 6a7b f4bd 375e 7dbe
00000320: 8002 983e dcda b93e 9813 5e3c 13c2 26be
00000330: 0393 7d3e fcfd 543d bdac 3cbe fb49 e43d
00000340: bff5 fb3e 6ca5 003f 85bc 61be ff09 233e
00000350: 24ba d93e 7993 44bc 7062 b9be c1cc 2ebe
00000360: 153a 1b3c 6415 d13d 1895 3fbe 1784 103f
00000370: 0202 b43e f91d cb3e 6b73 4cbe 0e7e 453e
00000380: bcfd cf3e dfb4 c7bd aa68 403e d673 9abc
00000390: 3504 edbe 4a0b dd3d f039 d2bc 3670 1b3e
000003a0: 590a 3dbe 881b eb3e 47eb 753e 1c2e 043b
000003b0: fa6f 423d 24a9 3a3f 2bdf 64bf b19d 3b3f
000003c0: f359 e0bd 4f5a 843e afb8 593d 59f9 1e3f
000003d0: 35ab 5dbe 6034 a63e 15a2 77bd ed3b 4fbe
000003e0: 99c3 2ebf 9e03 e83e 36d2 1dbe 569d 0ebf
000003f0: 5037 85bd 0ac5 eb3d be4d 373e 1cc8 cebe
0.21557714 0.16268183 -0.28766757 0.04541049 0.82349914 0.29282 0.5065309 -0.314144
0.23280662 0.44546667 0.2763911 -0.22542447 0.24588959 -0.35220072 0.10979554 0.13278916
-0.21665609 0.1608495 -0.28475592 0.038057365 -0.09951748 0.5124873 0.00895135 -0.00069950294
-0.30952206 0.78065026 0.031739812 0.3554029 -0.096648574 -0.23193493 0.08899574 -0.4719198
-0.4391986 0.17725475 -0.2268273 -0.37165073 -0.6297004 0.38713753 -0.22980092 -0.14768988
-0.16255465 0.16551022 0.15336686 -0.3405544 0.080264896 -0.13596171 0.17268513 -0.030955946
-0.029290332 -0.23259632 0.29388657 -0.64855987 0.4998441 -0.020920673 0.5188183 0.048704445
0.21927346 -0.024033472 -0.37643492 0.058983404 -0.18831676 0.67228925 -0.34071344 0.11970646
0.5547144 -0.5092792 0.33982965 -0.26851666 0.55226237 0.03952831 0.38691056 -0.37690854
-0.5808469 -0.43575644 0.17484535 0.73101217 0.1732166 -0.06643506 0.23677368 0.60351485
-0.23810363 -0.028921891 0.2038975 0.07375752 0.58058155 0.0005464575 0.2027222 -0.585566
-0.3891944 0.12453907 0.22539267 0.43330184 0.28261977 -0.29080084 0.15167806 -0.07577629
-0.043804448 0.37929198 0.26609135 -0.51661783 -0.3662123 0.029908424 -0.23515154 0.2618998
-0.10241741 0.4205114 -0.009895383 0.029221585 0.13715076 0.17957592 0.11019675 -0.32290035
-0.14486836 -0.2640568 0.21641688 0.42113563 0.039885662 -1.0971904 -0.9062603 0.89941895
0.41192123 0.20392884 0.17974283 -0.15790834 -0.19333497 0.49296355 -0.27710706 -0.32146236
0.2759015 -0.6627795 0.441858 -0.5691245 -0.012546501 -0.1892562 0.1851273 -0.11177019
-0.36004156 -0.26735452 -0.2541987 0.5379058 -0.101538606 -0.32782146 0.07856597 0.34439126
-0.25115806 -0.18521407 0.2189972 0.3843618 0.084284954 -0.24396567 -0.06243729 0.39400774
-0.30603924 0.35516667 -0.071028724 -0.03379958 0.22346061 0.34938204 -0.30429202 0.032307796
-0.2062799 0.06265674 0.25480664 -0.47566536 -0.08852263 -0.28123143 -0.10674942 -0.3349296
0.21220712 0.25018084 -0.27286994 -0.60193366 0.06980685 -0.41450226 -0.1607701 -0.22780056
-0.80079436 0.35335088 0.024507906 -0.3090467 0.3439813 -0.16348137 0.3858885 -0.07464505
-0.8803485 -0.06862232 -0.2407025 0.829475 -0.29904306 0.06423661 0.27228335 -0.5070299
-0.28823194 0.032991152 -0.36626607 -0.5019676 -0.36665085 0.25573307 -0.11937602 -0.24742971
0.29689407 0.3629979 0.013554476 -0.16284971 0.24763112 0.05200003 -0.1842527 0.11146923
0.49210927 0.50252414 -0.2204457 0.15921782 0.42524827 -0.011998051 -0.36207914 -0.17070295
0.009474297 0.10209158 -0.18709219 0.56451553 0.35157782 0.39671305 -0.19965903 0.19286367
0.4062327 -0.09751295 0.18789926 -0.018854063 -0.46292272 0.10793169 -0.025662392 0.15179524
-0.18460979 0.45919442 0.24015532 0.0020169085 0.04747007 0.7291434 -0.8940303 0.73287493
-0.109546565 0.2585015 0.053154644 0.62099224 -0.21647342 0.32461834 -0.060457308 -0.20237704
-0.6826721 0.4531526 -0.1541222 -0.55708826 -0.06504691 0.115121916 0.1790075 -0.40387046

Tokenizer.bias f4 [156, 4]
00000000: 2849 e73e d88f b33e 3b53 12bf 347a 9fbc
00000010: 7f74 a83e 60b1 393e c77d 98b9 7a9c d63e
00000020: 0638 72be bf6c ea3e 7e25 a33d 5d54 733c
00000030: c013 a9be b4b8 0fbf e323 4d3d e96e 4abe
00000040: 63aa 193e 468b d93d f955 f5be 39bf f3bd
00000050: 985e 25be 37b3 d3be 9f16 833e 16db 693d
00000060: 25ca e83e 0eed 953e b0bd 97be 1b01 753e
00000070: 02c7 553e 8329 5b3e 2e18 adbe d8ae adbc
00000080: 5b6f 643e 6f03 f8bc 920e 923e d2dc a2be
00000090: c0b9 bb3e eccc 543e 1746 97be 6449 4f3e
000000a0: b440 7a3e a664 953d fac3 5abd 24fe fb3e
000000b0: 6485 fa3d d2cf 89be 75dd 8b3e 9cda d73d
000000c0: d026 963d 6776 a2be 166e 0e3e 662d d8bd
000000d0: bc7c 3c3e 309b 5cbe 545c a73e f18d 423e
000000e0: a086 423e 5224 2d3e f502 c6be 94e6 4fbd
000000f0: 5f93 89be 04e9 8bbc 85c2 1b3e 8f21 25be
00000100: 9601 17bb c4f7 aebe c63b 5c3e a818 873e
00000110: d42e c43c b71a 28be 0f01 70be 0cb6 91be
00000120: c8f4 9e3e 4d98 883e 34c0 0bbe fdc9 3c3e
00000130: cbf5 9c3e 3f24 5a3e 1f77 39be 2da4 f53d
00000140: c698 383e e345 333e 6e9b 3dbf d441 87be
00000150: 3f9f 2b3d eb97 49bd 8fa9 bfbd 4e95 3b3c
00000160: b018 403d bfa4 503e 6aa8 d8be 5682 d0bd
00000170: a067 803e e5d2 013e 4e06 32be e474 4d3e
00000180: 0368 76be 92b4 893e 2199 cc3e 0ccc 41bc
00000190: 4de9 863e 3a22 9b3e cbc2 5fbe 60b1 953d
000001a0: dffe a5be 6421 123e ad35 52be e256 d3be
000001b0: f7ec ba3c 58ae 9f3e 335b 40bd 4d82 ad3d
000001c0: e350 94bd 0f3f 8bbe dc11 b9be dfd1 d8be
000001d0: 1041 a7bd 2c57 6d3e ea4c cfbd d756 f83d
000001e0: 37ac 8e3e 44ef 243e f683 a3bc c0c4 a53e
000001f0: 7183 e23d c8dc efbc e824 2ebe cc78 933e
00000200: 92ba f8be 64c2 a13d d633 84be 0854 ad3e
00000210: 9d75 9d3e bf74 563e d713 913e 6bfd b2be
00000220: 268a 803e 68dc 053f c3a9 9b3e cd0a 913d
00000230: 22b5 733e 40ba 823e b3dc 8ebe 2899 cc3c
00000240: 64a7 94be 432b b93e 6082 ca3e e0ba 113d
00000250: ea13 103e c0c1 bfbe b1ff 393e ff53 e03e
00000260: 997c 94bc 35b7 db3e bf70 a5bc e583 8d3d
00000270: 1136 80be 4a0a 873e f30d 58be 7194 50be
00000280: 08f3 823d 4178 9cbd f9eb 53be 36d3 913e
00000290: 5fa3 acbe db28 823e eb8d 1dbe 7b87 c33e
000002a0: 3e5b cbbe 09c1 613e abd1 20be edbb d53e
000002b0: 8e5d 683e ae9e 073e f592 69bd f965 d9be
000002c0: d134 c8be cabb 1a3e 7711 77be cd5b 953e
000002d0: f050 aa3e a778 7a3e 8b84 18bf d88d d9bd
000002e0: 54a1 2dbe e952 ac3e 758a 15be 2048 dcbd
000002f0: 7585 9e3d bfc3 78bd 4809 b83e 6eee 653c
00000300: ddea 693e 9616 7e3e 3ca4 95be b38d 5d3c
00000310: bf26 a8be fe12 b83e adfb 1fbe d644 0e3e
00000320: 9c9b 7b3e a638 c03d f61b 8a3e c242 adbe
00000330: 5442 753e 6bbe 39be 276b 583e a9b7 6bba
00000340: 01fc 583d c4ce 8dbe 7e91 8a3e 7d48 ae3e
00000350: 954b 793c 2c1a babd 67a0 953e 6e14 8cbe
00000360: 3fff 2e3d d135 a5be 0ada 513e 156a 803a
00000370: c06a 463d 274e b9bd a4e3 5fbe 0646 883e
00000380: e6d9 adbc f13f fbbd 0d7d 72be 52b5 a3be
00000390: 1785 9b3e 3fec 383e 1d3f 413d ed19 a7be
000003a0: eee3 3b3e 8914 a7bd 31a8 c03e ce88 a03d
000003b0: a585 253e 0305 c9bd cf32 6f3e 6f2c c0be
000003c0: 5d55 45bd 48fe 923d 093b f3be e149 59be
000003d0: 6139 43be 34c7 083d 5f5e cebe 5895 52be
000003e0: 15fe f33c e664 41be e759 62be 008f b83e
000003f0: c29b 13be 8cd8 a4be 7d80 c5bb dd02 99be
0.45173 0.35070682 -0.5715825 -0.01946745 0.3290138 0.1813407 -0.0002908541 0.41916257
-0.23654184 0.45786092 0.079661354 0.014851657 -0.3302288 -0.5614121 0.050083052 -0.19768871
0.15006404 0.106222674 -0.47917154 -0.11901707 -0.16149366 -0.41347668 0.25603196 0.057093702
0.45466724 0.2928242 -0.29636908 0.23926203 0.20876697 0.21402554 -0.3380751 -0.021201536
0.22308104 -0.030275075 0.2852674 -0.31809098 0.36665154 0.20781296 -0.29545662 0.2024284
0.24438745 0.07294588 -0.053409554 0.4921733 0.122324735 -0.26916367 0.27317396 0.10539743
0.07331622 -0.3173096 0.13909182 -0.10555534 0.18406957 -0.21543574 0.32687628 0.18999459
0.18996668 0.16908386 -0.3867413 -0.050757006 -0.26870248 -0.017078884 0.15210922 -0.16126083
-0.0023041717 -0.34173405 0.21507177 0.26386 0.02394811 -0.16416441 -0.23437904 -0.28459203
0.31046128 0.26678696 -0.13647538 0.18436427 0.30656275 0.2130289 -0.18111847 0.11994205
0.18027028 0.17507128 -0.7406529 -0.2641741 0.041899916 -0.049217146 -0.093585126 0.011449171
0.046898544 0.20375346 -0.4231599 -0.101811096 0.2507906 0.12678106 -0.17385218 0.20064121
-0.24063115 0.26895577 0.39960578 -0.011828434 0.2634987 0.3029955 -0.21851651 0.07309222
-0.32421014 0.1427055 -0.20528288 -0.41277224 0.022818072 0.311877 -0.046961974 0.084721185
-0.072419904 -0.27196547 -0.36146438 -0.4234762 -0.081667066 0.23177785 -0.10122092 0.121259384
0.27865764 0.16106898 -0.019960385 0.3237667 0.11060227 -0.029280081 -0.17006266 0.28803098
-0.48579842 0.07898405 -0.25820798 0.33853173 0.30753794 0.20942973 0.2833545 -0.34958968
0.251054 0.5228944 0.30402955 0.07082138 0.23799565 0.25532722 -0.27902755 0.024975374
-0.2903396 0.3616582 0.39552593 0.03557861 0.14070097 -0.37452507 0.18163945 0.43814084
-0.018125819 0.42913213 -0.020195363 0.069099225 -0.2504125 0.26375037 -0.21099071 -0.20369126
0.06394011 -0.07640124 -0.20695485 0.28481454 -0.33718392 0.25421795 -0.15386169 0.381893
-0.3971805 0.22046293 -0.15704982 0.41744938 0.22691938 0.13244125 -0.057024915 -0.4246061
-0.39102796 0.15110698 -0.24127756 0.291716 0.33264875 0.24460088 -0.59577245 -0.10622758
-0.16956073 0.33657005 -0.14603598 -0.10755944 0.07740299 -0.060733553 0.3594458 0.014033897
0.228435 0.24813303 -0.29226863 0.013522553 -0.3284206 0.3595199 -0.1562335 0.13893446
0.24571079 0.09385805 0.26974458 -0.33839995 0.23951083 -0.18139045 0.21134625 -0.0008991906
0.052974705 -0.27696812 0.27064127 0.3403968 0.015215774 -0.09087023 0.2922394 -0.27359337
0.04272389 -0.3226762 0.20493332 0.000979724 0.04844165 -0.090481095 -0.21864182 0.26615924
-0.021222066 -0.12268055 -0.23680516 -0.31974274 0.30374977 0.1805887 0.04717933 -0.32636967
0.18348667 -0.08158214 0.3762832 0.078385934 0.16164263 -0.09815409 0.23359226 -0.375339
-0.048177112 0.071774065 -0.47505978 -0.21219589 -0.19064857 0.0333931 -0.40306374 -0.20564783
0.029784242 -0.18886146 -0.22104608 0.360466 -0.14414886 -0.32196462 -0.00602728 -0.29884997

VAE_Encoder.layers.0.attention.W_q.weight f4 [4, 4]
00000000: f477 8fbe 5d2c 733e 604d 02be d741 90be
00000010: 77cc 533d 7c0e b3bd b1dc 55be a3e4 75be
00000020: 3f90 e2be 7be2 8e3e 4df8 563a 0a76 8ebe
00000030: 658c f53c aa3f 893e c4e0 853e 7dcc 4dbd
-0.28021204 0.23747392 -0.12724829 -0.28175232 0.051708665 -0.08742997 -0.20884968 -0.24012999
-0.44250676 0.27907166 0.0008200452 -0.27824432 0.029974172 0.26806384 0.26148045 -0.050243843

VAE_Encoder.layers.0.attention.W_q.bias f4 [4]
00000000: 8cbd 563d 940c 0a3d cd64 09bd c4bc 19bd
0.05242686 0.0337034 -0.033543397 -0.037533537

VAE_Encoder.layers.0.attention.W_k.weight f4 [4, 4]
00000000: a44f 0c3f 1fab 91be 2210 5bbd 3ed3 c0be
00000010: 9610 053f b4a3 e4be 5b26 b83e a6f1 27be
00000020: fdea 98be 11ce 78be 9ba1 aebe 10a9 debe
00000030: a361 523e fd35 3b3e aa61 b3be c82b b63e
0.5480902 -0.28450868 -0.053482182 -0.37661165 0.51978433 -0.44656146 0.35966763 -0.16400775
-0.29866782 -0.24297358 -0.3410767 -0.4348836 0.20545058 0.18282314 -0.3503545 0.35580277

VAE_Encoder.layers.0.attention.W_k.bias f4 [4]
00000000: 2227 62b4 2070 c934 b86a 3e36 7165 32b4
-2.1062127e-07 3.752075e-07 2.8374325e-06 -1.6614446e-07

VAE_Encoder.layers.0.attention.W_v.weight f4 [4, 4]
00000000: a591 b23e 1cba cc3e b980 efbd 2b89 073e
00000010: 3bc0 1d3e 451b c6be 0a84 003e f24e dfbd
00000020: c833 c53e e5ca 11be b148 2abe 294f 1bbd
00000030: 05c3 e83d 6cce a1be 14c7 20be b98b b8bd
0.34876743 0.3998574 -0.11694474 0.13235919 0.15405361 -0.3869268 0.12550369 -0.109037295
0.38516068 -0.14237554 -0.16629292 -0.03791729 0.11365322 -0.316028 -0.15700942 -0.09011025

VAE_Encoder.layers.0.attention.W_v.bias f4 [4]
00000000: 1e9f 963c 7ab3 e8bc 69cb 603d 6e92 84bb
0.01838642 -0.028405894 0.054881487 -0.004045776

VAE_Encoder.layers.0.linear0.weight f4 [128, 4]
00000000: 4d5f 923e 9419 a83e e2c9 cfbe 6e9e c23d
00000010: 0811 e23c dd46 453d baef 9cbe ad64 0cbc
00000020: 50f5 47bd daa1 eebc 5136 2ebe e509 1fbe
00000030: fc0e 84bd b4f1 69be 1e06 a0be c6e9 ef3d
00000040: ec6b 123e f1c4 763e 2d3f 5dbe f096 0bbe
00000050: 8048 963e 69a4 033f 1552 dcbd 7c88 a03d
00000060: 30d4 ecbe e6a8 03be ef64 e23e 1222 ae3e
00000070: 3c24 923d f57c d6be 92a7 e6be 5283 b7be
00000080: e3ba 6a3d 20f4 1bbe ead7 933e 3201 e43e
00000090: dc14 5fbc 2639 a13e 69dc 6b3e e3e7 ea3e
000000a0: ffa9 2b3e 14e0 68be 1472 203e b4a7 8e3d
000000b0: acda 01be dac1 243e 9e35 ba3e 3968 06be
000000c0: b76c d8be 6f07 abbe 1706 d8bd 9d75 b43e
000000d0: 8ed3 0bbe ed05 ef3e 9f49 93be bf48 14be
000000e0: 75e8 ea3e 3564 a8be eb84 71be f683 e63e
000000f0: 4f23 04bf 0cad d3be 4e7d bd3e e87d a83e
00000100: a7a6 af3e fb5b 6ebe ec2b 203e 981f 923e
00000110: f673 e4be 6175 0abe ab29 0b3f 9448 f1be
00000120: 910f 4f3c 25bf 903b df0f 953d 8698 35be
00000130: f831 9c3e 42d0 443e d989 62bd 5ad9 d2be
00000140: 0219 0bbf 7346 65ba e57f 68be 659a 9a3e
00000150: cc9f 9abd 7d2f 053f 8740 ffbe eb48 d63e
00000160: c4b9 ca3d 28ac e93e c23a 963d dc46 6cbd
00000170: 5a06 fa3e 3c69 afbe e454 32bc 756f 9f3e
00000180: 7374 e83e 4711 7d3e f0b1 a33e 1816 ea3e
00000190: 47af 08be 1978 fbbe b1c2 bebe 7501 02be
000001a0: 81b9 d5be 3b93 15be 0957 98be eda4 8a3d
000001b0: 4caf 5d3e 56f6 5cbe 8644 193c d3c2 873c
000001c0: 4eaa edbd 0b5a d6bc 5ed4 d23d 5f33 b03e
000001d0: ee4b 6b3e 6da8 0f3e 6bd0 8bbe 5999 1d3e
000001e0: ba99 71be 5210 f83e 2cf3 c63e 3325 dfbe
000001f0: 7a8a 583d 2a58 2fbe a7e6 e33e 3c80 fe3e
00000200: 9c5d 97be b51b 78bc d1f6 ea3e 7fc4 edbe
00000210: 8249 d03c f63b 09bc c72d a33e 5d9c d4be
00000220: 12eb f13e 7bd4 c4bd 80b7 e6be cafc 7d3e
00000230: fff3 0d3e 61db 723b 2468 cabe 7919 673e
00000240: b4ad fa3c ba99 8fbe 1e77 f1bb 12c0 003e
00000250: 4019 b5be c992 0a3e 8b64 aa3e cf2e 90bc
00000260: cb36 d33d 09d9 a2be 4048 7dbe 6bcf 583c
00000270: 35f4 ee3e 22db 87be bce3 cf3e cabe bc3e
00000280: a2f2 873e 3aa8 373d 07aa d3be 14d5 f5be
00000290: bfb0 4bbe 22a8 633e 1807 313e c9ab e4be
000002a0: 31d0 58bd 1e3c 37be 8616 c7bd 4d8d e9be
000002b0: 7507 b33e 3803 81be a082 3bbd ed01 ce3e
000002c0: 54a9 dabe 67a1 5bbe dbd9 dcbe 115a 793e
000002d0: 9ba3 c83e e5e0 99be a35c f03d 8097 623e
000002e0: 6a76 fcbe a779 023e e708 743d 1316 c23d
000002f0: 5235 dbbe b51a dd3e 8348 e43e 65a4 a43e
00000300: ff84 d63e 2623 e9be 6121 723e bf09 e0bd
00000310: 99b4 2c3e 2bcc a93d aa96 cbbe 6d0d af3e
00000320: f873 e1be aa01 353e 2461 d23e 3c9c 81be
00000330: 3cc3 cb3d 114c 83bd 39cc a4bd 77ab e43e
00000340: 1e39 863e 4940 4cbe bae3 fcbe 2d12 99be
00000350: 0c8b 953d 3c3d 98be aae7 493d d8d2 aabe
00000360: 1ecd 9a3d 9d40 533e 0f36 94be 0b77 d93e
00000370: f90b 5b3e 0c04 9b3d b4fd aebe ae44 2bbe
00000380: 800b 09bd 3446 9fbe 3e02 d8bd 25f2 eb3e
00000390: 0f93 b93c 5bd5 383e 8ae6 ad3e 5d65 a5bc
000003a0: e385 3abe fcb1 ec3e 685e f03d 9922 e53e
000003b0: 08db c6be bdb8 bdbe 6133 583d 52b1 03bf
000003c0: 5e74 e93c 8c43 52be d8a0 2b3e f7b9 f4be
000003d0: 3b73 a53e b75f 6ebe 2ad2 f03d 538a bdbe
000003e0: 5884 733e ecc1 87be ae26 803e aa81 dfbe
000003f0: 68d9 78be 72d0 01be fea4 f93d 56a4 3abe
0.28588334 0.32832015 -0.40583712 0.09502874 0.027596012 0.048163284 -0.30651647 -0.008568925
-0.048817933 -0.029129911 -0.17012908 -0.15531118 -0.064481705 -0.22846109 -0.31254667 0.117145106
0.14298981 0.24098565 -0.21606131 -0.13631797 0.29352188 0.51422745 -0.107578434 0.07838532
-0.46255636 -0.12857398 0.4421763 0.3401037 0.071358174 -0.4189221 -0.4504972 -0.35842377
0.057307135 -0.15229845 0.28875667 0.44532162 -0.013615813 0.31488913 0.23033299 0.4588004
0.16764067 -0.22741729 0.15668517 0.069655806 -0.12681073 0.16089574 0.36369032 -0.13125695
-0.42270443 -0.3340411 -0.105480365 0.35245982 -0.1365492 0.4668421 -0.28767106 -0.14480875
0.45880476 -0.32888952 -0.2358586 0.45022553 -0.51616377 -0.41342962 0.37009662 0.3290856
0.34306833 -0.23277275 0.15641755 0.2853973 -0.4461972 -0.13521339 0.54360455 -0.47125685
0.012637989 0.0044173175 0.07278418 -0.17733964 0.30506873 0.19220069 -0.055307243 -0.4118145
-0.54335034 -0.00087461545 -0.22705038 0.3019592 -0.0755001 0.52025586 -0.49853918 0.41852507
0.09898713 0.45639157 0.07335426 -0.057684764 0.4883297 -0.34259975 -0.010884497 0.31139722
0.45401344 0.24713622 0.31971693 0.4571998 -0.13348113 -0.49115065 -0.37257913 -0.12695868
-0.4174309 -0.14606945 -0.29753903 0.06769738 0.21648902 -0.21578345 0.009354716 0.016572392
-0.11604749 -0.026165983 0.10294412 0.34414193 0.22978184 0.14029093 -0.27307448 0.15390529
-0.23593798 0.4844995 0.388574 -0.43583068 0.052866437 -0.17123476 0.4451191 0.4970721
-0.29563606 -0.015143325 0.4589143 -0.46438977 0.025425676 -0.008376112 0.31870863 -0.41525546
0.47249657 -0.0961084 -0.45061874 0.24803463 0.13862608 0.003705703 -0.39532578 0.22568311
0.030600406 -0.28046972 -0.007368936 0.12573269 -0.35370827 0.13532557 0.33279833 -0.017600445
0.10313185 -0.3180621 -0.24734592 0.013233046 0.4667069 -0.26534373 0.40603435 0.3686431
0.26552302 0.044838168 -0.41340658 -0.48014128 -0.19891642 0.22232106 0.17287862 -0.44662312
-0.05293292 -0.17894027 -0.09721093 -0.45615616 0.34966627 -0.25197768 -0.04577887 0.40235844
-0.42707312 -0.21448289 -0.4313496 0.24350764 0.3918732 -0.30054393 0.11736419 0.22128105
-0.49309093 0.12741719 0.059578802 0.094768666 -0.42814118 0.43184438 0.44586572 0.32156673
0.41898343 -0.4553463 0.23645546 -0.10939359 0.16865768 0.08290895 -0.39763385 0.3418993
-0.4403379 0.17676416 0.41089737 -0.2531451 0.099493474 -0.06410993 -0.08046765 0.44662067
0.26215452 -0.19946398 -0.49392492 -0.2989668 0.07301912 -0.29734218 0.049293198 -0.33363986
0.07558654 0.20630117 -0.28947493 0.42473635 0.21391286 0.07569131 -0.34177935 -0.16725418
-0.033458233 -0.31108248 -0.10547303 0.4608318 0.02265313 0.18050139 0.3396495 -0.020189935
-0.18215136 0.4622954 0.117367566 0.44752958 -0.38838983 -0.37055007 0.052783374 -0.51442444
0.028497871 -0.2053358 0.16760576 -0.4779813 0.32314476 -0.232787 0.117588356 -0.37019596
0.23780954 -0.26515138 0.2502951 -0.43653613 -0.24301684 -0.12677172 0.12189673 -0.18226752

VAE_Encoder.layers.0.linear0.bias f4 [128]
00000000: fea9 bb3e 4ab6 513d 5789 db3e 7422 813e
00000010: 59a7 b3bb dc20 aebe 0265 4b3d 8723 f73e
00000020: 5a40 0bbe 6515 9ebe 6363 04bf fcd5 8b3e
00000030: 2f27 0fbd ebdb f43e e488 dcbc d6b6 d33d
00000040: 58f7 1f3d a0ba 103d 2a1b a33e 462a 053e
00000050: 7f87 e23e d8e0 94be 7432 a03e 0ac6 93be
00000060: 7d03 d6be 9139 96be 0ecf 03be 27a8 5cbd
00000070: c2c5 963e 5ada b0bd e917 cd3e 7f34 c5be
00000080: 79db 10be 020d a73e 0d08 903e decd c03e
00000090: f531 a7be 9820 58be 1344 b0be 8e22 893e
000000a0: 32cc 59be 4973 9bbe a914 d73e 6f49 41be
000000b0: 8ede 66bd b691 efbd e891 98be e1f4 69be
000000c0: 6e99 f9be 7ead dcbc 868e 95bc 31d0 f03e
000000d0: 20cd 543e dbed f9be e36e d93c 908d acbe
000000e0: 99c8 6cbe 53cb 5cbe 58c8 a6be add6 b7be
000000f0: 0fd8 96be 2b8c 8ebe e804 483c 3686 d63e
00000100: ab01 dfbe a319 863e 6f84 493e 1c27 7f3e
00000110: e053 88be c808 d03d d249 0ebd d1da 4fbe
00000120: 2676 cbbe 5fdb 95be c7ff acbd 4476 c93e
00000130: 760e d5bd 425f 503d 5f2b 88be 7fdd febd
00000140: 6dfa a63e 375f ee3e 0935 e2be 94bc d5bd
00000150: 2c66 833e 664a f5be c5ff 6dbe ba21 4dbd
00000160: 79ca 023e a9cf b93e 0261 183e 4200 00bf
00000170: 66a1 ff3d fb1a d03e 2e13 0ebe e01f b8be
00000180: fe43 4dbe ba5e 88be 719e 293d 7839 633e
00000190: 74c9 cdbe 5a36 2f3d e9b3 053e 01b2 873c
000001a0: 7f8c 71be d86c 2e3e d391 fd3e 5a2e b73e
000001b0: 3116 7f3e 7872 c9be fb9f d6be 1644 9fbb
000001c0: 0de9 75be c84c 903e 23d7 903e 90b2 a0be
000001d0: 2e90 f0be 7f4f e03e 971d 11bd 6c42 96bd
000001e0: 0256 1c3e 3401 b43e aecb a23b 18b5 823e
000001f0: a802 dcbe 85c0 57be 05ff c73e 5678 043f
0.3665313 0.051199235 0.4287822 0.25221598 -0.005482596 -0.34009445 0.049656875 0.48269293
-0.13598767 -0.30875698 -0.5171415 0.27311695 -0.034949478 0.47824034 -0.026920743 0.103376076
0.039054245 0.03533423 0.31856662 0.13004407 0.44244 -0.29077792 0.31288493 -0.2886203
-0.41799536 -0.29340795 -0.12871954 -0.0538713 0.29447752 -0.08635397 0.40057305 -0.38516614
-0.14146222 0.32627112 0.28131142 0.37657064 -0.32655302 -0.21106184 -0.34426937 0.26784176
-0.212693 -0.30361393 0.4200795 -0.18875669 -0.05636459 -0.11697714 -0.29798818 -0.2284732
-0.4874987 -0.026938196 -0.018256437 0.47033837 0.20781374 -0.48814282 0.026542133 -0.33701754
-0.23123397 -0.21561937 -0.32574725 -0.35905972 -0.29461715 -0.27841315 0.012208201 0.4189927
-0.4355596 0.26191434 0.19679426 0.24917263 -0.26626492 0.10157925 -0.03473837 -0.20298316
-0.39738578 -0.2926893 -0.08447223 0.39348042 -0.10403149 0.050872095 -0.2659559 -0.12444591
0.32612935 0.46557018 -0.44181088 -0.10436359 0.25663888 -0.47908324 -0.232421 -0.050080992
0.1277255 0.36291245 0.14880756 -0.50000393 0.12481956 0.40645584 -0.13874504 -0.3596182
-0.20045468 -0.2663477 0.041410867 0.22189891 -0.4019276 0.042776443 0.13056912 0.016564371
-0.23588751 0.17033708 0.49525318 0.3577755 0.24910809 -0.39345145 -0.4191893 -0.0048604114
-0.24014683 0.2818358 0.28289136 -0.31386232 -0.46985 0.4381065 -0.03542861 -0.07336888
0.15267184 0.35157168 0.004968128 0.2552879 -0.42970777 -0.21069534 0.39061752 0.5174612

VAE_Encoder.layers.0.linear1.weight f4 [4, 128]
00000000: 21ba 7e3d e5ba cc3c b827 ce3c f79a 74bd
00000010: 2cd2 debc 8687 bb3d 2d2c 303d f42f a1bc
00000020: b6f7 42bd 1047 243e c6c3 cdbd c250 06bc
00000030: b8b5 4f3d 2424 9d3d 8726 bebc 9c82 c9bc
00000040: 6e6d e43c 9324 0b3d bdfe 8ebd 5d94 b73d
00000050: cdd6 4a3d dd2d 4cbd 1206 97bd 7b00 7f3d
00000060: 232c 1abd 4df1 893d fd51 cdbb 9b4c 1ebd
00000070: b059 1c3d 2331 d2bd 83eb 7b3d fd93 4cbe
00000080: 5a82 a7bc a009 a2bd 34fc b03c f7c0 423d
00000090: 30ef 4cbc 745d 573d 5799 c63d 156e 973d
000000a0: e322 6c3d c631 eebb c8c9 73bd 7332 aeba
000000b0: c3c4 03bd b79a 953d 27c3 56bd 62f2 a53d
000000c0: 780e 8d3d 3f03 babd b74b 843d 30ba 423d
000000d0: 5b7c a5bd 22bb 423d 6c1b bdbd 9328 313e
000000e0: 7207 bbbd 3e65 3ebd 55fe cb3d 38b0 993d
000000f0: 1ea6 b63d d33f 15bd cbe3 8ebd 6aa1 bc3d
00000100: 098d 893d 223f 193d 9694 ea3b 5cba f7bc
00000110: 04ad 653c 4e92 e9bc 3dde 4b3d 27e9 313b
00000120: 1884 113c a98e 2d3d 3669 dabc 66bd 53bd
00000130: 4fb2 d8bb bb4f da3b f3c4 513d b101 ccbd
00000140: a8fc af3c b47e 0ebd 2e65 1b3d 34b7 1d3b
00000150: 7610 ab3d dc31 aebb d370 dcbd 8982 66bd
00000160: 2d6e 923d 0cca 1abd 948d b63d 107c 28bd
00000170: c24d 0d3d 6b2e 21bc aab6 933d d1e1 a8bd
00000180: 6d86 87bc 8fd2 7fbd df5f 71bd 12c5 bd3d
00000190: beba 80bd bc45 d1bc 6fd3 5cbd 5f62 b53b
000001a0: a3b7 2cbe 3220 fbbc e75e 43bd 4ea6 7abd
000001b0: b4e6 783d 5b01 cb3c 9305 3e3d b353 b93d
000001c0: 786e b9bd 9ad1 57bd 929f 48bd b190 5ebd
000001d0: d24c aebd 0415 12bd 4f8b 73bc 50e5 91bc
000001e0: 145a 2b3d 7ef6 72bd e2d5 31bd e7c0 56bd
000001f0: cdae d5bc c3a2 bd3d dc20 543d f5a3 b43d
00000200: 13fa 94bc 26f8 f53c c83e a1bd 2aa5 413d
00000210: 3e6b 3ebc 693a 863d 3b1b 25bc 0c88 393d
00000220: a6c7 2ebb 1824 893c 7cc7 6b3e e25a 1b3d
00000230: 693b fabc 3ee4 aabd b257 4bbc 41b7 36bd
00000240: be5e 30bd 9291 b03d 715c 613d 9240 463d
00000250: 2597 1c3d 8b00 7cbd b309 70bc aa6a 33bd
00000260: dd2d 3dba 6cac e2bd adf2 dd3d 0549 87bd
00000270: 2862 c7bd 8429 8d3d 15d1 c03d 5587 8abd
00000280: 00e1 5dbd e267 23bd e110 893d 2072 a9bd
00000290: 4d4a 10bd ae09 edba 78e0 ec3b 1528 f83a
000002a0: 513a bbbc d3ef 40bd c901 95bd a791 ec3d
000002b0: b726 9b3d 5e6b 9bbd 4289 92bd cce8 2c3d
000002c0: 2974 1e3d 9b44 3b3d 5467 85bd e3e0 c43c
000002d0: 12a1 81bd dea9 b63d 9ae8 2f3d 24bc 4abd
000002e0: 3ed8 653b d181 ffbd f7a3 88bb 2ebb 29be
000002f0: b8f0 84bc fd47 c0bc 77ed 543d b754 ca3d
00000300: c162 d8bd 9ab3 7cbc 434a b3bc 9c00 a43d
00000310: 9e2e 653c 5ebc 98bd f83a ea3d 35b1 f2ba
00000320: a018 39bb 1022 1fbb 9dd4 073e 0f2e 07bd
00000330: 172e b23c 4468 65bd 7df4 163d b497 05bd
00000340: 15f6 97bd 2640 7fbd 8bfa 1b3e a567 393d
00000350: da23 6f3d a82d 4ebd c524 bc3c 2771 ea3c
00000360: 1568 ffbd 1829 87bd 7a2e 993d 8db9 c8bc
00000370: 1440 4fbd 8983 3f3d cdc6 0e3c c9d8 11bd
00000380: 6ebc 5cbc 40ce 093e 26ac 30bd c3fc 013e
00000390: 2a41 fb3d d9d8 273c 8a7c 17bd b3d2 b8bd
000003a0: 68ff 68bd 6c11 753d 6fd6 993d bf2c 85bd
000003b0: 222f 9c3d 5ebb 163d 727c 003e 9a27 3dbd
000003c0: 35cf 2e3e 79c2 9c3d 638c 003d a3f6 edbc
000003d0: 4087 f33d 6b34 883d 5b3e 513b 2de9 823d
000003e0: 728b 293c 8397 89bb fdfc 80bd 3ca1 633d
000003f0: 50e0 353e f890 7b3d ffab 66bd f5ab 893d
0.062189225 0.024991462 0.025165424 -0.0597181 -0.027199827 0.091567084 0.04301088 -0.019676186
-0.047599517 0.16042733 -0.100471064 -0.008197965 0.05071041 0.07672909 -0.02321173 -0.024598412
0.027884211 0.033970427 -0.06982181 0.08963845 0.049521256 -0.049848426 -0.07374205 0.062256318
-0.03763975 0.067354776 -0.0062658773 -0.038647275 0.03817147 -0.10263278 0.0615039 -0.19978328
-0.020447899 -0.07911992 0.021604635 0.047547307 -0.012508199 0.05257936 0.09697216 0.07394043
0.057650458 -0.007269117 -0.059518605 -0.0013290182 -0.03217007 0.073049 -0.052432206 0.081028715
0.06887525 -0.090826504 0.06459754 0.047540843 -0.080803595 0.047541745 -0.09233746 0.17300634
-0.091322795 -0.04648327 0.09960619 0.07504314 0.08918403 -0.03643782 -0.06977042 0.09210475
0.067163534 0.037413724 0.007158826 -0.03024023 0.014018301 -0.028512146 0.04977249 0.0027147026
0.008881591 0.04237238 -0.026661497 -0.051694296 -0.006613053 0.0066623366 0.051213216 -0.0996126
0.02148278 -0.034788802 0.03793829 0.0024065496 0.08352749 -0.0053160023 -0.10763707 -0.05627683
0.071499206 -0.037790343 0.08913723 -0.04113394 0.034497984 -0.009837727 0.07212575 -0.08246196
-0.016543591 -0.062456664 -0.05892932 0.09266104 -0.06285618 -0.025545947 -0.053912576 0.0055354084
-0.16866927 -0.030655 -0.047697928 -0.061193757 0.06076689 0.02478092 0.046392035 0.090491675
-0.09054273 -0.052690126 -0.048980303 -0.054337207 -0.08510746 -0.035664573 -0.014864757 -0.01780954
0.041833952 -0.059317105 -0.043416865 -0.05243006 -0.026084328 0.0925956 0.05178915 0.08820335
-0.01818565 0.030025553 -0.07873303 0.047276653 -0.011622248 0.065541096 -0.010077293 0.04529576
-0.0026669293 0.016740844 0.23025316 0.03792847 -0.030545907 -0.08344315 -0.012411045 -0.04460836
-0.043059103 0.08621515 0.0550198 0.048401423 0.03823008 -0.061523955 -0.01465075 -0.043802895
-0.0007216612 -0.11068043 0.10837302 -0.06605724 -0.09735519 0.06892684 0.09414879 -0.06764094
-0.054169655 -0.039893992 0.066926725 -0.08273721 -0.03522711 -0.001808455 0.007228907 0.0018932844
-0.022854956 -0.047103714 -0.07275731 0.115512185 0.07575744 -0.07588838 -0.07155086 0.0422142
0.038684998 0.045719724 -0.06513849 0.024033016 -0.0632955 0.08919118 0.042946436 -0.04949583
0.0035071517 -0.124759324 -0.0041699368 -0.1657531 -0.016228065 -0.023471827 0.051984277 0.09879439
-0.10565711 -0.01542368 -0.021885997 0.08007929 0.013988165 -0.07457803 0.11437029 -0.0018515947
-0.0028243437 -0.0024281777 0.132647 -0.03300291 0.021750493 -0.05600764 0.036854256 -0.03261538
-0.07419983 -0.062317036 0.15232293 0.04526486 0.0583838 -0.05033651 0.022966752 0.028618408
-0.12471024 -0.06599635 0.07479568 -0.02450254 -0.05059822 0.0467563 0.00871439 -0.035607133
-0.0134726595 0.13457584 -0.043132924 0.12694077 0.122682884 0.010244572 -0.036984004 -0.09024563
-0.0568842 0.059831068 0.07511603 -0.06502675 0.07626177 0.03679978 0.12547472 -0.046180345
0.1707123 0.0765428 0.031383883 -0.02904827 0.11891031 0.06650623 0.0031928036 0.06392131
0.010348188 -0.00419897 -0.06298254 0.055573687 0.1776135 0.06141755 -0.056316372 0.06722251

VAE_Encoder.layers.0.linear1.bias f4 [4]
00000000: 5693 75bc b979 bd3c 0129 adbd b14d b83d
-0.014988741 0.023129331 -0.084550865 0.089991935

VAE_Encoder.layers.0.norm1.weight f4 [4]
00000000: ed9a 873f de29 6b3f bacc 8a3f e49c 813f
1.0594155 0.9186076 1.0843728 1.0126004

VAE_Encoder.layers.0.norm1.bias f4 [4]
00000000: 1b29 d4bc 28a9 8abc c7c5 043d 1ba5 a13c
-0.025898507 -0.016926363 0.032415178 0.019732049

VAE_Encoder.layers.1.attention.W_q.weight f4 [4, 4]
00000000: 5919 e7bd 0f84 49be 10cb 8a3d 8298 a73e
00000010: 8328 763e ac81 70be ff56 11bf 456d 9d3e
00000020: f40a fbbe 6932 043f 0d15 e33d b13e 8bbe
00000030: fa6d 37ba 7342 de3d d272 b3be 152e 093f
-0.112841316 -0.19679283 0.06777012 0.32733542 0.24038891 -0.23486966 -0.5677337 0.3074743
-0.49031794 0.5163942 0.110879995 -0.27196267 -0.0006997284 0.10852518 -0.35048538 0.5358594

VAE_Encoder.layers.1.attention.W_q.bias f4 [4]
00000000: 265e 693d ed35 48bc d46a a9bc 0678 463d
0.056974553 -0.012219888 -0.020680822 0.048454307

VAE_Encoder.layers.1.attention.W_k.weight f4 [4, 4]
00000000: a7dc 1b3e 2890 c83e ae88 083f 06c8 88be
00000010: d405 dd3c 76d9 d5bd 5139 eabd 8dd5 02bf
00000020: 8799 c13e 9127 c63d e997 773e 4efb de3e
00000030: e4e9 1b3e 62cf d5be 330f f63e 5d68 dbbe
0.15220891 0.39172482 0.53333557 -0.26715106 0.026980318 -0.10441868 -0.114367135 -0.511071
0.37812445 0.096755154 0.24179043 0.43551105 0.15225941 -0.41759783 0.4805847 -0.4285306

VAE_Encoder.layers.1.attention.W_k.bias f4 [4]
00000000: cd85 3834 d622 21b7 50cd e736 982a d4b6
1.7185012e-07 -9.604459e-06 6.908238e-06 -6.323051e-06

VAE_Encoder.layers.1.attention.W_v.weight f4 [4, 4]
00000000: 134c 9fbc 806c d1bd 69e4 be3e d2c6 d23c
00000010: c9e7 92be 87fb 88be 340f e7be 86a8 7c3e
00000020: 5ce1 84be 8641 083e 2f83 95be 5fb7 663e
00000030: 6401 853d 89e3 583e 45e9 e73d c9ea cc3e
-0.019445455 -0.10225773 0.37283638 0.02572957 -0.28692463 -0.267544 -0.45128787 0.24673662
-0.25953186 0.13306245 -0.29201648 0.22530888 0.06494406 0.21180548 0.113237895 0.40022877

VAE_Encoder.layers.1.attention.W_v.bias f4 [4]
00000000: 4e6f 123d f185 31bc 24ff fd3c bee7 60bc
0.03575068 -0.010835157 0.03100545 -0.013727127

VAE_Encoder.layers.1.linear0.weight f4 [128, 4]
00000000: 5afa 773e b4b9 c93d ef40 3e3e 1f5b a8be
00000010: 3c00 e7be ac8a dbbe ecc9 d03e 0657 c23d
00000020: 60d8 883c d0d2 cabd 0076 70bb b429 243e
00000030: 5d57 cc3d 1dcf e83d fa7c c5be d4ca d3bd
00000040: 0bfd fabd b455 4ebf 5eb3 a53e 010d 823e
00000050: c8de 02bf 3592 09bf ebed 8dbe 6b6b 103f
00000060: a3d4 c43e 1fb8 aebe 6f9a afbe 5090 803e
00000070: 221b b03e 482a bfbe 5f52 e33e f721 96be
00000080: e438 9f3d 8582 e4be e192 073e 9c8a 2fbf
00000090: 0c5d a63e c38e d4be d5b8 963e 2888 6b3e
000000a0: c808 1f3e a0b3 83be 5901 99be 1670 d33c
000000b0: d926 58be b115 36be 8f5b 09be df3e 6c3e
000000c0: 3b19 19be 1101 1e3d 2213 de3e 4df5 a2be
000000d0: d9f5 35be 249b 18bd 4232 103f b47b 05bf
000000e0: 3bcc 1bbe c35a 88be daa8 b5be 32e1 653f
000000f0: b65b 5e3e 50c8 bf3d 5fd9 e5be 6365 bf3d
00000100: 7971 7f3e e001 b8be a562 55bd fe2b 8bbf
00000110: ecc5 8dbe b29c e03e bfb8 e3be 9f7a 97bc
00000120: 943e fb3e 39df 42be 515e 0a3d fec9 91bd
00000130: 952f b13c 7de4 e53e 5f09 05be 2d53 c63e
00000140: ac5e 9bbe 00c6 15bd 3229 94be a31b b03e
00000150: 62c6 093f f651 2b3e 46ae f73d 617f 5fbe
00000160: 1703 99be 54ec 0e3f b479 87be ac6f b6be
00000170: a6b9 0abf a562 013e 690a e7be 2b61 173f
00000180: 358d f03e 7dde 483d 1152 c2bd a485 d2be
00000190: f6fb bebe 16c6 673e 3aa4 e1be 79f4 0d3f
000001a0: 3e85 bfbe d84d b23e ef63 9cbe 1b0c a33e
000001b0: b90e 8d3e 4ce4 9e3d b4cb d5be 19d1 963e
000001c0: 59cf 083e 286e 18bf 8483 7abe 2976 f7be
000001d0: 316f a4be d744 de3d aae5 04bf 81be cdbe
000001e0: a73b ba3e db1c 8bbe d1be 843e 95ed 14bf
000001f0: f5e2 263e 5fe6 dbbd 75b1 ef3e 66a0 48be
00000200: 7928 88be abd8 8c3e 3f50 59be 7ee3 ee3e
00000210: 983a aa3a c14f 97bd 038b afbe c1eb 04be
00000220: c613 8fbe 5c93 1e3f b9a4 c6be 5822 9abe
00000230: d252 babe 6d74 a93e 48b9 a9bd 2632 c1be
00000240: af21 b1bd 1a62 403e 459b fb3e c0e7 f43e
00000250: 2881 d63e 3839 113e e2e4 613d 383d 293f
00000260: cb7c 0ebe dff9 b9be edfd d73d 8d46 23bf
00000270: b928 483e fd22 813e a5ec 16be 5778 e93d
00000280: 1fb5 993e c6c6 0fbf d646 ae3e 9aa1 0bbf
00000290: fd1f 833c 13f2 a53e a772 ed3e 4a0d acbe
000002a0: 8f12 d1be 86d5 a5be b87e 933e f3c3 5b3e
000002b0: 0008 fe3e 9ef4 bb3d d8a8 d43e 0896 cc3e
000002c0: 3c87 0bbf cc78 0abd aafd b53e ae0a 013f
000002d0: 8179 c9be 29a6 03bf a2a7 83be a994 d63e
000002e0: 8a70 a8be cbaa eebe 6cd3 4cbe da0e 0a3f
000002f0: fa00 6b3e 5401 113e 050a cf3e 2749 c9be
00000300: 5fe7 0a3f 172d c23e 4e11 7b3d 2032 37be
00000310: 2a43 0d3f 0ce1 83bd 2148 d8be 772c 90be
00000320: fd54 a83e a8a2 1ebc 63e7 b2be 8190 27bf
00000330: f9d6 3bbd 6d46 80be f646 063f d693 30be
00000340: 69ab c7be 1203 77be 243b 223e 4822 afbe
00000350: 55c1 bfbe 71f7 5b3e a2c8 6b3d 0480 86be
00000360: bb4d 62bb 1345 aa3e 23b1 cfbe c91d 973d
00000370: f3d0 cd3e e23f 4c3e 3c87 0dbd c65a 68bd
00000380: a019 77be 869e c13e 30a3 9e3e 3e7a b7be
00000390: 90f8 fc3d c5aa a63e 7d39 6f3e f5a7 cf3e
000003a0: 0d33 babe 15fb 91be d6e7 813e 8476 bebe
000003b0: 48b4 953e ae4e 173d 0d96 adbe 58ae 643e
000003c0: 8a41 10bf 6eb6 a1be c8c3 043f 20c8 d2bd
000003d0: 3065 0a3f 3306 c43d 2f28 08bf a811 a03e
000003e0: f7f1 e5bd e665 4abd 40c9 3f3e 80d0 7ebe
000003f0: 289e 08bf 5044 093f c947 c53d fc69 083e
0.24216595 0.09849873 0.18579458 -0.3288202 -0.45117366 -0.42879236 0.40779054 0.09489255
0.016704738 -0.099034905 -0.0036691427 0.16031533 0.09977601 0.11367629 -0.38571912 -0.10341421
-0.12255295 -0.8059952 0.3236341 0.25400546 -0.5112119 -0.5373872 -0.2772058 0.56413907
0.3844348 -0.34124848 -0.3429751 0.25110102 0.343957 -0.37336946 0.44398782 -0.29322788
0.07774523 -0.44630828 0.13239624 -0.68570876 0.32492864 -0.4151517 0.2943789 0.23001158
0.15530694 -0.2572298 -0.2988384 0.025810283 -0.21108569 -0.17781712 -0.13413833 0.23070858
-0.14951031 0.038575236 0.43373972 -0.31827775 -0.17769565 -0.03725733 0.5632669 -0.5214188
-0.15214626 -0.26631746 -0.35480386 0.89796746 0.21714672 0.093643785 -0.44892403 0.0934551
0.2494563 -0.3593893 -0.052096028 -1.08728 -0.27690065 0.4386955 -0.44476888 -0.018491087
0.4907118 -0.19030465 0.033781353 -0.07118605 0.021629134 0.44900885 -0.12991856 0.38735333
-0.30345666 -0.03656578 -0.2893768 0.34396085 0.53818333 0.16730484 0.12093787 -0.21825935
-0.2988517 0.5582936 -0.2646004 -0.35632074 -0.5418953 0.12635286 -0.4512513 0.5913264
0.46982732 0.049040306 -0.09488309 -0.41117585 -0.37301606 0.22634158 -0.44070607 0.5545116
-0.37406343 0.34825015 -0.30544993 0.31845173 0.27550295 0.07758388 -0.41756976 0.29456404
0.13360347 -0.59543085 -0.24464232 -0.48332337 -0.32116082 0.10852974 -0.5191294 -0.40184405
0.36373636 -0.27170452 0.2592683 -0.5817502 0.16297515 -0.10737299 0.46815076 -0.19592437
-0.26593378 0.27509055 -0.21222018 0.46657938 0.0012987433 -0.07388259 -0.34285745 -0.12980558
-0.27944773 0.619436 -0.38797548 -0.30104327 -0.36391312 0.33096638 -0.08287293 -0.37733573
-0.08649003 0.18787423 0.491419 0.4783306 0.41895413 0.14181983 0.05514992 0.6610904
-0.13914792 -0.3632345 0.105464794 -0.63779527 0.19546784 0.25222006 -0.1473871 0.11399906
0.30020997 -0.5616268 0.3403842 -0.5454346 0.016006464 0.3241125 0.46376535 -0.3360389
-0.40834472 -0.32389468 0.28807616 0.21461467 0.4961548 0.091775164 0.41535068 0.39958215
-0.54503226 -0.033806607 0.35545093 0.5040692 -0.39350513 -0.51425415 -0.2571383 0.41910294
-0.3289836 -0.4661468 -0.20002526 0.5392891 0.22949591 0.14160663 0.40437332 -0.39313623
0.54259294 0.37925026 0.0612958 -0.17890215 0.5518061 -0.06439409 -0.4224253 -0.28158924
0.3287734 -0.009682335 -0.3494216 -0.6545487 -0.04585931 -0.2505373 0.5245203 -0.17243895
-0.38997963 -0.24122265 0.15842873 -0.34205842 -0.37452188 0.2148111 0.057564385 -0.26269543
-0.0034531194 0.33255824 -0.40564832 0.07378728 0.40198478 0.19946244 -0.034552798 -0.056727193
-0.24130869 0.37816256 0.30983877 -0.3583545 0.12352097 0.32552162 0.23361774 0.4055783
-0.36367074 -0.28511873 0.2537219 -0.37199795 0.29239106 0.03694027 -0.33903542 0.22332132
-0.56350005 -0.31584495 0.5186124 -0.10292077 0.5406065 0.09571495 -0.53186315 0.3126347
-0.11227792 -0.049413584 0.18729115 -0.24884224 -0.5336633 0.5361986 0.096328326 0.1332168

VAE_Encoder.layers.1.linear0.bias f4 [128]
00000000: 38fa 033f bd8c bb3e 4846 e3be f71f 09bf
00000010: 7b61 b1be f10c 1cbd 5c64 e23e 0425 1ebd
00000020: 71b7 1bbe 59b8 523e a452 0fbe c15a de3d
00000030: 44b0 813e 558e b43c 5cc4 c7be 8764 b4be
00000040: 3708 98bf 1df4 573e dff7 f33d 984e af3d
00000050: 23c1 f63d f687 a53e d39f 503e c66b 92be
00000060: 657e 06be 0b53 503e dbfc b53e 7cc9 13bf
00000070: 891b a8be ef0a c63d 4888 943e ff57 f5be
00000080: 5592 c03e 58a2 a83d bc84 c2be 1bd1 a93e
00000090: a4d7 cfbd 41d9 8fbe 25f5 ccbe 143e 1dbe
000000a0: 7e8e 923d a0be a1be 21fc 293e 6b78 4dbe
000000b0: b63d 91bd 5820 9d3e 90a1 933e bbf7 dc3d
000000c0: 28f5 a2bd 4824 fabe 86ee 44be e257 ab3e
000000d0: 3aaf 0ebd d92f 97bd a947 c1be bebf 823c
000000e0: 4215 e7be 427f fb3e a725 b93e 4708 ce3c
000000f0: 22a8 943d 17f5 403e 029d 5f3d e493 c9be
00000100: 5a98 07be dacb 1f3e fca5 873e d358 91be
00000110: 8c95 62be a18d f7be e5c3 5bbd c61c aebe
00000120: f837 68be e566 c3bd 8b41 fc3e c10e 71be
00000130: 8d01 de3e 8cd0 82be 4c64 d1be 00a9 07be
00000140: 99b0 833e 5117 52be 8d3e f2be fc37 d53e
00000150: c9ab 9cbe 3acd d43e 3367 f43e e537 913d
00000160: 0031 2c3e 6fe0 273e 75e2 513d 3a34 33be
00000170: 63bc e03e 842d 473c d078 e6be 1fa3 24bc
00000180: 8ab0 703e e350 93be fa92 573e d74d 963e
00000190: ba13 e43e bcc8 0a3e 4caa a73e 4ac2 ca3e
000001a0: 77fc 5f3e 7e15 9ebe 4e48 7abe 9e6e 9cbe
000001b0: 20a7 be3e 3949 7d3e 7a5e f13e 5ce0 a2be
000001c0: 0c85 f63e 84b2 573e eb00 4abe 9558 e23e
000001d0: 878a fabd 7c93 dbbe 4ade 113d 6901 6f3e
000001e0: 7449 f93d d305 293d e33f 01bd f951 d23e
000001f0: 7de0 cc3e f8f0 023e 5be0 d4bd 3ef0 d5be
0.5155368 0.36630812 -0.44389558 -0.535644 -0.34644684 -0.03809828 0.44217193 -0.03860952
-0.15206696 0.20578136 -0.13996369 0.10857154 0.25329792 0.022040525 -0.39016998 -0.35232946
-1.1877507 0.21089216 0.11912512 0.085599124 0.12048557 0.32330292 0.20373468 -0.2859785
-0.13134153 0.20344178 0.35544476 -0.57729316 -0.32833508 0.09670054 0.29010224 -0.47918698
0.37611642 0.082340896 -0.37991893 0.33167347 -0.10148552 -0.2809544 -0.4003078 -0.15355712
0.071560845 -0.31590748 0.16600086 -0.20065467 -0.070918486 0.3068874 0.288342 0.10789438
-0.07956916 -0.48855805 -0.19231614 0.33465487 -0.034835078 -0.07382173 -0.37749985 0.01596057
-0.45133406 0.49120528 0.3616154 0.025150431 0.07258631 0.18843494 0.054593094 -0.39370644
-0.13241711 0.15605107 0.26493824 -0.2838808 -0.2212736 -0.48350242 -0.053653616 -0.34006327
-0.226776 -0.0954111 0.49268755 -0.23540784 0.43360558 -0.25549734 -0.40896833 -0.13248062
0.2572067 -0.20516707 -0.47313347 0.41644275 -0.30599812 0.41562825 0.47734985 0.07090739
0.16815567 0.16394208 0.051241357 -0.17500392 0.43893728 0.012156848 -0.45014048 -0.010048657
0.23504844 -0.2877265 0.21052161 0.29356262 0.445463 0.13553137 0.32747114 0.39601356
0.21873651 -0.30875772 -0.24441645 -0.30553144 0.3723688 0.24734963 0.47142392 -0.31811798
0.48148382 0.21064192 -0.19726913 0.44208208 -0.12233453 -0.4288596 0.035612382 0.23340382
0.12172213 0.04126532 -0.031555068 0.41078165 0.4001502 0.12787235 -0.10394355 -0.41784853

VAE_Encoder.layers.1.linear1.weight f4 [4, 128]
00000000: 2f49 cebc b6ab 3dbd 39c9 893d e38b 76bc
00000010: cf03 4b3e 841e 87bd c0fc 103d 03a1 863b
00000020: 6bfb 17be 9739 90bd cb39 3ebc 2c1d 5cbd
00000030: d938 6e3d 34e6 abbd c193 e4be 9f93 fd3b
00000040: 358f 363f ab89 303d 2d2d 85bd ed89 4cbd
00000050: 9619 f73c 49cb a5bc f57b 2ebd 0229 0b3d
00000060: 5559 aabc 17bd 44bd 0046 c43d ae4a 53bd
00000070: 2045 833b 909b 183d 6e63 83bd deb4 31be
00000080: b030 903c 3b9b 1b3c a1d0 f9bd 12de 6ebd
00000090: d430 323d 3b1b 663e 9f01 7cbe 3abd 263d
000000a0: 8ec3 ab3c 73b8 78bd 7257 8d3c 9e01 58bd
000000b0: 16bd 8fbb 89ba afbc dd44 7fbd ff86 2dbc
000000c0: c38f 2b3d 1113 a63b 6a9a d8bd 7c19 46bd
000000d0: 9230 3dbd 9457 de3d 1cfe 383e d2e0 a6bd
000000e0: e048 0bbc f948 9abd 37fa 81bc f66c 40bd
000000f0: 9566 053d 3034 3dbd 2779 2d3d 1e73 8c3d
00000100: a394 47bd 3020 19be 03f9 3abd 4ebc 653d
00000110: 197a 923d 57a9 e1bd eb5a 91bd 2881 323d
00000120: a6e3 48bc ced1 8fbc ab3e 28bd f23d b7bc
00000130: 7d6b 1e3d 54ac a43c 77f1 9bbc d65c fc3c
00000140: 67e4 41bd 1a14 0f3d 12d4 503e 1def 033d
00000150: 5a3f abbd 5e0c 673d 06f3 f93b d8e3 5ebd
00000160: 0b75 58bc 49a2 32bd 789d 8bbd 7b97 a53d
00000170: 6cd8 85bb ee55 8e3c 7ead 3cbd 4571 31bc
00000180: c75c 91bc a2af 123d cc5d be3d 0532 223d
00000190: 1ce5 a03d 3a64 dbbc 6888 67bd 60ba 0d3c
000001a0: 70d8 ae3b a498 243d aa4e 42be fd05 1a3d
000001b0: 8183 a63d c8d7 853d dd58 21bd 966f 77bd
000001c0: e828 8b3b adda a63d 362d 64bd e8c2 983c
000001d0: f736 8a3c 9a7e 173d 8423 b73c 4356 48bd
000001e0: 9a2c 68bc 05db fd3b 7112 a2bc 6bfc 61bc
000001f0: 031a 6abd c86e 673d aa4c 0d3c 57f6 0d3d
00000200: 17c6 ddbc 70a2 1bbe 04d3 57bd fb60 4b3e
00000210: d023 c63e e506 edbd 6075 533d 9b4c 993d
00000220: 9c06 8f3c 914f 12bd 8d12 7e3b d53a d8bd
00000230: 00e3 3f3d e5f9 07bb c4f6 b5bd 1623 1ebd
00000240: 2ffa 73bf 3a84 993d a50e 183c 1289 b93d
00000250: 832b 173e 71ba 653d 9401 3b3e ef09 b63e
00000260: 72db 43be e93a 863d 35f5 0a3e 9baf 023d
00000270: 103c 3d3d 5a0d 9c3e 3735 d93b 0e8b e83d
00000280: 0f0c 043e 8f75 3ebd 8cc3 0e3e 9d1a ab3d
00000290: 64a5 49be ff06 2abd ba83 da3b f1fd 80bd
000002a0: 1d9b 0a3e 5356 373d 35d0 8abd d9e4 ed3d
000002b0: 2c67 2cbe 0010 08be 3137 e8bd 00a4 cf3d
000002c0: 7b3d 2a3d cc33 febd 281b 95bd cde6 56bd
000002d0: 284a 1abe 9471 0c3e 759d af3d c468 1bbd
000002e0: 1f2b 083e 3cd2 8f3d 1d0f 3c3c 7e23 e0bd
000002f0: e791 1bbe 732e eabd ccdd 6bbd 713e 113e
00000300: dc15 193e 6c4d 413e 399c d4bd 0ae3 d63d
00000310: 6118 493e 7b3a 86bd 7977 5ebe fd3f 773e
00000320: df53 9ebd f0d6 e03c 597f 4cbd 1372 db3d
00000330: c6c7 9b3c 8e1d 913d f7da 583d ef6f 723e
00000340: 3cef 20be 3361 493d d222 85be aa23 03be
00000350: d339 133e ed3c 723d ec48 88bc 444e 663b
00000360: 85d8 a43c fc7b 61bd ff98 01be 8d4c 0d3e
00000370: 9a15 90bd a10f 0fbe 75f3 37bd 0e2f 08be
00000380: 83ca 7a3d a093 a33c d155 443e 288f b5bd
00000390: be8d ad3d d81a 9d3d 931c d8bd 70a9 b73d
000003a0: 94a7 3cbd 2201 1ebe 32ec 253e d04f ccbd
000003b0: 96d6 843d 6718 e0bb 1e92 1d3d f25c ba3d
000003c0: 1c22 14bd 4576 76bd 2f35 3a3d 79e3 56bd
000003d0: 17ef 043e cff3 89bc e906 94bd 118f b73d
000003e0: b0fe 663e a407 533d 2b90 4f3d 7faa 2b3e
000003f0: dae5 7a3e f89e 8abd 8715 353b 2afb b43d
-0.025181381 -0.046306334 0.06727833 -0.015048 0.19825672 -0.06597617 0.03539729 0.0041085496
-0.14842002 -0.070422344 -0.011610459 -0.053738758 0.058159683 -0.08393517 -0.44643977 0.007738545
0.71312267 0.04310004 -0.06502757 -0.049936224 0.030163568 -0.020238535 -0.042598683 0.033974655
-0.02079455 -0.048031893 0.09583664 -0.051584892 0.004006043 0.03725773 -0.06415449 -0.17354152
0.017601341 0.009497459 -0.12197996 -0.05831725 0.043503597 0.22471325 -0.24609993 0.040707804
0.020967271 -0.06072278 0.017253611 -0.052735917 -0.0043865545 -0.021451252 -0.062321533 -0.010591268
0.04188515 0.005068191 -0.10576327 -0.048364148 -0.0461889 0.10856548 0.18065685 -0.0814835
-0.0085012615 -0.0753345 -0.015866382 -0.046978913 0.032568533 -0.046192348 0.042351868 0.06857894
-0.048725735 -0.14953685 -0.045647632 0.056087784 0.071521945 -0.11018627 -0.07097419 0.043580204
-0.012261307 -0.017556097 -0.04107539 -0.022368405 0.038676728 0.020101704 -0.019036038 0.030805986
-0.047336962 0.03493128 0.20393398 0.032210458 -0.08361693 0.05640828 0.0076278476 -0.054416507
-0.013211499 -0.0436118 -0.06817144 0.08085533 -0.0040846374 0.017374959 -0.046063893 -0.010830228
-0.017744435 0.035812028 0.09295234 0.039598484 0.07856199 -0.02678119 -0.05652657 0.008650392
0.00533586 0.040184632 -0.1897532 0.037603367 0.08130551 0.06535298 -0.039391387 -0.06040915
0.0042468198 0.08147178 -0.05570718 0.018647626 0.016871912 0.03698597 0.022355802 -0.04891039
-0.01417079 0.0077470564 -0.019784184 -0.013793091 -0.057153713 0.056502134 0.008624235 0.034658756
-0.027071996 -0.15198684 -0.052691475 0.19861214 0.38699198 -0.11573581 0.05162561 0.074853145
0.017459206 -0.03572041 0.0038768381 -0.10558096 0.046847343 -0.0020748314 -0.088849574 -0.03860768
-0.95303625 0.07495923 0.009280835 0.09059347 0.14762692 0.056086008 0.18262321 0.35554454
-0.1912668 0.06554205 0.13570102 0.03190575 0.04619986 0.30478936 0.006628658 0.113546476
0.12895225 -0.04649883 0.13941783 0.083546855 -0.19691998 -0.04151058 0.006668535 -0.062984355
0.13535734 0.04476006 -0.067779936 0.11615915 -0.16836232 -0.13287354 -0.11338652 0.101387024
0.04156254 -0.12412223 -0.0728057 -0.052466203 -0.15067351 0.13715202 0.085749544 -0.03794171
0.132977 0.07022521 0.011478213 -0.109442696 -0.15192376 -0.11434641 -0.05758457 0.14183976
0.14949745 0.1887719 -0.103813596 0.10492523 0.19638206 -0.06554123 -0.21725263 0.24145503
-0.07730841 0.02744624 -0.049926136 0.10715117 0.019016158 0.07085715 0.052943196 0.23675512
-0.1571626 0.049164962 -0.26003128 -0.12806574 0.14377527 0.059140135 -0.016636334 0.0035141865
0.020122776 -0.05504988 -0.1265602 0.13798733 -0.0703537 -0.13970806 -0.044909913 -0.132992
0.061228286 0.019967854 0.19173361 -0.088651955 0.08474301 0.07671136 -0.10552325 0.089678645
-0.046058252 -0.1543012 0.16203383 -0.099761605 0.064862415 -0.0068388465 0.038469426 0.09099759
-0.03616534 -0.060171384 0.045460876 -0.05246303 0.1298183 -0.01683989 -0.072278805 0.089628346
0.22558093 0.05152096 0.0506746 0.16764258 0.24501744 -0.06768602 0.002763124 0.08836968

VAE_Encoder.layers.1.linear1.bias f4 [4]
00000000: e17e 333d c2dd 42bd 531c d2bc 865a 2abd
0.043822173 -0.047574766 -0.025648272 -0.041590236

VAE_Encoder.layers.1.norm1.weight f4 [4]
00000000: e475 953f 045a 983f 9bc0 9d3f 15b6 993f
1.1676602 1.190247 1.2324404 1.2008692

VAE_Encoder.layers.1.norm1.bias f4 [4]
00000000: 2329 15bd 54d1 0d3d c28f b7bc 84df 50bd
-0.036416184 0.03462346 -0.022407416 -0.05099441

VAE_Encoder.layers.1.norm0.weight f4 [4]
00000000: 221f 833f 6504 723f 0032 733f 669b 8c3f
1.0243876 0.94537956 0.9499817 1.0984924

VAE_Encoder.layers.1.norm0.bias f4 [4]
00000000: 623a 163c e773 0cbb 7400 ca3c a6fb 693c
0.009169193 -0.0021431388 0.02465842 0.014281189

VAE_Encoder.last_normalization.weight f4 [4]
00000000: 0000 803f 0000 803f 0000 803f 0000 803f
1.0 1.0 1.0 1.0

VAE_Encoder.last_normalization.bias f4 [4]
00000000: 0000 0000 0000 0000 0000 0000 0000 0000
0.0 0.0 0.0 0.0

VAE_Encoder.head.weight f4 [4, 4]
00000000: a2a6 d2be 766c 9abe 8e71 ac3e 70d7 803d
00000010: 9e7e 923e f601 c03e 9cfc 213e 4461 bcbe
00000020: 1466 233e 10da fdbe aef5 92be a84a 293e
00000030: 924e f4be b47b 84be 44f2 c83e d4d4 663e
-0.41142756 -0.30160874 0.33680385 0.062910914 0.28612226 0.37501496 0.15819019 -0.36792958
0.15956908 -0.4958043 -0.28703064 0.16532385 -0.47716194 -0.25875628 0.39247334 0.22542125

VAE_Encoder.head.bias f4 [4]
00000000: c44a 0ebe 840a 7d3e 4ca5 083e 282e e93d
-0.13895708 0.24711043 0.13344306 0.11385757
