CraftingTable/models/ckpt/vae_model.pt (torch, 71551 bytes, 93 tensors)

VAE.Tokenizer.weight f4 [157, 4]
0.21573107 0.16209379 -0.28827414 0.045455433 0.8223157 0.29242098 0.50717515 -0.31363913
0.23298651 0.44577315 0.27637932 -0.22607072 0.24580866 -0.35347906 0.108509734 0.13421035
-0.21701439 0.16149592 -0.2852209 0.03782374 -0.099466175 0.5133042 0.008235059 -0.001017758
-0.3082418 0.77962637 0.032160427 0.35475525 -0.09739253 -0.232034 0.08901859 -0.4715368
-0.43876323 0.17660615 -0.22683513 -0.3717334 -0.62966615 0.38765463 -0.23015933 -0.14741927
-0.16291538 0.16618292 0.15280174 -0.34024593 0.08003043 -0.13563012 0.17265816 -0.031212661
-0.030332454 -0.23344633 0.2946974 -0.6484603 0.50081086 -0.020821622 0.51903534 0.047334272
0.21934193 -0.024012968 -0.37675333 0.058874104 -0.18898429 0.6735289 -0.34110117 0.120390385
0.554619 -0.50906676 0.34007293 -0.26901954 0.5529294 0.04047797 0.38697106 -0.37820244
-0.58016187 -0.4354084 0.17474973 0.73046494 0.17210278 -0.0669975 0.23857124 0.6023431
-0.2313825 -0.014445982 0.14203474 0.10997831 0.5802168 0.00019414217 0.20317444 -0.5857608
-0.38889554 0.12518513 0.22515738 0.4329387 0.28309044 -0.29154035 0.15165001 -0.07576705
-0.044257157 0.38014048 0.26511756 -0.5161988 -0.36513418 0.029716957 -0.23506287 0.2612203
-0.102596976 0.4207579 -0.010357908 0.03042757 0.13654187 0.17880815 0.11122916 -0.32256907
-0.14486521 -0.2625914 0.215537 0.4200182 0.03947479 -1.0964675 -0.90620095 0.89816386
0.41230398 0.20277049 0.18011165 -0.15709913 -0.19427967 0.49367896 -0.27777052 -0.32133505
0.27705273 -0.66285497 0.44137612 -0.5704635 -0.012347749 -0.1890466 0.18514664 -0.112094834
-0.3608554 -0.2670308 -0.25395125 0.53796387 -0.10140184 -0.32899493 0.07972688 0.3434357
-0.25162202 -0.18506013 0.2194149 0.38386074 0.084821366 -0.24311511 -0.06263929 0.39376897
-0.3059306 0.35535994 -0.07117729 -0.03378721 0.22904873 0.34429592 -0.30276743 0.030012574
-0.20623635 0.063542955 0.25416762 -0.47574574 -0.089053266 -0.28156474 -0.1063024 -0.33551574
0.2121535 0.2505519 -0.27325913 -0.6020209 0.06954479 -0.41434824 -0.1606517 -0.2279509
-0.801202 0.35375556 0.024137396 -0.3089443 0.3441241 -0.16352546 0.38586187 -0.074718036
-0.88051856 -0.06813226 -0.24050911 0.8296155 -0.29959893 0.063719064 0.27267662 -0.5065736
-0.288429 0.033259448 -0.36603877 -0.50222933 -0.36684436 0.25652376 -0.12044928 -0.24805322
0.29765454 0.36332875 0.01331785 -0.16312239 0.24826135 0.050329912 -0.18444163 0.11134493
0.49241325 0.5027195 -0.22184688 0.15987955 0.42542 -0.012105224 -0.36170185 -0.17130831
0.008151454 0.10265067 -0.18716864 0.5645985 0.3518341 0.39641815 -0.19946963 0.19281216
0.40556377 -0.0980894 0.19098954 -0.021845236 -0.46275985 0.10801196 -0.025834993 0.15172271
-0.18502977 0.46061513 0.23891197 0.0016272252 0.048380643 0.72766906 -0.89403236 0.7315348
-0.1095214 0.2585191 0.05245082 0.6215017 -0.21546528 0.32435572 -0.060366202 -0.20252469
-0.68256617 0.4532405 -0.15392187 -0.5574015 -0.066077024 0.11456326 0.17896971 -0.40194672
00000000: 9be8 5c3e eafb 253e ab98 93be 7a2f 3a3d
00000010: 4883 523f 34b8 953e 3bd6 013f 4f95 a0be
00000020: 0494 6e3e 613c e43e 9781 8d3e 157f 67be
00000030: 44b5 7b3e 35fb b4be 5a3a de3d 706e 093e
00000040: 0539 5ebe 305f 253e 7908 92be 11ed 1a3d
00000050: ecb4 cbbd e767 033f 57ec 063c 4b66 85ba
00000060: dfd1 9dbe 9895 473f a7ba 033d 7ba2 b53e
00000070: bc75 c7bd 529a 6dbe 614f b63d 456d f1be
00000080: 93a5 e0be 3ed8 343e 7847 68be d753 bebe
00000090: cd31 21bf ab7a c63e e3ae 6bbe 14f5 16be
000000a0: 4ad3 26be db2b 2a3e 0f78 1c3e b734 aebe
000000b0: fee6 a33d 9fe2 0abe 4dcd 303e b2b1 ffbc
000000c0: c47b f8bc 8e0c 6fbe 94e2 963e 7f01 26bf
000000d0: 2435 003f 1b92 aabc 80df 043f 95e1 413d
000000e0: 2c9b 603e d8b6 c4bc d0e5 c0be f925 713d
000000f0: 1985 41be 646c 2c3f d0a4 aebe 3c8f f63d
00000100: 83fb 0d3f 3352 02bf 0a1e ae3e eebc 89be
00000110: c88c 0d3f 3acc 253d 1221 c63e c0a3 c1be
00000120: 7d85 14bf daed debe 98f1 323e c0ff 3a3f
00000130: b63b 303e fc35 89bd 054c 743e 2833 1a3f
00000140: 89ef 6cbe d7ae 6cbc 8e71 113e 4f3c e13d
00000150: 1789 143f a492 4b39 f60c 503e 6bf4 15bf
00000160: 511d c7be 8830 003e a88f 663e 24aa dd3e
00000170: 3bf1 903e c744 95be 244a 1b3e c12b 9bbd
00000180: fe46 35bd c6a1 c23e 7dbd 873e 9b25 04bf
00000190: def2 babe fa70 f33c 52b4 70be abbe 853e
000001a0: 5d1e d2bd 946d d73e 37b4 29bc 3d43 f93c
000001b0: a2d1 0b3e 7c19 373e 1dcc e33d c627 a5be
000001c0: 8c57 14be 6172 86be bbb5 5c3e a00c d73e
000001d0: 51b0 213d 0c59 8cbf c9fc 67bf 11ee 653f
000001e0: 8219 d33e 11a3 4f3e 306f 383e 98de 20be
000001f0: 40f1 46be 7dc3 fc3e f037 8ebe 0786 a4be
00000200: dbd9 8d3e ddb0 29bf 0dfc e13e e509 12bf
00000210: 374e 4abc 6f95 41be 1597 3d3e fa91 e5bd
00000220: 0ac2 b8be 43b8 88be e605 82be 00b8 093f
00000230: c5ab cfbd 0672 a8be d947 a33d ced6 af3e
00000240: 9ad4 80be 6780 3dbe 4dae 603e 6589 c43e
00000250: d3b6 ad3d 2bf3 78be 0749 80bd 169c c93e
00000260: f0a2 9cbe bdf1 b53e 66c5 91bd 7564 0abd
00000270: c08b 6a3e 8e47 b03e 5504 9bbe eedc f53c
00000280: 9f2f 53be cf22 823d 4222 823e f294 f3be
00000290: 8f61 b6bd 4129 90be 13b5 d9bd b8c8 abbe
000002a0: c43e 593e 5748 803e 9fe8 8bbe 0b1e 1abf
000002b0: 806d 8e3d 7425 d4be e181 24be f66b 69be
000002c0: 931b 4dbf 731f b53e cabb c53c f32d 9ebe
000002d0: 0931 b03e 3873 27be b08f c53e c505 99bd
000002e0: aa69 61bf ed88 8bbd 0548 76be ae61 543f
000002f0: 0865 99be 247f 823d 459c 8b3e cfae 01bf
00000300: f7ac 93be 0f3b 083d 6f69 bbbe 1a92 00bf
00000310: 06d3 bbbe 1557 833e 1dae f6bd aa01 7ebe
00000320: 2d66 983e 3a06 ba3e 1d33 5a3c 8e09 27be
00000330: 3938 7e3e bd26 4e3d 44de 3cbe d008 e43d
00000340: 971d fc3e 3ab2 003f d42b 63be 77b7 233e
00000350: a6d0 d93e fd54 46bc fc30 b9be 726b 2fbe
00000360: ad8d 053c 843a d23d 23a9 3fbe 8789 103f
00000370: 9923 b43e 52f7 ca3e c441 4cbe 8d70 453e
00000380: 0ea6 cf3e 18e3 c8bd c392 433e c8f4 b2bc
00000390: dcee ecbe 6035 dd3d e8a3 d3bc 335d 1b3e
000003a0: 7278 3dbe bfd5 eb3e 57a5 743e 9e48 d53a
000003b0: c82a 463d 8548 3a3f 4edf 64bf dd45 3b3f
000003c0: c14c e0bd 9e5c 843e acd6 563d bc1a 1f3f
000003d0: eea2 5cbe f411 a63e 8d42 77bd a262 4fbe
000003e0: a8bc 2ebf 240f e83e b29d 1dbe ddb1 0ebf
000003f0: 6453 87bd 24a0 ea3d d643 373e f6cb cdbe

VAE.Tokenizer.bias f4 [156, 4]
0.4513788 0.351184 -0.5704459 -0.019698001 0.32917413 0.18160425 6.7072215e-05 0.41832653
-0.23679544 0.45775315 0.07866978 0.01566647 -0.33023307 -0.5609976 0.049661074 -0.19788447
0.1495301 0.10637461 -0.4787622 -0.11927717 -0.16029215 -0.41411966 0.25572276 0.05694377
0.45454174 0.2930474 -0.29517692 0.23854235 0.20890996 0.21413498 -0.33855864 -0.020905105
0.2231045 -0.030288314 0.28543326 -0.31812176 0.36602157 0.20783187 -0.296619 0.20365423
0.24452902 0.07320349 -0.054007255 0.49259478 0.12184885 -0.26937562 0.27398345 0.10558031
0.07323443 -0.31697848 0.13952926 -0.10606535 0.18426597 -0.21520391 0.32661778 0.18988322
0.18968993 0.16970336 -0.38648725 -0.051141385 -0.26858822 -0.016937125 0.15265395 -0.1616298
-0.0011797718 -0.34169108 0.21603103 0.26237476 0.02409815 -0.16599423 -0.23368366 -0.2853283
0.30784422 0.2698129 -0.13833317 0.18664141 0.30663082 0.2146254 -0.18432397 0.123765856
0.17992826 0.17375074 -0.73980415 -0.26413232 0.043308984 -0.048021317 -0.09442352 0.010168576
0.04613885 0.20374636 -0.42402 -0.10066612 0.25062126 0.1270892 -0.17417753 0.20076948
-0.24017954 0.26767752 0.400921 -0.012741953 0.26330307 0.30247876 -0.21831386 0.073354356
-0.3237393 0.14255339 -0.20522512 -0.41281998 0.022934688 0.31254628 -0.046833947 0.0840262
-0.07342049 -0.27080268 -0.3611002 -0.42391047 -0.081847645 0.23073986 -0.10085443 0.1215443
0.27692193 0.16182752 -0.021436846 0.3256664 0.11158737 -0.029824425 -0.169658 0.28695548
-0.48459136 0.07803093 -0.25843337 0.33885074 0.30745265 0.20860419 0.28233138 -0.3477421
0.25077793 0.5229982 0.30410406 0.070599705 0.23767368 0.25490123 -0.2792743 0.025853837
-0.2947044 0.36120582 0.39873025 0.035913907 0.14173803 -0.3749336 0.18106697 0.43805036
-0.017031804 0.42744958 -0.019375328 0.06869183 -0.25037888 0.26422074 -0.21115088 -0.20404784
0.061722957 -0.07410027 -0.2092119 0.28691205 -0.33690014 0.25427663 -0.15396827 0.3819673
-0.39786822 0.22082305 -0.15720066 0.41807747 0.22691941 0.13211119 -0.05716311 -0.42440972
-0.39072543 0.151195 -0.24164575 0.29173195 0.33252448 0.24429986 -0.59495616 -0.10559257
-0.16935462 0.33713064 -0.1466223 -0.10843279 0.0771085 -0.060290623 0.35951862 0.013973641
0.22910632 0.2512713 -0.29464346 0.013540498 -0.3286971 0.35970142 -0.15621911 0.13908374
0.24610305 0.09317972 0.26853955 -0.33784288 0.23962197 -0.18118368 0.21112764 -0.0009954685
0.051395953 -0.27737853 0.27021855 0.34183025 0.012588887 -0.092951894 0.2948434 -0.27076417
0.04259516 -0.32278246 0.20476031 0.0012496044 0.047384005 -0.08933909 -0.21971916 0.26705396
-0.020656427 -0.12279404 -0.23685578 -0.31981495 0.30356288 0.18178444 0.046761326 -0.32690814
0.18309823 -0.0813014 0.37629104 0.07864434 0.16157572 -0.09784108 0.23364311 -0.3754207
-0.047959514 0.07197629 -0.47461632 -0.21316871 -0.18950105 0.0320043 -0.40190533 -0.20700096
0.02880301 -0.18913959 -0.22137907 0.36269122 -0.14456837 -0.32209647 -0.0068451436 -0.29867804
00000000: 1f1b e73e 64ce b33e be08 12bf b45d a1bc
00000010: 8389 a83e 77f6 393e 1fa9 8c38 e52e d63e
00000020: 817a 72be 9f5e ea3e 9f1d a13d f856 803c
00000030: 4f14 a9be 8a9d 0fbf 6969 4b3d 3aa2 4abe
00000040: 6b1e 193e eeda d93d 5220 f5be 9747 f4bd
00000050: a023 24be 7e07 d4be 18ee 823e df3d 693d
00000060: b2b9 e83e 4f0a 963e 6e21 97be 7244 743e
00000070: 7eec 553e 3346 5b3e 8f57 adbe 2f41 abbc
00000080: 8275 643e 331f f8bc 4f24 923e dbe0 a2be
00000090: 2e67 bb3e e1d1 543e 72de 97be bc8a 503e
000000a0: d165 7a3e b6eb 953d b636 5dbd 6235 fc3e
000000b0: e48b f93d 9aeb 89be 8f47 8c3e 7d3a d83d
000000c0: effb 953d 014b a2be c2e0 0e3e ca38 d9bd
000000d0: 38b0 3c3e 6a5e 5cbe 723a a73e bf70 423e
000000e0: 143e 423e b8c6 2d3e a8e1 c5be a179 51bd
000000f0: 6584 89be babf 8abc 5151 1c3e 4882 25be
00000100: 93a2 9aba 22f2 aebe 3d37 5d3e fc55 863e
00000110: 7c69 c53c 64fa 29be c54a 6fbe 8d16 92be
00000120: c29d 9d3e eb24 8a3e 36a7 0dbe ed1e 3f3e
00000130: b7fe 9c3e c3c6 5b3e 6cbf 3cbe f478 fd3d
00000140: 1d3f 383e b7eb 313e ce63 3dbf 5a3c 87be
00000150: c364 313d 00b2 44bd 1e61 c1bd 199a 263c
00000160: 17fc 3c3d e3a2 503e 2619 d9be 0a2a cebd
00000170: 6e51 803e ac23 023e 985b 32be 8496 4d3e
00000180: a0f1 75be 070d 893e 8445 cd3e a0c3 50bc
00000190: a9cf 863e 7fde 9a3e ab8d 5fbe cf3a 963d
000001a0: 28c1 a5be 84f9 113e 8926 52be 245d d3be
000001b0: 87e1 bb3c 1106 a03e f4d4 3fbd ee15 ac3d
000001c0: 7b5d 96bd a6a6 8abe 20e2 b8be cb0a d9be
000001d0: bd9f a7bd 1247 6c3e c48c cebd 38ec f83d
000001e0: b6c8 8d3e 1db6 253e 539c afbc bfbd a63e
000001f0: eb87 e43d 5a52 f4bc d4ba 2dbe d4eb 923e
00000200: 5c1c f8be aece 9f3d 6151 84be d87d ad3e
00000210: 6f6a 9d3e 569c 553e bd8d 903e 410b b2be
00000220: f765 803e 36e3 053f 87b3 9b3e 9496 903d
00000230: bb60 733e 6a82 823e 0bfd 8ebe 6dcb d33c
00000240: 7fe3 96be f8ef b83e 5f26 cc3e 761a 133d
00000250: c623 113e 4cf7 bfbe 9f69 393e 2348 e03e
00000260: 4886 8bbc acda da3e 02b9 9ebc 4dae 8c3d
00000270: a931 80be f147 873e f037 58be ebf1 50be
00000280: 36d1 7c3d e2c1 97bd a53b 56be 23e6 923e
00000290: 2d7e acbe 8c30 823e dca9 1dbe 3891 c33e
000002a0: 62b5 cbbe 701f 623e 36f9 20be 400e d63e
000002b0: 905d 683e 2848 073e dd23 6abd 3b4c d9be
000002c0: 2a0d c8be ddd2 1a3e fc71 77be e45d 953e
000002d0: a640 aa3e be29 7a3e 0c4f 18bf eb40 d8bd
000002e0: 4c6b 2dbe 639c ac3e 2824 16be 0312 debd
000002f0: 10eb 9d3d 4df3 76bd d312 b83e b3f1 643c
00000300: d99a 6a3e a2a6 803e 82db 96be f7d8 5d3c
00000310: fc4a a8be c92a b83e e7f7 1fbe f86b 0e3e
00000320: 7002 7c3e 02d5 be3d 047e 893e bef9 acbe
00000330: 765f 753e 3788 39be d831 583e 617a 82ba
00000340: 9084 523d 8f04 8ebe 165a 8a3e 6004 af3e
00000350: 9e41 4e3c 905d bebd b7f5 963e 9aa1 8abe
00000360: 4378 2e3d be43 a5be b0ac 513e c4c9 a33a
00000370: bb15 423d 6af7 b6bd 0ffe 60be 4cbb 883e
00000380: ab37 a9bc 717b fbbd 528a 72be c9be a3be
00000390: 986c 9b3e b325 3a3e ce88 3f3d 8160 a7be
000003a0: 1a7e 3b3e 5981 a6bd 38a9 c03e 4910 a13d
000003b0: 1b74 253e e760 c8bd 2440 6f3e 2437 c0be
000003c0: 3271 44bd 4e68 933d e900 f3be e648 5abe
000003d0: 900c 42be f116 033d 89c6 cdbe 0ff8 53be
000003e0: 4af4 eb3c cfad 41be 32b1 62be aab2 b93e
000003f0: bb09 14be d4e9 a4be 3a4d e0bb 54ec 98be

VAE.encoder_mu.layers.0.attention.W_q.weight f4 [4, 4]
-0.2800507 0.23760013 -0.12687366 -0.28174663 0.051861838 -0.087172516 -0.20843723 -0.2400396
-0.44242802 0.27933988 0.0011023654 -0.27842024 0.029840842 0.2678256 0.2610153 -0.050228905
00000000: ce62 8fbe 734d 733e 2beb 01be 1841 90be
00000010: 146d 543d 8187 b2bd 9270 55be f1cc 75be
00000020: ed85 e2be a305 8f3e 3f7d 903a 198d 8ebe
00000030: c874 f43c 7020 893e cca3 853e d3bc 4dbd

VAE.encoder_mu.layers.0.attention.W_q.bias f4 [4]
0.052327454 0.033658486 -0.033566374 -0.03753282
00000000: 5055 563d 7bdd 093d e57c 09bd 04bc 19bd

VAE.encoder_mu.layers.0.attention.W_k.weight f4 [4, 4]
0.547986 -0.2844847 -0.053509958 -0.3766058 0.5198319 -0.44630468 0.35945502 -0.16380124
-0.29874128 -0.24300566 -0.34109554 -0.43497962 0.20528464 0.18235122 -0.3502988 0.35555267
00000000: cf48 0c3f fba7 91be 422d 5bbd 7ad2 c0be
00000010: b413 053f 0c82 e4be 7d0a b83e 83bb 27be
00000020: 9ef4 98be 7ad6 78be 13a4 aebe a6b5 debe
00000030: 2336 523e 47ba 3a3e 5d5a b3be 000b b63e

VAE.encoder_mu.layers.0.attention.W_k.bias f4 [4]
-2.0909904e-07 3.735843e-07 2.844167e-06 -1.6969588e-07
00000000: b584 60b4 0991 c834 6bde 3e36 a635 36b4

VAE.encoder_mu.layers.0.attention.W_v.weight f4 [4, 4]
0.3489613 0.40025383 -0.11643577 0.13167876 0.15428235 -0.38682935 0.12562355 -0.10893941
0.38514504 -0.14247805 -0.16616896 -0.03763644 0.113097735 -0.3164407 -0.15782739 -0.089753434
00000000: 0eab b23e 12ee cc3e e175 eebd ccd6 063e
00000010: 31fc 1d3e 7f0e c6be 76a3 003e a01b dfbd
00000020: bb31 c53e c4e5 11be 3228 2abe ab28 1abd
00000030: c99f e73d 8404 a2be 819d 21be a6d0 b7bd

VAE.encoder_mu.layers.0.attention.W_v.bias f4 [4]
0.01850133 -0.028113429 0.054646485 -0.004203628
00000000: 1a90 973c 224e e6bc fed4 5f3d 96be 89bb

VAE.encoder_mu.layers.0.linear0.weight f4 [128, 4]
0.28623626 0.328048 -0.40573558 0.09495075 0.027685646 0.047835704 -0.30660674 -0.008372155
-0.048835967 -0.029077047 -0.17005111 -0.15542614 -0.06458282 -0.2282734 -0.312777 0.117331095
0.14281513 0.241178 -0.2161003 -0.13632129 0.29414177 0.51447594 -0.1073737 0.07772509
-0.4626551 -0.12809163 0.44239122 0.339369 0.07137561 -0.4188411 -0.45036158 -0.35858724
0.056933906 -0.15224433 0.28852162 0.44575733 -0.013816308 0.31475648 0.23077156 0.45901227
0.16737671 -0.22731665 0.156585 0.06984292 -0.12672228 0.16114695 0.3633261 -0.13130994
-0.42253724 -0.33433053 -0.10630072 0.35274863 -0.13674626 0.4667317 -0.28740788 -0.14468665
0.45861757 -0.3289373 -0.23627132 0.4510257 -0.51617306 -0.41313136 0.37026945 0.32854435
0.34320498 -0.23268235 0.15611371 0.28535324 -0.44595948 -0.13536513 0.5435801 -0.4713495
0.012706015 0.0046427995 0.07258559 -0.17745556 0.30510873 0.19218774 -0.055464473 -0.41173202
-0.5430982 -0.0008567297 -0.22771929 0.30216253 -0.07544589 0.52049494 -0.49853015 0.4179949
0.09898265 0.45653486 0.07314728 -0.05763765 0.48849082 -0.3426993 -0.01095777 0.311438
0.45401344 0.24713622 0.31971693 0.4571998 -0.13358797 -0.49099046 -0.37279987 -0.12698522
-0.4173886 -0.14603467 -0.29754677 0.06763785 0.21651313 -0.21558884 0.009405926 0.016187001
-0.11600817 -0.025906125 0.10273731 0.34401494 0.22946888 0.14101209 -0.2731295 0.15363078
-0.23610745 0.4846521 0.38850698 -0.435769 0.052622102 -0.17117468 0.44508973 0.4971395
-0.29557377 -0.015152103 0.4589356 -0.46444103 0.025318682 -0.008196133 0.31870157 -0.4153104
0.47221357 -0.095914714 -0.4508974 0.2485438 0.13880827 0.0033249373 -0.39512414 0.2256231
0.030325536 -0.28028077 -0.0070507578 0.12540779 -0.35388055 0.13551882 0.33277994 -0.017604442
0.10329976 -0.318348 -0.24702908 0.012950554 0.46668896 -0.26559538 0.4056981 0.36963925
0.26539126 0.04464775 -0.4135328 -0.4798401 -0.19928044 0.22249213 0.17266509 -0.44642988
-0.053131595 -0.1787992 -0.09717515 -0.45614314 0.34974575 -0.25184515 -0.046346206 0.40266508
-0.42738682 -0.21457864 -0.43086204 0.24346565 0.39197108 -0.30061638 0.11731685 0.22126012
-0.4930698 0.12762685 0.059663348 0.09447907 -0.42812917 0.43184242 0.44557986 0.32183516
0.41886798 -0.45549208 0.23696634 -0.10949885 0.16843955 0.08325666 -0.397602 0.3417822
-0.4405784 0.17666042 0.41101325 -0.25295895 0.0994143 -0.06422816 -0.08079173 0.44742244
0.26220125 -0.19919604 -0.49383608 -0.2992487 0.07269421 -0.29728663 0.049675085 -0.3333946
0.07538762 0.20658161 -0.28955126 0.4247908 0.21383715 0.075273685 -0.3416542 -0.16699708
-0.033459853 -0.31087142 -0.1048579 0.46048605 0.022423534 0.18056422 0.33955476 -0.020002184
-0.18197978 0.4622905 0.11745646 0.44717166 -0.38863584 -0.37097314 0.052790307 -0.5141678
0.028335022 -0.2051128 0.16757455 -0.4779545 0.32261196 -0.23239519 0.117769204 -0.37018457
0.23760015 -0.26501074 0.2503384 -0.43654916 -0.24280654 -0.126986 0.121764466 -0.18212834
00000000: 8f8d 923e e8f5 a73e 93bc cfbe 8a75 c23d
00000010: 02cd e23c 5fef 433d 8ffb 9cbe 5d2b 09bc
00000020: 3908 48bd fd32 eebc e121 2ebe 0828 1fbe
00000030: ff43 84bd 81c0 69be 4f24 a0be 494b f03d
00000040: 213e 123e 5ef7 763e 6649 5dbe cf97 0bbe
00000050: c099 963e b2b4 033f bee6 dbbd 552e 9f3d
00000060: 21e1 ecbe 742a 03be 1a81 e23e c6c1 ad3e
00000070: 602d 923d 5772 d6be cb95 e6be bf98 b7be
00000080: 8733 693d f0e5 1bbe 1bb9 933e 4e3a e43e
00000090: cc5d 62bc c327 a13e 614f 6c3e a803 eb3e
000000a0: cd64 2b3e b2c5 68be d157 203e ce09 8f3d
000000b0: 7cc3 01be b503 253e e105 ba3e 1d76 06be
000000c0: cd56 d8be 5f2d abbe 31b4 d9bd 789b b43e
000000d0: 3607 0cbe 75f7 ee3e 2027 93be bd28 14be
000000e0: eccf ea3e 786a a8be 1cf1 71be d7ec e63e
000000f0: eb23 04bf f485 d3be f593 bd3e f736 a83e
00000100: 90b8 af3e 4844 6ebe 46dc 1f3e d219 923e
00000110: cd54 e4be 289d 0abe 1128 0b3f b954 f1be
00000120: e42c 503c a022 983b c1a7 943d e9b6 35be
00000130: 3637 9c3e ddcc 443e b72e 63bd 8ace d2be
00000140: 7c08 0bbf 2896 60ba 3f2f 69be 0cb5 9a3e
00000150: 6083 9abd 283f 053f 583f ffbe 6d03 d63e
00000160: 6ab7 ca3d f0be e93e 3ece 953d 7515 6cbd
00000170: 781b fa3e 4876 afbe 3888 33bc cd74 9f3e
00000180: 7374 e83e 4711 7d3e f0b1 a33e 1816 ea3e
00000190: 49cb 08be 1a63 fbbe a0df bebe 6a08 02be
000001a0: f5b3 d5be 1d8a 15be 0d58 98be b785 8a3d
000001b0: 9eb5 5d3e 52c3 5cbe 501b 1a3c 9a9a 843c
000001c0: b195 edbd 1539 d4bc f067 d23d ba22 b03e
000001d0: e4f9 6a3e 7965 103e a1d7 8bbe 6351 1d3e
000001e0: 27c6 71be 5224 f83e 63ea c63e 1d1d dfbe
000001f0: 468a 573d 6a48 2fbe cde2 e33e 1289 fe3e
00000200: 7255 97be 8740 78bc 9bf9 ea3e 37cb edbe
00000210: 2069 cf3c 1349 06bc da2c a33e 91a3 d4be
00000220: fac5 f13e ef6e c4bd 06dc e6be 4482 7e3e
00000230: c123 0e3e 31e7 593b b64d cabe be09 673e
00000240: 426d f83c f680 8fbe 0b0a e7bb e66a 003e
00000250: d52f b5be 72c5 0a3e 2262 aa3e 3137 90bc
00000260: d38e d33d 82fe a2be 31f5 7cbe 8f2e 543c
00000270: dbf1 ee3e 1efc 87be a9b7 cf3e 5b41 bd3e
00000280: 5de1 873e 8fe0 363d 92ba d3be 9aad f5be
00000290: 2c10 4cbe fad4 633e 1ecf 303e 7592 e4be
000002a0: 84a0 59bd 2317 37be c403 c7bd 988b e9be
000002b0: e011 b33e d9f1 80be 85d5 3dbd 1e2a ce3e
000002c0: 72d2 dabe 81ba 5bbe f399 dcbe 0f4f 793e
000002d0: 6fb0 c83e 64ea 99be d143 f03d 0392 623e
000002e0: a573 fcbe 9db0 023e 8e61 743d 3e7e c13d
000002f0: bf33 dbbe 731a dd3e 0b23 e43e 94c7 a43e
00000300: dd75 d63e 4236 e9be 4ea7 723e ef40 e0bd
00000310: 6b7b 2c3e 7882 aa3d 7d92 cbbe 14fe ae3e
00000320: 7e93 e1be 78e6 343e 5470 d23e d683 81be
00000330: b999 cb3d 0e8a 83bd 2276 a5bd 8e14 e53e
00000340: 3e3f 863e 0cfa 4bbe 15d8 fcbe 2037 99be
00000350: b4e0 943d f435 98be 1a78 4b3d b2b2 aabe
00000360: d364 9a3d 218a 533e 1040 94be 2e7e d93e
00000370: 20f8 5a3e 1729 9a3d 4ded aebe 4801 2bbe
00000380: 330d 09bd 8a2a 9fbe bdbf d6bd d4c4 eb3e
00000390: 8fb1 b73c d4e5 383e 1fda ad3e 9fdb a3bc
000003a0: e858 3abe 57b1 ec3e 038d f03d aff3 e43e
000003b0: 47fb c6be 31f0 bdbe a63a 583d 80a0 03bf
000003c0: d91e e83c 1709 52be aa98 2b3e 74b6 f4be
000003d0: 652d a53e 01f9 6dbe fb30 f13d d588 bdbe
000003e0: 744d 733e 7daf 87be 5b2c 803e 5f83 dfbe
000003f0: 47a2 78be 9e08 02be a65f f93d da7f 3abe

VAE.encoder_mu.layers.0.linear0.bias f4 [128]
0.36642173 0.051194467 0.42867452 0.25220188 -0.0057262923 -0.33938357 0.049421825 0.48273396
-0.13588543 -0.30855778 -0.5172362 0.27317375 -0.034732662 0.47825876 -0.026828084 0.10332123
0.038831696 0.03525499 0.31856915 0.12988561 0.44255474 -0.29090467 0.31286892 -0.28860074
-0.41799536 -0.2935999 -0.12893647 -0.053958356 0.29447812 -0.086289495 0.40041834 -0.38511053
-0.14136235 0.32624677 0.2812667 0.3766019 -0.32677728 -0.2108816 -0.34424022 0.2679133
-0.21280749 -0.3039094 0.41999865 -0.18853803 -0.05662574 -0.11711798 -0.2979793 -0.22839436
-0.48748267 -0.026927814 -0.01827814 0.4702333 0.207903 -0.48836997 0.026384383 -0.33716515
-0.231597 -0.21575433 -0.3260691 -0.35921615 -0.29465327 -0.279002 0.0120411925 0.41917506
-0.4356377 0.26216745 0.19658719 0.24911334 -0.26654834 0.10142959 -0.034814212 -0.20251
-0.39738578 -0.29231104 -0.08452737 0.39335778 -0.10347617 0.050925616 -0.26590154 -0.12445004
0.32613945 0.4655695 -0.44137165 -0.10446328 0.2566482 -0.47939548 -0.23230186 -0.049981203
0.12772167 0.36279702 0.14915656 -0.5000934 0.124681436 0.4065041 -0.13864914 -0.3596182
-0.2006467 -0.26623923 0.041819584 0.22194308 -0.40168986 0.04277734 0.13068429 0.016147938
-0.23578057 0.17038615 0.49526715 0.3577697 0.24894549 -0.393455 -0.41880766 -0.0048226155
-0.24011852 0.28178844 0.28309497 -0.31384453 -0.46992123 0.4380695 -0.035142094 -0.07315703
0.1527988 0.3515837 0.0046775755 0.25514296 -0.42930245 -0.2107542 0.39058644 0.51753944
00000000: a19b bb3e 4ab1 513d 3a7b db3e 9b20 813e
00000010: 9fa3 bbbb afc3 adbe 8a6e 4a3d e828 f73e
00000020: 8d25 0bbe 49fb 9dbe 9769 04bf 6edd 8b3e
00000030: d643 0ebd 55de f43e 92c6 dbbc 159a d33d
00000040: fc0d 1f3d 8967 103d 7f1b a33e bc00 053e
00000050: 8996 e23e 75f1 94be 5b30 a03e 7ac3 93be
00000060: 7d03 d6be ba52 96be ec07 04be 7003 5dbd
00000070: d6c5 963e 8cb8 b0bd a203 cd3e 352d c5be
00000080: 4bc1 10be d109 a73e 3002 903e f7d1 c03e
00000090: 5a4f a7be 59f1 57be 4140 b0be ef2b 893e
000000a0: 35ea 59be 039a 9bbe 100a d73e 1d10 41be
000000b0: 64f0 67bd 8ddb efbd be90 98be 36e0 69be
000000c0: 5497 f9be b897 dcbc 0abc 95bc 6bc2 f03e
000000d0: 86e4 543e a10b fabe 1024 d83c e9a0 acbe
000000e0: c427 6dbe b4ee 5cbe 87f2 a6be 2eeb b7be
000000f0: cbdc 96be 5ad9 8ebe 6c48 453c 1d9e d63e
00000100: e80b dfbe d03a 863e 274e 493e 9117 7f3e
00000110: 0679 88be 51ba cf3d 5999 0ebd c85e 4fbe
00000120: 2676 cbbe cba9 95be b01c adbd 3166 c93e
00000130: 50eb d3bd 6197 503d 3f24 88be aadf febd
00000140: c0fb a63e 205f ee3e 77fb e1be d8f0 d5bd
00000150: 6567 833e 5373 f5be 8ae0 6dbe 17b9 4cbd
00000160: 78c9 023e 88c0 b93e 7fbc 183e 1f06 00bf
00000170: fb58 ff3d 4e21 d03e 0afa 0dbe e01f b8be
00000180: 5476 4dbe 8250 88be 034b 2b3d 0c45 633e
00000190: 4baa cdbe 4b37 2f3d 1ad2 053e ae48 843c
000001a0: 7670 71be b579 2e3e a893 fd3e 972d b73e
000001b0: 91eb 7e3e ef72 c9be f56d d6be 0807 9ebb
000001c0: a1e1 75be 9346 903e d3f1 903e 3bb0 a0be
000001d0: 8499 f0be a54a e03e 28f1 0fbd 5ad3 95bd
000001e0: 4a77 1c3e c702 b43e 5946 993b 19a2 823e
000001f0: 88cd dbbe f3cf 57be f2fa c73e 777d 043f

VAE.encoder_mu.layers.0.linear1.weight f4 [4, 128]
0.062180214 0.02494084 0.02517843 -0.059579097 -0.027264906 0.09145601 0.043080136 -0.019615866
-0.047485005 0.16044924 -0.100341365 -0.008178781 0.05078671 0.07668219 -0.023022978 -0.024513157
0.02805402 0.03399667 -0.069815256 0.08955171 0.049525764 -0.049886335 -0.07379471 0.062446266
-0.03763975 0.06761226 -0.0062502506 -0.03850376 0.038287807 -0.10254835 0.061481435 -0.19955042
-0.020401368 -0.07912916 0.02172042 0.047619246 -0.012217212 0.05266129 0.09720535 0.0741044
0.05750626 -0.007274934 -0.05951877 -0.0010531236 -0.032161143 0.07323778 -0.05239283 0.081104405
0.06903056 -0.09076033 0.06463646 0.04767111 -0.08076825 0.047551185 -0.09235732 0.17274588
-0.091172345 -0.046369515 0.09965515 0.07501862 0.08909213 -0.036464818 -0.0697629 0.09214759
0.06717504 0.037470475 0.007133024 -0.030094445 0.014104627 -0.028455157 0.049839523 0.0029087684
0.008881591 0.042307653 -0.026471663 -0.051606108 -0.006553384 0.006692692 0.051246468 -0.09955861
0.021529792 -0.034833845 0.03809866 0.0023590964 0.083581164 -0.005495229 -0.1076093 -0.056266014
0.07152158 -0.037747048 0.08932758 -0.041167215 0.03456779 -0.009856999 0.072295636 -0.08246196
-0.016541108 -0.062354606 -0.059007116 0.092787705 -0.06271254 -0.02551585 -0.053975247 0.0057428754
-0.16845915 -0.030629873 -0.047687683 -0.06124694 0.060719877 0.02475846 0.04635369 0.09043882
-0.09035518 -0.052559827 -0.048898023 -0.05432279 -0.08511061 -0.035656884 -0.014604667 -0.017667418
0.041872725 -0.059348885 -0.043367278 -0.0523764 -0.026116155 0.09264968 0.05184006 0.08816306
-0.018128507 0.03007998 -0.07869279 0.047367122 -0.0115153175 0.065802485 -0.010053399 0.045307778
-0.0024751162 0.016991882 0.23012036 0.037874345 -0.03034392 -0.08339185 -0.012419115 -0.044497386
-0.042911593 0.0861083 0.055037286 0.048499294 0.038265944 -0.061459877 -0.014604304 -0.043829646
-0.0007216612 -0.1106484 0.10846749 -0.06602712 -0.097287826 0.06878859 0.09415335 -0.06760158
-0.05419065 -0.039896186 0.06688253 -0.0826209 -0.0349972 -0.0020974234 0.00728239 0.0019969288
-0.022741618 -0.04710373 -0.07271306 0.11557185 0.07586625 -0.07584589 -0.07162329 0.041971702
0.038813494 0.04571906 -0.065238744 0.024097346 -0.06340301 0.08925552 0.04299543 -0.04923877
0.0038003856 -0.12471546 -0.004053288 -0.165592 -0.016228687 -0.023541315 0.051959682 0.09881002
-0.10580268 -0.0153754875 -0.021871082 0.08013383 0.013745332 -0.074633725 0.11422658 -0.0016363502
-0.0028243437 -0.0023405913 0.13280475 -0.032970816 0.02163011 -0.055917308 0.036864433 -0.032645132
-0.07414758 -0.062283188 0.15250225 0.04531457 0.058433816 -0.05015296 0.022887086 0.028606983
-0.12458305 -0.06597351 0.074958704 -0.024248006 -0.050673462 0.046741232 0.0086974865 -0.035607133
-0.013466052 0.13472736 -0.043085985 0.12703189 0.12257959 0.010212073 -0.036902975 -0.090082936
-0.05683198 0.059803557 0.07513766 -0.06498383 0.07631131 0.036701493 0.1256894 -0.046089835
0.17087471 0.076601 0.031251468 -0.028860765 0.118824475 0.06649237 0.0033747056 0.063852035
0.010277353 -0.004157404 -0.06308285 0.055485647 0.17727765 0.06152463 -0.05635546 0.06724204
00000000: aeb0 7e3d bc50 cc3c ff42 ce3c 3609 74bd
00000010: a75a dfbc 4a4d bb3d cc74 303d 74b1 a0bc
00000020: a37f 42bd ce4c 243e c67f cdbd 4b00 06bc
00000030: ba05 503d 8d0b 9d3d af9a bcbc d1cf c8bc
00000040: 8bd1 e53c 1840 0b3d 4dfb 8ebd e366 b73d
00000050: 87db 4a3d 9d55 4cbd ae21 97bd a8c7 7f3d
00000060: 232c 1abd 4c78 8a3d e7ce ccbb 1eb6 1dbd
00000070: add3 1c3d df04 d2bd f5d3 7b3d f256 4cbe
00000080: c520 a7bc 780e a2bd 06ef b13c 660c 433d
00000090: b32a 48bc 5db3 573d 9913 c73d 0cc4 973d
000000a0: af8b 6b3d 9262 eebb f4c9 73bd f708 8aba
000000b0: 67bb 03bd b0fd 953d dd99 56bd 111a a63d
000000c0: e55f 8d3d 8de0 b9bd 1f60 843d c842 433d
000000d0: d369 a5bd 08c5 423d d625 bdbd 4ce4 303e
000000e0: 91b8 babd f6ed 3dbd 0018 cc3d 5da3 993d
000000f0: ef75 b63d 225c 15bd dadf 8ebd e0b7 bc3d
00000100: 1193 893d a47a 193d 24bc e93b a088 f6bc
00000110: 1817 673c ca1a e9bc 8724 4c3d 09a1 3e3b
00000120: 1884 113c ca4a 2d3d 1adb d8bc ed60 53bd
00000130: c5bd d6bb 5f4e db3b d1e7 513d 62e5 cbbd
00000140: 3f5f b03c efad 0ebd 570d 1c3d 129b 1a3b
00000150: 9a2c ab3d 5211 b4bb 4462 dcbd 3177 66bd
00000160: e879 923d a69c 1abd 61f1 b63d f49e 28bd
00000170: f496 0d3d 407f 21bc bc0f 943d d1e1 a8bd
00000180: 3881 87bc 8b67 7fbd 72b1 71bd 7b07 be3d
00000190: 6f6f 80bd 9e06 d1bc 2615 5dbd bb2e bc3b
000001a0: 8e80 2cbe 80eb fabc 2954 43bd 12de 7abd
000001b0: 68b5 783d 41d2 ca3c 5edd 3d3d fd37 b93d
000001c0: 230c b9bd f948 57bd 4b49 48bd 9381 5ebd
000001d0: 794e aebd f40c 12bd 6a48 6fbc 43bb 90bc
000001e0: bc82 2b3d d117 73bd e3a1 31bd a388 56bd
000001f0: 8cf1 d5bc 1ebf bd3d 3e56 543d d68e b43d
00000200: 3c82 94bc 4a6a f63c af29 a1bd 0704 423d
00000210: beaa 3cbc 74c3 863d 03b7 24bc a694 393d
00000220: 8f35 22bb 8f32 8b3c aca4 6b3e 2122 1b3d
00000230: d093 f8bc 59c9 aabd 8b79 4bbc e442 36bd
00000240: 11c4 2fbd 8c59 b03d c76e 613d 32a7 463d
00000250: c0bc 1c3d 5abd 7bbd e446 6fbc b786 33bd
00000260: dd2d 3dba a19b e2bd 3424 de3d 3a39 87bd
00000270: d73e c7bd 08e1 8c3d 79d3 c03d b272 8abd
00000280: 04f7 5dbd 2f6a 23bd b5f9 883d 2535 a9bd
00000290: 3959 0fbd ed74 09bb 1da1 ee3b e8de 023b
000002a0: a14c babc d7ef 40bd 96ea 94bd efb0 ec3d
000002b0: c45f 9b3d 1755 9bbd 3baf 92bd 85ea 2b3d
000002c0: e6fa 1e3d e943 3b3d e49b 85bd cc67 c53c
000002d0: 70d9 81bd 99cb b63d fa1b 303d 98ae 49bd
000002e0: e40f 793b d26a ffbd 72d1 84bb f390 29be
000002f0: 06f2 84bc b7d9 c0bc add3 543d e85c ca3d
00000300: 13af d8bd 78e9 7bbc fc2a b3bc 351d a43d
00000310: 1a34 613c 91d9 98bd a0ef e93d cd7a d6ba
00000320: a018 39bb 9b64 19bb f8fd 073e 680c 07bd
00000330: a131 b13c 8c09 65bd 29ff 163d e7b6 05bd
00000340: b0da 97bd a81c 7fbd 8d29 1c3e c59b 393d
00000350: 4c58 6f3d 316d 4dbd b37d bb3c 3159 ea3c
00000360: 6625 ffbd 1f1d 87bd f383 993d c1a3 c6bc
00000370: fa8e 4fbd bc73 3f3d e77f 0e3c c9d8 11bd
00000380: b7a0 5cbc f8f5 093e ee7a 30bd a614 023e
00000390: 020b fb3d 8a50 273c 9327 17bd 677d b8bd
000003a0: a6c8 68bd 93f4 743d c6e1 993d 3e16 85bd
000003b0: 1b49 9c3d 4e54 163d b9b4 003e b2c8 3cbd
000003c0: c8f9 2e3e fce0 9c3d 8a01 003d 696d ecbc
000003d0: 3f5a f33d 272d 883d 2a2a 5d3b dbc4 823d
000003e0: 5862 283c d53a 88bb 9531 81bd eb44 633d
000003f0: 4688 353e 4001 7c3d fcd4 66bd 32b6 893d

VAE.encoder_mu.layers.0.linear1.bias f4 [4]
-0.014940873 0.023175282 -0.08464677 0.08997076
00000000: 90ca 74bc 17da bd3c 495b adbd 9742 b83d

VAE.encoder_mu.layers.0.norm1.weight f4 [4]
1.0594323 0.9187035 1.0840789 1.0127785
00000000: 7a9b 873f 2730 6b3f 19c3 8a3f baa2 813f

VAE.encoder_mu.layers.0.norm1.bias f4 [4]
-0.025762659 -0.016794125 0.032398462 0.02023869
00000000: 360c d3bc d593 89bc 40b4 043d 9ccb a53c

VAE.encoder_mu.layers.1.attention.W_q.weight f4 [4, 4]
-0.11284812 -0.19697006 0.06805035 0.32711253 0.24033687 -0.23505376 -0.56751734 0.30751154
-0.49027848 0.51660043 0.11047934 -0.2717581 -0.00069681817 0.10834764 -0.3502138 0.5356742
00000000: ea1c e7bd 85b2 49be fb5d 8b3d 4b7b a73e
00000010: de1a 763e efb1 70be d148 11bf 2772 9d3e
00000020: c805 fbbe ed3f 043f fe42 e23d e123 8bbe
00000030: adaa 36ba 5ee5 dd3d 394f b3be f221 093f

VAE.encoder_mu.layers.1.attention.W_q.bias f4 [4]
0.05680182 -0.01228497 -0.020414548 0.048342273
00000000: 06a9 683d e646 49bc 693c a7bc 8c02 463d

VAE.encoder_mu.layers.1.attention.W_k.weight f4 [4, 4]
0.1523887 0.3916524 0.53337187 -0.26727438 0.027380753 -0.10429244 -0.11461354 -0.5109266
0.3780988 0.09681753 0.24174063 0.43555483 0.15281112 -0.41741556 0.48022223 -0.42832896
00000000: c90b 1c3e aa86 c83e 0f8b 083f 30d8 88be
00000010: 9a4d e03c 4697 d5bd 81ba eabd 16cc 02bf
00000020: 2a96 c13e 4548 c63d db8a 773e 0b01 df3e
00000030: 857a 1c3e 7eb7 d5be b0df f53e ef4d dbbe

VAE.encoder_mu.layers.1.attention.W_k.bias f4 [4]
1.9463994e-07 -9.62987e-06 6.860848e-06 -6.21335e-06
00000000: 38fe 5034 fa8f 21b7 3c36 e636 457c d0b6

VAE.encoder_mu.layers.1.attention.W_v.weight f4 [4, 4]
-0.019583832 -0.102173574 0.37302887 0.02545958 -0.28701743 -0.26756307 -0.4512167 0.2466674
-0.25969365 0.13327008 -0.2921952 0.22545426 0.0652203 0.2115489 0.11323582 0.4004235
00000000: 466e a0bc 6140 d1bd a4fd be3e 9c90 d03c
00000010: f3f3 92be 07fe 88be e005 e7be 6196 7c3e
00000020: 91f6 84be f477 083e 9c9a 95be 7bdd 663e
00000030: 3892 853d 46a0 583e 2ee8 e73d 4f04 cd3e

VAE.encoder_mu.layers.1.attention.W_v.bias f4 [4]
0.0357853 -0.010605925 0.030863944 -0.013867431
00000000: 9b93 123d 79c4 2dbc 62d6 fc3c 3934 63bc

VAE.encoder_mu.layers.1.linear0.weight f4 [128, 4]
0.2419881 0.09854715 0.18586315 -0.32862735 -0.4511585 -0.42880118 0.40777525 0.09489919
0.016704738 -0.099034905 -0.0036691427 0.16031533 0.099822186 0.113498755 -0.38551033 -0.10473123
-0.124489635 -0.8049269 0.32477865 0.25362685 -0.5121264 -0.5367757 -0.2764111 0.5635684
0.38441405 -0.3411116 -0.34300825 0.2510532 0.34285614 -0.3729444 0.44456637 -0.29328838
0.07785069 -0.44705895 0.13271166 -0.68486506 0.32511097 -0.41580072 0.29448307 0.23015201
0.15535071 -0.25766224 -0.2987421 0.026151376 -0.21126421 -0.17714219 -0.13427852 0.23048724
-0.1492722 0.03849866 0.43357566 -0.3181765 -0.17792441 -0.03715307 0.56337243 -0.5212495
-0.15211064 -0.2657615 -0.35480624 0.8973279 0.2172256 0.09306343 -0.44864136 0.093247786
0.24964626 -0.35643795 -0.054394245 -1.0872327 -0.27642816 0.4386758 -0.44522977 -0.018623931
0.4904133 -0.19011581 0.033771843 -0.07084447 0.021843381 0.44896325 -0.1299929 0.3871477
-0.3032241 -0.03656519 -0.28951278 0.3436594 0.5375449 0.16745476 0.121425495 -0.2183595
-0.29847378 0.5583274 -0.26500943 -0.35653585 -0.54185385 0.12659454 -0.45072255 0.5896603
0.4694987 0.048258983 -0.09450657 -0.4103958 -0.37325704 0.22620897 -0.44040436 0.5545448
-0.37382007 0.34847903 -0.30556566 0.3176552 0.27527457 0.07746002 -0.4171427 0.29436004
0.13345572 -0.59532225 -0.24501215 -0.4825007 -0.32068062 0.10845624 -0.5194494 -0.4021604
0.3631302 -0.27113986 0.25948638 -0.5818581 0.16260545 -0.10752077 0.46826494 -0.19546324
-0.26610166 0.27511936 -0.21178639 0.4660268 0.0013625192 -0.074019015 -0.34300125 -0.12931883
-0.27945822 0.6193374 -0.38752836 -0.3014578 -0.36398345 0.33099112 -0.08272888 -0.3774213
-0.08639259 0.18791103 0.49121016 0.47844836 0.41827247 0.14369579 0.055152457 0.6609082
-0.14124393 -0.36370397 0.10685922 -0.63668114 0.19547144 0.25218412 -0.14730097 0.11387941
0.29945984 -0.5615806 0.3408153 -0.54510623 0.015576951 0.32431108 0.46390328 -0.33578348
-0.40838328 -0.32365635 0.28797564 0.21454333 0.49560815 0.09291671 0.4148164 0.39970002
-0.545044 -0.03368278 0.35532922 0.5041223 -0.39330128 -0.5138514 -0.25752702 0.41890678
-0.32858786 -0.4658412 -0.20054328 0.5392209 0.22937177 0.14164823 0.4044159 -0.3930907
0.5419294 0.37978128 0.06153413 -0.17860904 0.55199784 -0.06568346 -0.4223352 -0.28067455
0.32861924 -0.010985508 -0.34912473 -0.65334284 -0.045786105 -0.2511696 0.52460444 -0.17212331
-0.3899958 -0.24110372 0.15837729 -0.34205547 -0.37451622 0.21472526 0.057584275 -0.2625743
-0.0026697954 0.33211285 -0.40601963 0.07353857 0.40182206 0.19916634 -0.034468018 -0.056188732
-0.24129705 0.37801573 0.3099235 -0.35828602 0.12343294 0.3256097 0.23382246 0.40533575
-0.36418575 -0.28501037 0.2540631 -0.37192407 0.29244778 0.0360778 -0.33895123 0.22381426
-0.56330174 -0.31608427 0.51854444 -0.10285431 0.5404232 0.09553281 -0.5317717 0.31304017
-0.11240179 -0.049041163 0.18713005 -0.24867886 -0.53363997 0.53616464 0.096360534 0.13317244
00000000: bacb 773e 17d3 c93d e952 3e3e d841 a8be
00000010: 3ffe e6be d48b dbbe ebc7 d03e 825a c23d
00000020: 60d8 883c d0d2 cabd 0076 70bb b429 243e
00000030: 936f cc3d 0972 e83d 9c61 c5be 547d d6bd
00000040: 6cf4 febd b00f 4ebf 6349 a63e 61db 813e
00000050: b71a 03bf 226a 09bf c185 8dbe 0546 103f
00000060: ebd1 c43e 2ea6 aebe c79e afbe 0c8a 803e
00000070: d78a af3e 92f2 bebe 349e e33e e529 96be
00000080: 2f70 9f3d e9e4 e4be 91e5 073e 5153 2fbf
00000090: f274 a63e d5e3 d4be 7cc6 963e f8ac 6b3e
000000a0: 4214 1f3e 4eec 83be b9f4 98be 693b d63c
000000b0: a555 58be c364 35be 4f80 09be d904 6c3e
000000c0: d0da 18be c5b0 1d3d a1fd dd3e 08e8 a2be
000000d0: d131 36be d12d 18bd 2d39 103f 9b70 05bf
000000e0: e4c2 1bbe e411 88be 2aa9 b5be 48b7 653f
000000f0: 6370 5e3e 0a98 be3d 52b4 e5be b2f8 be3d
00000100: 45a3 7f3e 097f b6be 80cc 5ebd 712a 8bbf
00000110: fe87 8dbe 1d9a e03e 28f5 e3be 3791 98bc
00000120: 7417 fb3e b8ad 42be 5854 0a3d e816 91bd
00000130: e4f0 b23c 83de e53e dc1c 05be 3938 c63e
00000140: 3040 9bbe 61c5 15bd 053b 94be 20f4 af3e
00000150: 8b9c 093f 4379 2b3e eead f83d a299 5fbe
00000160: 8ed1 98be 8bee 0e3f 51af 87be de8b b6be
00000170: efb6 0abf 00a2 013e 1bc5 e6be faf3 163f
00000180: 2262 f03e 36ab 453d a98c c1bd 661f d2be
00000190: 8c1b bfbe 53a3 673e ae7c e1be a6f6 0d3f
000001a0: 5865 bfbe d86b b23e 1a73 9cbe b4a3 a23e
000001b0: caf0 8c3e 5ca3 9e3d ba93 d5be 5cb6 963e
000001c0: 9ea8 083e 0a67 18bf 77e4 7abe 550a f7be
000001d0: 4030 a4be 4e1e de3d a3fa 04bf f8e7 cdbe
000001e0: 34ec b93e d8d2 8abe 66db 843e a7f4 14bf
000001f0: 0b82 263e d933 dcbd 6cc0 ef3e 8427 48be
00000200: 7a3e 88be 72dc 8c3e 88de 58be 119b ee3e
00000210: 8f96 b23a 4897 97bd dc9d afbe 286c 04be
00000220: 2615 8fbe e58c 1e3f 1e6a c6be ad58 9abe
00000230: 0a5c babe ab77 a93e c26d a9bd 5d3d c1be
00000240: 99ee b0bd c06b 403e e67f fb3e 2ff7 f43e
00000250: cf27 d63e fd24 133e 8be7 613d 4831 293f
00000260: 40a2 10be 6837 babe 02d9 da3d 89fd 22bf
00000270: aa29 483e 471e 813e 11d6 16be 9c39 e93d
00000280: cd52 993e bfc3 0fbf 587f ae3e 158c 0bbf
00000290: 7836 7f3c 1a0c a63e bb84 ed3e d0eb abbe
000002a0: 9d17 d1be 49b6 a5be 8b71 933e 3fb1 5b3e
000002b0: 5ac0 fd3e 1e4b be3d d162 d43e 7ba5 cc3e
000002c0: 0188 0bbf f4f6 09bd b6ed b53e 290e 013f
000002d0: c95e c9be c48b 03bf 95da 83be f37a d63e
000002e0: ab3c a8be bd82 eebe 385b 4dbe 620a 0a3f
000002f0: 6fe0 6a3e 3c0c 113e 9a0f cf3e 2f43 c9be
00000300: e3bb 0a3f b172 c23e 360b 7c3d 4ae5 36be
00000310: bb4f 0d3f 0d85 86bd 523c d8be 93b4 8fbe
00000320: c840 a83e 8ffc 33bc 7ac0 b2be 7a41 27bf
00000330: 368a 3bbd 4d99 80be 7a4c 063f 1841 30be
00000340: 88ad c7be e5e3 76be a82d 223e e521 afbe
00000350: 97c0 bfbe f0e0 5b3e 7ddd 6b3d 2370 86be
00000360: bcf7 2ebb b20a aa3e cee1 cfbe 649b 963d
00000370: 9fbb cd3e 43f2 4b3e 562e 0dbd 2826 66bd
00000380: 9316 77be 478b c13e 4bae 9e3e 4471 b7be
00000390: 69ca fc3d 51b6 a63e 286f 6f3e 2b88 cf3e
000003a0: 8e76 babe e1ec 91be 8f14 823e d56c bebe
000003b0: b7bb 953e 51c6 133d 048b adbe 912f 653e
000003c0: 8b34 10bf ccd5 a1be 54bf 043f 48a5 d2bd
000003d0: 2d59 0a3f b5a6 c33d 3122 08bf cd46 a03e
000003e0: e932 e6bd 63df 48bd 059f 3f3e aca5 7ebe
000003f0: a19c 08bf 1642 093f ac58 c53d 5b5e 083e

VAE.encoder_mu.layers.1.linear0.bias f4 [128]
0.515459 0.36633563 -0.44389558 -0.5357274 -0.34696293 -0.03810945 0.4418992 -0.03898888
-0.1526011 0.20553164 -0.13987918 0.108780585 0.2532457 0.021648683 -0.38991594 -0.3525371
-1.1842927 0.21099645 0.11865634 0.08563203 0.12039441 0.32336357 0.20375964 -0.2866331
-0.13197757 0.20313191 0.35571223 -0.5777287 -0.3287145 0.09654153 0.29022363 -0.47885802
0.37621757 0.08264033 -0.38019124 0.33175164 -0.10152083 -0.28135768 -0.3994539 -0.15364851
0.07150661 -0.31582844 0.16604383 -0.20185928 -0.07079573 0.30700746 0.2881418 0.10805065
-0.079665825 -0.48835388 -0.19253132 0.33456254 -0.035108443 -0.07386711 -0.37728268 0.015795656
-0.45135552 0.49123427 0.36150718 0.02518996 0.07260857 0.18851209 0.054246206 -0.39378914
-0.13238104 0.15539293 0.2649849 -0.28401744 -0.22129397 -0.48346302 -0.053564522 -0.34072298
-0.22698306 -0.09558106 0.49250242 -0.23536277 0.43337506 -0.25561017 -0.40865067 -0.1325251
0.25706255 -0.20515358 -0.47351223 0.41641656 -0.30574924 0.41570178 0.47732052 0.07073171
0.16787803 0.16417399 0.05120912 -0.17516257 0.43894714 0.012228718 -0.45010367 -0.00990748
0.23546441 -0.28769228 0.21021469 0.2935432 0.445583 0.13558622 0.3271957 0.3961456
0.21870787 -0.30883276 -0.24434574 -0.30557272 0.37275174 0.24696632 0.4714114 -0.31971207
0.48160085 0.21078572 -0.19707282 0.44214243 -0.1222006 -0.42884204 0.03610686 0.23301077
0.12171923 0.041234095 -0.031434584 0.4107375 0.40024373 0.12764208 -0.103848875 -0.41764668
00000000: 1ff5 033f 5890 bb3e 4846 e3be 6e25 09bf
00000010: 20a5 b1be a818 1cbd 9d40 e23e ceb2 1fbd
00000020: 7643 1cbe e376 523e 7d3c 0fbe 5bc8 de3d
00000030: 6ca9 813e 9458 b13c 10a3 c7be be7f b4be
00000040: e796 97bf 740f 583e 1802 f33d d95f af3d
00000050: 5891 f63d e98f a53e 5ea6 503e 93c1 92be
00000060: 2125 07be d001 503e ea1f b63e 07e6 13bf
00000070: 444d a8be 91b7 c53d 3198 943e e12c f5be
00000080: 979f c03e 553f a93d 6da8 c2be 5adb a93e
00000090: 27ea cfbd 1d0e 90be 3985 ccbe 0956 1dbe
000000a0: 0f72 923d 44b4 a1be 6507 2a3e 33b4 4ebe
000000b0: 5afd 90bd 1530 9d3e 5287 933e a949 dd3d
000000c0: d627 a3bd 8509 fabe ee26 45be c84b ab3e
000000d0: dfcd 0fbd a447 97bd 322b c1be e465 813c
000000e0: 1218 e7be 0f83 fb3e 7817 b93e 2d5b ce3c
000000f0: cdb3 943d 5009 413e 4531 5e3d bb9e c9be
00000100: e58e 07be 531f 1f3e 1aac 873e bc6a 91be
00000110: e39a 62be 7788 f7be 7966 5bbd 3e73 aebe
00000120: 3f6e 68be 01c0 c3bd 4729 fc3e f002 71be
00000130: 56e3 dd3e 56df 82be a93a d1be a9b4 07be
00000140: b49d 833e c813 52be 3270 f2be 8d34 d53e
00000150: 2a8b 9cbe ddd6 d43e 5b63 f43e c9db 903d
00000160: 38e8 2b3e 3a1d 283e a7c0 513d d15d 33be
00000170: aebd e03e f65a 483c fd73 e6be fc52 22bc
00000180: 951d 713e 674c 93be 8542 573e 4b4b 963e
00000190: 7423 e43e 1dd7 0a3e 3286 a73e 99d3 ca3e
000001a0: f5f4 5f3e 541f 9ebe c535 7abe 0774 9cbe
000001b0: 51d9 be3e bde4 7c3e d65c f13e 4db1 a3be
000001c0: 6394 f63e 36d8 573e 75cd 49be 7e60 e23e
000001d0: 4f44 fabd 2f91 dbbe c9e4 133d 609a 6e3e
000001e0: ef47 f93d 15e5 283d 8dc1 00bd 304c d23e
000001f0: bfec cc3e 9bb4 023e b8ae d4bd c9d5 d5be

VAE.encoder_mu.layers.1.linear1.weight f4 [4, 128]
-0.025132686 -0.046594985 0.06727833 -0.014192032 0.19802883 -0.066017695 0.035796702 0.0040889285
-0.14843632 -0.07029171 -0.011211989 -0.053805817 0.057727166 -0.08454483 -0.44548166 0.008449213
0.7122407 0.043257646 -0.064743735 -0.049780715 0.03027731 -0.019926282 -0.042499673 0.033959765
-0.02008644 -0.047926087 0.095874414 -0.051156286 0.0042515034 0.037860762 -0.064119495 -0.17455243
0.01764206 0.009820123 -0.1216467 -0.058383416 0.04309906 0.22527015 -0.24669164 0.041181665
0.020948082 -0.06102623 0.016968384 -0.052397367 -0.004618205 -0.021462925 -0.06231834 -0.010848019
0.042400625 0.005479872 -0.10531718 -0.04874897 -0.046757832 0.10835628 0.18121715 -0.0811479
-0.008605725 -0.07535933 -0.016207041 -0.04653391 0.032118864 -0.04574276 0.04171619 0.06839189
-0.04880918 -0.14945655 -0.045882735 0.056039203 0.071347326 -0.109741054 -0.07135359 0.043400213
-0.011794646 -0.017193494 -0.041034486 -0.022549296 0.038394313 0.019996673 -0.019302601 0.030902917
-0.047789562 0.03454388 0.2021927 0.031979173 -0.083124265 0.056548245 0.007337721 -0.05408397
-0.012814095 -0.0433929 -0.06763845 0.08059962 -0.0042633866 0.017098632 -0.04573549 -0.011090037
-0.017568262 0.035735905 0.09331202 0.039292645 0.07819224 -0.026643798 -0.05652827 0.00844734
0.004979583 0.039131068 -0.18929881 0.038029503 0.08136746 0.06572149 -0.039605338 -0.060440917
0.0041959537 0.08192755 -0.055915758 0.018642096 0.017379344 0.03735198 0.022757234 -0.048409
-0.013813713 0.008030605 -0.020027554 -0.013594396 -0.05700051 0.056522455 0.00880531 0.034423314
-0.02701214 -0.1519286 -0.052691475 0.19879517 0.3871061 -0.11564992 0.05150947 0.074721836
0.017287483 -0.035860624 0.0037382469 -0.10568497 0.046894386 -0.0020344083 -0.09002313 -0.038547985
-0.9486531 0.07493163 0.009221498 0.09053998 0.14745016 0.056193832 0.1826091 0.3544417
-0.19108437 0.065402605 0.13564189 0.031931218 0.046135243 0.30484617 0.0065321145 0.11328822
0.12889579 -0.046520278 0.13943112 0.08354758 -0.19684279 -0.042114876 0.0064059994 -0.062910244
0.1351719 0.044744328 -0.06772894 0.11594031 -0.16829658 -0.13286942 -0.113392115 0.10143531
0.04181151 -0.1241241 -0.07259912 -0.0524148 -0.15062444 0.1371297 0.08569793 -0.037847575
0.13292825 0.07019704 0.011545235 -0.10950087 -0.15187179 -0.114388295 -0.057523083 0.14179726
0.14947934 0.18861862 -0.103761114 0.10489095 0.19634111 -0.06560235 -0.21719523 0.24153835
-0.0771309 0.027406752 -0.050035283 0.107112154 0.019042006 0.070787735 0.052928776 0.23668942
-0.15709543 0.04929084 -0.2595871 -0.12800719 0.14354774 0.05912378 -0.016578604 0.0034643589
0.020019941 -0.055285588 -0.12649065 0.1379807 -0.07034506 -0.1396635 -0.045082178 -0.13292298
0.06105467 0.02003953 0.19185907 -0.08860671 0.08482228 0.07668563 -0.105546735 0.08967474
-0.045996077 -0.15425661 0.16222368 -0.09952276 0.06482856 -0.006950322 0.03851235 0.091021255
-0.036241807 -0.06015605 0.045480166 -0.05247078 0.12961529 -0.016817302 -0.072125174 0.08975647
0.225594 0.051434293 0.050663467 0.16765063 0.24498783 -0.067893535 0.0024516156 0.08826659
00000000: 10e3 cdbc 62da 3ebd 39c9 893d b285 68bc
00000010: 12c8 4a3e 4934 87bd 909f 123d 6bfc 853b
00000020: b1ff 17be 1af5 8fbd 7eb2 37bc 7d63 5cbd
00000030: 5273 6c3d d725 adbd 2c16 e4be 916e 0a3c
00000040: 6855 363f ee2e 313d 5d98 84bd dde6 4bbd
00000050: 1f08 f83c 713c a3bc 2314 2ebd 6519 0b3d
00000060: 518c a4bc 254e 44bd ce59 c43d 4189 51bd
00000070: 3250 8b3b e313 1b3d 1551 83bd dfbd 32be
00000080: 1586 903c 95e4 203c e821 f9bd 7323 6fbd
00000090: a488 303d 38ad 663e bc9c 7cbe 1bae 283d
000000a0: 509b ab3c a4f6 79bd 4801 8b3c 9f9e 56bd
000000b0: 5054 97bb 04d3 afbc 8441 7fbd e4bb 31bc
000000c0: 47ac 2d3d 8090 b33b 89b0 d7bd 00ad 47bd
000000d0: 2485 3fbd e6e9 dd3d fd90 393e df30 a6bd
000000e0: 07ff 0cbc fe55 9abd a1c4 84bc 579a 3ebd
000000f0: 128f 033d c35c 3bbd 98de 2a3d 0c11 8c3d
00000100: 22ec 47bd 230b 19be 89ef 3bbd 5d89 653d
00000110: 8c1e 923d ebbf e0bd d521 92bd 6cc4 313d
00000120: 553e 41bc 5fd9 8cbc c713 28bd 4db9 b8bc
00000130: 5b43 1d3d 10d0 a33c 7d20 9ebc 1d28 fd3c
00000140: fdbe 43bd e27d 0d3d 9a0b 4f3e 98fc 023d
00000150: 0e3d aabd 229f 673d 4471 f03b 2787 5dbd
00000160: 36f2 51bc c1bc 31bd 0786 8abd 6a11 a53d
00000170: e1b3 8bbb 6e12 8c3c 2355 3bbd fdb2 35bc
00000180: 51eb 8fbc d05f 123d 5f1a bf3d 53f1 203d
00000190: 4123 a03d 1844 dabc 308a 67bd b666 0a3c
000001a0: c52b a33b e647 203d 8cd7 41be d3c4 1b3d
000001b0: fca3 a63d fd98 863d 3539 22bd e590 77bd
000001c0: 367e 893b a2c9 a73d ec07 65bd 4fb7 983c
000001d0: 205f 8e3c 64fe 183d 616d ba3c 8448 46bd
000001e0: e952 62bc cc92 033c d310 a4bc 08bb 5ebc
000001f0: 5e79 69bd 1784 673d 2644 103c 76ff 0c3d
00000200: 9048 ddbc 2c93 1bbe 04d3 57bd f690 4b3e
00000210: c532 c63e ded9 ecbd 98fb 523d c307 993d
00000220: 7b9e 8d3c 97e2 12bd 60fd 743b 5d71 d8bd
00000230: 5414 403d b553 05bb 0c5e b8bd 7ee4 1dbd
00000240: eeda 72bf c175 993d c415 173c 066d b93d
00000250: 2dfd 163e 812b 663d e1fd 3a3e 6279 b53e
00000260: 9fab 43be cdf1 853d b5e5 0a3e 4fca 023d
00000270: 4ff8 3c3d cc14 9c3e 590b d63b a703 e83d
00000280: 42fd 033e 0c8c 3ebd 08c7 0e3e fe1a ab3d
00000290: 2891 49be a680 2cbd 6be9 d13b 16d7 80bd
000002a0: 816a 0a3e d445 373d 78b5 8abd 1d72 ed3d
000002b0: f055 2cbe ec0e 08be 203a e8bd 51bd cf3d
000002c0: 8c42 2b3d c734 febd d9ae 94bd e7b0 56bd
000002d0: 4b3d 1abe ba6b 0c3e 6582 af3d 0f06 1bbd
000002e0: 581e 083e 77c3 8f3d 3a28 3d3c fe41 e0bd
000002f0: 4784 1bbe 6944 eabd 539d 6bbd 4d33 113e
00000300: 1d11 193e 3d25 413e b580 d4bd 11d1 d63d
00000310: a50d 493e 865a 86bd 6d68 5ebe d455 773e
00000320: cef6 9dbd 2084 e03c ccf1 4cbd 9e5d db3d
00000330: fbfd 9b3c 29f9 903d d8cb 583d b65e 723e
00000340: a0dd 20be 31e5 493d 9ae8 84be 5114 03be
00000350: 2efe 123e c72b 723d dacf 87bc 4c0a 633b
00000360: dc00 a43c 2473 62bd c486 01be d04a 0d3e
00000370: 1211 90bd f303 0fbe 17a8 38bd f61c 08be
00000380: 7614 7a3d f129 a43c b476 443e 6f77 b5bd
00000390: 4eb7 ad3d 5b0d 9d3d e328 d8bd 64a7 b73d
000003a0: 6266 3cbd 72f5 1dbe f71d 263e 97d2 cbbd
000003b0: d6c4 843d 87bf e3bb 20bf 1d3d 5a69 ba3d
000003c0: 4a72 14bd 3166 76bd 6949 3a3d 9aeb 56bd
000003d0: dfb9 043e 70c4 89bc 5db6 93bd 3dd2 b73d
000003e0: 1d02 673e c4ac 523d 7f84 4f3d 9bac 2b3e
000003f0: 17de 7a3e c40b 8bbd 49ab 203b 1dc5 b43d

VAE.encoder_mu.layers.1.linear1.bias f4 [4]
0.04387626 -0.04758853 -0.025706083 -0.04181683
00000000: 98b7 333d 31ec 42bd 9095 d2bc 2048 2bbd

VAE.encoder_mu.layers.1.norm1.weight f4 [4]
1.1674105 1.1900387 1.2324909 1.2004093
00000000: b56d 953f 3053 983f 43c2 9d3f 03a7 993f

VAE.encoder_mu.layers.1.norm1.bias f4 [4]
-0.03647215 0.03469587 -0.022513758 -0.05106498
00000000: d263 15bd 421d 0e3d c66e b8bc 8329 51bd

VAE.encoder_mu.layers.1.norm0.weight f4 [4]
1.0247333 0.9453304 0.9498579 1.0984632
00000000: 762a 833f 2c01 723f e329 733f 719a 8c3f

VAE.encoder_mu.layers.1.norm0.bias f4 [4]
0.009012513 -0.0023191634 0.02445823 0.014003489
00000000: 38a9 133c 1bfd 17bb a05c c83c e46e 653c

VAE.encoder_mu.last_normalization.weight f4 [4]
1.0 1.0 1.0 1.0
00000000: 0000 803f 0000 803f 0000 803f 0000 803f

VAE.encoder_mu.last_normalization.bias f4 [4]
0.0 0.0 0.0 0.0
00000000: 0000 0000 0000 0000 0000 0000 0000 0000

VAE.encoder_mu.head.weight f4 [4, 4]
-0.41142756 -0.30160874 0.33680385 0.062910914 0.28612226 0.37501496 0.15819019 -0.36792958
0.15956908 -0.4958043 -0.28703064 0.16532385 -0.47716194 -0.25875628 0.39247334 0.22542125
00000000: a2a6 d2be 766c 9abe 8e71 ac3e 70d7 803d
00000010: 9e7e 923e f601 c03e 9cfc 213e 4461 bcbe
00000020: 1466 233e 10da fdbe aef5 92be a84a 293e
00000030: 924e f4be b47b 84be 44f2 c83e d4d4 663e

VAE.encoder_mu.head.bias f4 [4]
-0.13895708 0.24711043 0.13344306 0.11385757
00000000: c44a 0ebe 840a 7d3e 4ca5 083e 282e e93d

VAE.encoder_logvar.layers.0.attention.W_q.weight f4 [4, 4]
-1.0208235 -0.5534643 -0.37282982 -1.2837441 1.2887229 0.8746495 0.76634574 0.45356467
-0.4323173 -0.3195111 -0.90013635 -1.459003 -0.17707193 0.5377028 -0.12269036 -0.44229352
00000000: 58aa 82bf d6af 0dbf 8de3 bebe ba51 a4bf
00000010: dff4 a43f 08e9 5f3f 3c2f 443f a139 e83e
00000020: b158 ddbe f596 a3be 566f 66bf 9cc0 babf
00000030: 5852 35be e4a6 093f 1545 fbbd 4c74 e2be

VAE.encoder_logvar.layers.0.attention.W_q.bias f4 [4]
-0.08665913 -0.009642547 -0.14471902 -0.11609088
00000000: 587a b1bd c6fb 1dbc 3931 14be 0ec1 edbd

VAE.encoder_logvar.layers.0.attention.W_k.weight f4 [4, 4]
1.1025789 -0.5206739 0.5864258 -1.5613934 -0.69140923 0.32461277 -1.1701852 1.0626798
1.4668876 -0.68093604 -0.051744483 -1.8423061 0.7163277 -0.2666334 0.19299892 -0.12975386
00000000: 4e21 8d3f e24a 05bf 0020 163f bddb c7bf
00000010: 3200 31bf a533 a63e a1c8 95bf e405 883f
00000020: f9c2 bb3f d351 2ebf 06f2 53bd b0d0 ebbf
00000030: 4161 373f 2c84 88be 82a1 453e 32de 04be

VAE.encoder_logvar.layers.0.attention.W_k.bias f4 [4]
-2.334651e-06 3.737042e-06 -1.7535826e-06 7.3483966e-07
00000000: 00ad 1cb6 e5c9 7a36 a45c ebb5 cc41 4535

VAE.encoder_logvar.layers.0.attention.W_v.weight f4 [4, 4]
0.41371945 -0.25744843 0.4426941 -0.86609185 0.29746112 0.0008014851 0.41423163 -0.71746486
0.28397346 -0.18471451 0.32262954 -0.74070334 0.5817422 -0.33678353 0.42853186 -0.96859235
00000000: 09d3 d33e 48d0 83be cda8 e23e 32b8 5dbf
00000010: d34c 983e c11a 523a 2b16 d43e c7ab 37bf
00000020: f864 913e cd25 3dbe b32f a53e bc9e 3dbf
00000030: 0fed 143f e46e acbe 8768 db3e abf5 77bf

VAE.encoder_logvar.layers.0.attention.W_v.bias f4 [4]
0.03714797 -0.007460396 -0.0329171 -0.03437698
00000000: 7828 183d 5676 f4bb 15d4 06bd e0ce 0cbd
